Python_Agent_Hub/ml_pipeline/models/best.pt (torch, 222409 bytes, 12 tensors)

lstm.weight_ih_l0 f4 [256, 9]
00000000: c67f 1fbd 12ac d7bd 1fe2 acbd cb31 243d
00000010: 95cd ef3c ff09 2abc 339c 90bd aa96 143c
00000020: ee01 e03d 544e 9cbd 0369 edbd 5a2b 313b
00000030: 80a2 a13c c187 9ebd 0910 cbbd 8f9f acbd
00000040: 70b1 c7bd c5ec b0bd 4eb8 bc3d 5bb3 c2bc
00000050: 061d a6ba 3e1d 213e 3508 ca3d 3917 e93c
00000060: b9c5 bb3d ebd5 043e 71f6 ec3d c07b d9bc
00000070: 8a04 22bc 7377 8abd baf4 083c f9f0 203d
00000080: ba51 8b3d cd4f ddbd 7f29 28be 3ab6 123d
00000090: 52c8 a9bd 9870 4f3d 3010 6dbd ef84 e4bd
000000a0: ced7 dbbd b31c a5bd e64f cabc b26c bbbd
000000b0: 6051 693b c6ee 3c3b ab8f 65bd cffa 303d
000000c0: 3334 903c 16dd f1bd 55c1 45bc eab9 93bd
000000d0: e90b b4bd 2056 b4bc f179 483d 4d55 023e
000000e0: 9ad7 aabd 6786 96bb 7bb4 d93c 1174 103d
000000f0: c542 a43d 589e 603d 0cc5 43bd 76a2 43bd
00000100: 3331 aebc 60e7 f4bd 996d c4bc 6eb2 503c
00000110: 57db 0bbe 1768 45bd f7a0 a3bd 31e0 233a
00000120: 272c 46bd 0f4c 03bd de3c bcbc cac0 563d
00000130: 2bed cbbc 1209 513d ccc7 7e3d 0caf 0abd
00000140: ff17 aabb b24f babd 89c5 d03c dd6f cc3c
00000150: 74c6 3b3d 86f0 b4bd 812d df3d b5f9 fb3c
00000160: b14b aabd bc45 0b3e 1f81 0dbe d30b 8cbd
00000170: 5132 debd 27bc a2bd 432a 0f3e 050d 803d
00000180: c94d cabd d297 133d c8e6 c63d 3dc4 5ebc
00000190: 637b 1abe 07d1 ecbd 28bf ee3d 61d3 babd
000001a0: 9281 cc3d 2e0c 12be 4229 bdbb 8128 123e
000001b0: ed83 993d c1de 863c fd17 ed3d bb85 273d
000001c0: e955 843d d77c 283d 3259 863d 522b a1bd
000001d0: 755d 693d 358a f03d 9596 983c 6a24 82bd
000001e0: 8d18 0a3d 271f 45bd 86bf 6f3c d89d c33d
000001f0: 2ad8 31bd 0793 8a3c ba1e fd3d 5f58 8e3d
00000200: 5773 96bd b4df bd3d 5554 b8bd d9b7 ba3d
00000210: b19d 9bbc 8543 83bd 57f6 d2bd 612d cd3d
00000220: b7bc 75bd 325e a7ba 0ebc a8bd db18 da3d
00000230: 1ed1 29bd 90ef 0bbd a66f 06be b087 783d
00000240: 3556 9fbb 8378 d83d fb40 b6bd 254b a1bc
00000250: d738 b8bd dd9d 2cbd f0e0 9dbd 8d1a 93bb
00000260: 1f2a 853d a520 d2bb a3b1 85bd 6d6d d8bd
00000270: f6c5 903d 2fd0 a9bd 0381 7d3d 50de bc3d
00000280: 1109 f63c 4fb5 933d 66ae 063e c446 d9bb
00000290: c8c7 183c f987 e03d 6fbb 2dbd e54e 9dbd
000002a0: ae53 f33d 527d 543d 0f04 6a3d 23e0 c6bd
000002b0: 8f8c 34bd 16f6 37be 59f9 c0bb 1492 c3bd
000002c0: f5b7 343e b33a 213d 1d15 b2bd b9ba 38bc
000002d0: 89d5 22bc 68e7 84bd 07a4 17bd 85c2 c93d
000002e0: c22e 98bd fb9c e83d 03b4 f6bd b16d 2bbd
000002f0: 2943 ee3c d5da 933d 5905 0b3d 844e a43c
00000300: 99f1 c2bd 311c 543b c9ee bd3d 2416 1bbd
00000310: 1559 873d 511f 8fbd b174 f5bc 8d7d 953d
00000320: 7142 913d 868d f73c 4d83 76bd 694f d23d
00000330: f3cf b5bc 03e6 8abd 6ae6 80bc c331 153e
00000340: 850f 683d fd3c bbbd ee17 5d3c 9561 0fbe
00000350: 929c 6abc 1bb1 8d3a e60a d8bd 7e35 0fbe
00000360: dd74 fcbc c4a9 b0bc ab65 e9bd 280a 05bd
00000370: a2ef 02bd 9920 27bd 80ed 193c 567b b4bd
00000380: b87f 9ebb 1fa8 84bd 2f3b a73d c364 693d
00000390: 1e87 8dbd 2c54 5fbd e77d 85bd 6898 cf3d
000003a0: bda8 42be a15a 593d 4c4e fabd c673 7b3d
000003b0: e581 c63d e1b5 813d 7440 7fbc fc26 a1bd
000003c0: 7d58 433b 6ec1 aabd 4b47 b83d 381f bf3d
000003d0: e52e 9b3d 6757 293d 65a1 853d d3f8 e0bc
000003e0: 32b1 e03d 3d14 9c3c bbfd 25be 8d67 893d
000003f0: 6cc8 15bd aa00 41bd 45e7 cebd 74b7 29bd
-0.038940214 -0.10530867 -0.08441567 0.04008655 0.029272834 -0.01037836 -0.07061043 0.009069124
0.10937868 -0.076321274 -0.11592295 0.0027033896 0.019730806 -0.07740737 -0.09915168 -0.08428871
-0.097506404 -0.0863891 0.09214841 -0.023767164 -0.0012673445 0.15733811 0.098648466 0.028453456
0.09168572 0.12972228 0.115704425 -0.026548266 -0.0098887775 -0.067610644 0.008359129 0.03929231
0.068026975 -0.108062364 -0.1642208 0.035818316 -0.08290161 0.050644487 -0.057876766 -0.111581676
-0.10734521 -0.080621146 -0.024696302 -0.09151591 0.0035601482 0.0028828843 -0.056045216 0.04320794
0.017603016 -0.11809747 -0.01207002 -0.07213195 -0.08791334 -0.022013724 0.048944417 0.12727852
-0.08341904 -0.0045936587 0.026575318 0.03526694 0.08020548 0.05483851 -0.04779534 -0.047762357
-0.021263694 -0.11958194 -0.023978041 0.012737853 -0.1365789 -0.04819497 -0.07989686 0.00062513637
-0.04838195 -0.032054957 -0.022978242 0.05242995 -0.024893364 0.05103404 0.06220226 -0.033858344
-0.005190849 -0.09097232 0.025484817 0.024955684 0.045843557 -0.08834939 0.10897351 0.030758718
-0.08315218 0.1360082 -0.13818787 -0.06838193 -0.10849441 -0.079460435 0.13980965 0.06252483
-0.098781176 0.03603346 0.09711987 -0.013596592 -0.15086131 -0.11563306 0.11657554 -0.091223486
0.09985651 -0.14262459 -0.0057727406 0.14273264 0.07495866 0.01646364 0.11576841 0.04089902
0.064616986 0.04113468 0.065599814 -0.07869591 0.056973893 0.11745111 0.01862649 -0.06354602
0.03371482 -0.048125412 0.014633065 0.09551591 -0.04341904 0.016915811 0.12359376 0.06950449
-0.07346218 0.092711836 -0.0900046 0.091170974 -0.018996092 -0.06409363 -0.10300892 0.10018421
-0.059994426 -0.0012769161 -0.082389936 0.10649272 -0.041459195 -0.03416401 -0.13128528 0.060676277
-0.0048625716 0.10569861 -0.08899113 -0.019689152 -0.08995216 -0.042142738 -0.07708919 -0.004489249
0.065021746 -0.006412583 -0.06528022 -0.10567746 0.07069008 -0.08291661 0.061890613 0.0922209
0.03003362 0.07212316 0.13152465 -0.0066307504 0.009324975 0.10963435 -0.04241508 -0.076810636
0.11881195 0.051877327 0.057132777 -0.097107194 -0.04407936 -0.17964968 -0.0058890996 -0.095493466
0.17648299 0.03936262 -0.08695433 -0.011274987 -0.009938606 -0.0648945 -0.037021663 0.09851555
-0.07430793 0.11358067 -0.12046053 -0.041852657 0.029084759 0.07219473 0.033940647 0.02005697
-0.09518737 0.0032365436 0.0927406 -0.03786291 0.06608788 -0.06988395 -0.02996287 0.072993375
0.07092751 0.03021885 -0.060183812 0.102690525 -0.022193884 -0.067821525 -0.01573487 0.14569764
0.056655426 -0.09142492 0.013494475 -0.14002068 -0.014319556 0.0010810228 -0.10548954 -0.1398525
-0.030817444 -0.021565326 -0.11396345 -0.03248039 -0.031966813 -0.040802572 0.009395003 -0.08812587
-0.0048370026 -0.06477379 0.08165585 0.05698086 -0.06910537 -0.054523632 -0.065181546 0.10136491
-0.19009681 0.053064946 -0.12221965 0.061389707 0.09692744 0.06333519 -0.015579332 -0.07868764
0.0029807382 -0.08337675 0.08997973 0.093321264 0.07577304 0.04134312 0.06524924 -0.027462399
0.10971297 0.01905262 -0.16210072 0.06709204 -0.03656809 -0.047119774 -0.10102705 -0.04143472

lstm.weight_hh_l0 f4 [256, 64]
00000000: 7b55 203d 6d00 333d 7955 783d 205e e0bd
00000010: 7b14 443c 344c a93d bbaa 9f3c bb45 fb3d
00000020: d283 0a3d 2af2 f93d e06d b6bc 02c0 613d
00000030: d190 873d 6ed7 7a3c 869d d3bd b9d9 ec3d
00000040: e2c0 b53d 3933 f33d b1f1 d73d 845b 5eba
00000050: 24b7 a9bc 2910 b83c 3aef e93d 9cdc f5bd
00000060: 2c7d 67bd 6e29 cdbd cc4f 4f3d 417c ae3c
00000070: 9bf2 ea3b 1c6b a43d dbd4 c4bd 7001 8f3d
00000080: 6979 bd3d 07ce efbd b9a6 9d3d 67f0 e2bd
00000090: 7d17 fabd 9dbf d53d 8d26 713d e72b d4bd
000000a0: db8f 97bd 0970 fabd 5aa4 b6bd b57e a6bd
000000b0: 0b86 c7bd 0c4b ebbd d2ef fbbc 0e7c a6bd
000000c0: 41f4 63bd 1713 b03d a474 a73d 03fa 143d
000000d0: 3830 27bd 43f1 b3bd 997a 0ebd e114 6fbd
000000e0: 4ded a9bc 45a2 fb3d 52fc 223d 032b 57bd
000000f0: 378f af3d 4aa3 ea3d e72d cb3d 98bf 37bd
00000100: 7f97 be3d 0b19 573d f4e8 02bd 2b49 df3d
00000110: 2e5b 4e3d e4c4 eabd 38a3 01be f5cc 2cbe
00000120: f318 bb3b 535e 95bd 421b 793c 59ce 64ba
00000130: bf12 35bd 6400 8b3d c512 993c b4ec 54bb
00000140: 2b61 953b bf22 8fbd ebbd e23d 6a53 a73d
00000150: 8eb8 bebc dce2 f33c 754c ccbd 0995 ccbd
00000160: f944 b23c ce3d 1dbb 79ac 66bc f19d b5bd
00000170: ad05 81bd d506 74bd 58c4 773c 7191 073e
00000180: afae 263d 6382 b9bd e0dc 3fbd d4ec 7e3d
00000190: 00fe 0a3e f07d 013e 19cb 823d 96a8 fcbc
000001a0: b99b 053d 446b 923c 7832 e73d 4d23 c3bd
000001b0: 2ca8 c13d e923 3fbd b336 d83d 51ca 0bbe
000001c0: 8c2e b3bd fe4d 893d 5475 50bd d0b6 b4bd
000001d0: fb8c 1b3d dfa0 753c cd3c b73d 57f6 d6bb
000001e0: dbb7 04be bc22 7fbd 85ae 3e3d 4cb5 bd3c
000001f0: 59e4 853d 6fad da3d 98fb aebc 091f de3d
00000200: 2aa6 97bd 3797 8b3c 8df8 c63d 27f5 ccbc
00000210: 838f c5bd e4b8 473c 61ce eabd 2244 1a3c
00000220: 08b3 8f3d f4f5 b5bd e102 7b3d 4d6c c63c
00000230: 6998 52bd ccdd a8bd 420a 893d 7c6a d2bd
00000240: 325e c83d 3dea b6bd d70b 03bd 6f31 afbd
00000250: 1cf7 323d 2a63 e0bd bab6 babd 8a31 64bc
00000260: f976 493d af47 48bd de68 993d d002 90bd
00000270: cced 7e3d 285f 433c 8bcf 473c 40bf 9b3d
00000280: d675 86bd a572 833d 6ecb c7bc 3589 893a
00000290: 1b3b 233e 8623 993d d557 d33c 20c0 e63d
000002a0: 2d2e 333c 43fc 403d edfb b539 8a46 d6bd
000002b0: 6327 473d 9a3c 673c 1ad5 69bc 5c3c 123d
000002c0: aa20 cabd 9f88 52bd 1598 bfbd 2201 ebbd
000002d0: d6b8 56bd 7b80 a0bd a85e 3fbd 5470 8e3d
000002e0: 859b 2cbd 2ba2 f9bd d705 a5bc 1daf 0f3d
000002f0: 297b 51bd 8914 e83d 37ce 7d3d 8a02 12be
00000300: 8b41 0f3d f5f8 d03d 99a4 a0bd c4af 10bd
00000310: 8af7 ea3c 743e c7bd 7ab7 86bd eff6 b83d
00000320: 1cef 483d 5aad e53d 9a11 963d 7f9e 9a3d
00000330: 7c8f 9d3d 5aad f33d 39cc 0cbd 5663 073d
00000340: a6ac 1cbd 2c4f b3bd 367d a33c 8d44 ffbc
00000350: 1b88 afbd f2b9 69bd 3e9f 613d 875a 1d3d
00000360: 72f6 99bd 7eab d33d b940 d93d 33d0 abbc
00000370: 0e13 f5bd 1fa4 e9bd b30c 9bbd b674 fa3d
00000380: 6db2 d43b 949c 81bd 7403 4a3d f7bc 9bbd
00000390: a2f9 d53d e396 cd3d 1697 86bd 78a1 a83d
000003a0: 9cf3 12bd 0697 82bd 7b94 f53d deed f6bd
000003b0: 3e03 41bd db4c bc3d 07a8 a5bc 1669 74bd
000003c0: 133c d13d f8c0 733d b0cb acbd eb20 a4bd
000003d0: 0166 993d cebb 063d d202 90bd 9148 f23d
000003e0: 28f1 b3bd dd55 a1bd 375b 763c feb6 4f3d
000003f0: 1bf9 12bc 448e 89bd 9940 e13d ebe6 7a3d
0.03914402 0.043701578 0.060628388 -0.10955453 0.011967774 0.08266488 0.01949059 0.122691594
0.03381712 0.12204392 -0.02226919 0.055114754 0.066194184 0.0153101515 -0.103327796 0.11564965
0.0887468 0.11875004 0.10544146 -0.0008482265 -0.020717211 0.022468643 0.11422582 -0.120049685
-0.056515858 -0.10017668 0.05061321 0.021299483 0.007170034 0.08028242 -0.096109115 0.06982696
0.09251673 -0.117092185 0.076978154 -0.11081009 -0.12211511 0.10436938 0.058874656 -0.10359936
-0.07400485 -0.122284 -0.08918066 -0.08129636 -0.097423635 -0.114889234 -0.030754004 -0.0812913
-0.05565286 0.08597391 0.08176544 0.036371242 -0.04081747 -0.087862514 -0.034784887 -0.05836952
-0.020743037 0.1228681 0.039791413 -0.052531254 0.08572238 0.11456926 0.099208646 -0.044860452
0.09306239 0.052514117 -0.031960443 0.109026276 0.050379924 -0.11463335 -0.1265992 -0.1687506
0.0057097613 -0.072933815 0.015204253 -0.0008728258 -0.04420733 0.06787184 0.018685708 -0.003248972
0.0045587025 -0.06989049 0.1107138 0.08170207 -0.023281362 0.02977126 -0.099755205 -0.09989364
0.021761404 -0.0023993137 -0.014079207 -0.088680156 -0.06299911 -0.059576828 0.015122496 0.13239075
0.040693935 -0.090580724 -0.046841502 0.062237576 0.13573456 0.12645698 0.06386394 -0.030842107
0.03261921 0.017873414 0.11288923 -0.095282175 0.09455904 -0.046665106 0.10557308 -0.13651396
-0.087491125 0.06704329 -0.050893143 -0.08823931 0.037976246 0.014991968 0.08947144 -0.0065601277
-0.1296076 -0.062288985 0.046553154 0.023157738 0.065376945 0.10677611 -0.021360204 0.10845763
-0.0740474 0.017039878 0.09715376 -0.025019241 -0.09646513 0.012190077 -0.11465145 0.009415658
0.070165694 -0.088848025 0.061282042 0.024221564 -0.05141488 -0.082454294 0.0669141 -0.102742165
0.09783591 -0.08931396 -0.031993713 -0.085543506 0.043692693 -0.10956414 -0.091168836 -0.013927827
0.049185727 -0.048896488 0.07490705 -0.070317864 0.0622385 0.0119245425 0.012195478 0.076048374
-0.06565444 0.06418351 -0.024388995 0.0010493161 0.15940516 0.07477479 0.025798718 0.11267114
0.010936302 0.047115576 0.0003471071 -0.10462673 0.048621546 0.01411357 -0.014271999 0.035702094
-0.098695114 -0.051399823 -0.09355179 -0.114748254 -0.052422367 -0.07837006 -0.04672113 0.06955019
-0.042140502 -0.12189134 -0.020144386 0.03507911 -0.051142845 0.11332042 0.06196424 -0.14258781
0.034974616 0.10203735 -0.078438945 -0.035323873 0.028682489 -0.09728709 -0.06577964 0.09031474
0.049056157 0.11214705 0.07327576 0.07549762 0.07693383 0.118982986 -0.03437445 0.03305372
-0.038250588 -0.08755335 0.019957166 -0.031160617 -0.08570882 -0.057062097 0.055083506 0.03841641
-0.07517709 0.10335444 0.10608048 -0.0209733 -0.11966525 -0.11408257 -0.075707816 0.12229292
0.0064909966 -0.06328693 0.0493197 -0.076044016 0.10448004 0.10038545 -0.06571786 0.08233923
-0.035876855 -0.06376462 0.11991211 -0.12057088 -0.047122233 0.091943465 -0.020221723 -0.05967053
0.102165364 0.0595102 -0.08437288 -0.08014091 0.07490159 0.03289395 -0.07031788 0.11830247
-0.08786231 -0.07877705 0.015036396 0.050711624 -0.008970524 -0.06716588 0.10998649 0.061255377

lstm.bias_ih_l0 f4 [256]
00000000: 48eb 52bc 74fb 333c 145f c3bc 67e1 74bc
00000010: 3e27 ea3d 2f40 d33d 6d63 063d 5a4c 2a3c
00000020: 1b4b 193c b72b dd3d 4471 a23b 4290 44bd
00000030: ce30 903c ef28 bdbd 21e3 acbd ba2a 5d3c
00000040: af21 ba3c ae50 d83d a34e fc3d ac7a 063e
00000050: 68e3 05bc 8e5c 443d 75b9 4f3d 2979 27bd
00000060: 8b52 2dbd 9268 c9bb b84a 063e 8a33 703d
00000070: 4c83 03bb c625 fb3d d3a5 5abd 0545 4dbd
00000080: 84e1 d93d 3f02 b63d e236 1a3e 6a6c b8bd
00000090: 8fc1 1dbd f128 51bd 9646 973d 084a 77bd
000000a0: 1547 a83d ebf9 c03b ea75 c23d 85d2 93b9
000000b0: a206 0ebd d437 103d feac 64bd 1d71 aabd
000000c0: 5d1c bcbc 9ac5 843d b781 3e3d 572f cabc
000000d0: 8c4c 963d 0bb5 ed3d 28d9 60bd 9e37 373d
000000e0: de80 0e3c 8b37 d43d 744b c6bd 88e3 09bd
000000f0: 9f05 663d 0b60 8abd 91bc 9f3d 6fbe a2bd
00000100: 43ac e1bd 69d5 c2bd 1f79 fa3d 6f08 2dbd
00000110: 32e5 aa3d 7788 e53d c5f9 11bd 4dae f6bb
00000120: 5ab3 f33d 52d7 fbbc 73f8 50bd dec1 0c3e
00000130: bec2 c83d f7fe 89bd c228 c3bd d5b3 18bd
00000140: f7a5 a73c c508 23bd 2725 353d 43bc ad3c
00000150: 9de4 ae3b 41bd c33c 155d 91bd b045 37bd
00000160: 9dfb f13d 032f 003e 5f29 9dbd dea7 abbd
00000170: 1917 8a3c eba6 793d f2ec a0bd dd50 3dbd
00000180: 0954 563d 7cae dd3c 05ed 4ebc 9150 1cbd
00000190: e954 b5bd f596 d23c 9428 eb3d 996e 803d
000001a0: e165 053d d4cc 0a3e da10 5dbc b788 833d
000001b0: ae04 5b3d 6b2f d83d beb7 c53c e644 9a3c
000001c0: 80d9 a13d 6235 e93d 6767 a8bc b473 a53a
000001d0: 5cca 6abb 7414 f83b 83bd 653d 40a0 58bd
000001e0: 35e8 bb3d 9da3 013e 1ba8 bcbd c3d2 d8bc
000001f0: 5b42 153e 2ccd 063e 5800 ddbd 4903 273d
00000200: 5f3a 07bd d652 d6bd 58f7 c6bd c2ab a23d
00000210: ef55 91bd 7278 c53c 906c 9fbd 65a9 aabd
00000220: 180e b7bd 7473 a2bd 6b43 673d ec5a a33c
00000230: edb2 e3bd d5cb 99bc 4eca 0bbe cbc9 013e
00000240: 4d8c d73d 6590 7abc 7291 d33d 92cc a43a
00000250: 5419 573d 5296 05be f381 00be 2e15 51bd
00000260: e99f 003e aea3 f9bd 4da2 cd3d df3d 06be
00000270: c189 adbd 5410 dfbd 98fc 753c 0360 b83c
00000280: 06ca aa3d d289 0a3d 3145 803d dfa0 5b3d
00000290: 6b75 89bb 10f3 8d3d 69d8 9f3d 4559 853d
000002a0: 8fa8 503d 3edb 043e defa a13d 97f9 953c
000002b0: e93d ab3d 7edd 68bd e75c c13d 99b0 f6bd
000002c0: d6cf 8cbd 1037 b0bd e954 973c 50a2 f9bc
000002d0: ab09 85bd 9ca9 f0bd 616f 9bbd 37c3 9a3d
000002e0: 0c6c b4bd 17cc b5bd b65e 033e 6eaa 633d
000002f0: 8ba3 a63c 69cc 67bd f033 d23d 28d2 b2bd
00000300: 8d31 fc3d 4363 93bd 7102 103e d536 803d
00000310: 491c 3d3c a9c6 01bb 3ab4 cbbd ace1 0b3a
00000320: 2c00 053e 6b3a 87bd f820 b5bd b2fd 5ebd
00000330: 8725 633a e0f5 e4bc 50e3 35bd 92b0 77bc
00000340: d78b c63d 1cba f03c 8713 b73c 37d2 413d
00000350: 82a4 33bd 4e0a ccbd e618 c13d b55e 033e
00000360: 6594 1dbd faf6 213e 74d7 65bd f3e7 1e3e
00000370: cf5d 993d fe2a 9fbb 354b bbbd 9f6c 93bc
00000380: d406 cbbd b58f 7abd 0f28 56bd 3a9f 74bd
00000390: c2b1 b53d 7964 86bc f5af eb3d 6c59 7cbb
000003a0: 2548 ad3d 8198 fabc 09cf 713c 8daf 753c
000003b0: e249 9d3d f091 8fbd c729 463d cedc 5dbc
000003c0: 2515 6d3d 3764 cabc b40b 8cbb 2b86 0e3e
000003d0: c18c c7bd 6cb5 d4bc 6079 bf3c d0c7 d83b
000003e0: 8ecb 6abd d3f4 cf3b ae92 753d e284 493c
000003f0: ecea fe3d 76e7 983d 0c20 8bbb dbd8 c03d
-0.012873478 0.010985244 -0.023849048 -0.014946318 0.11433266 0.103149764 0.032809664 0.01039418
0.009356285 0.107993536 0.00495735 -0.047989137 0.017601397 -0.09236323 -0.08441759 0.013498956
0.02272114 0.105622634 0.12319686 0.13132733 -0.008171894 0.04793983 0.050713975 -0.04088703
-0.042315047 -0.006146499 0.1311444 0.0586429 -0.0020067273 0.12263064 -0.0533808 -0.05011465
0.10638717 0.08887147 0.15059999 -0.09005053 -0.03851467 -0.051064435 0.0738651 -0.060373336
0.08216683 0.0058891675 0.094951466 -0.00028194874 -0.034674294 0.03520949 -0.05582904 -0.08322356
-0.022962743 0.06483002 0.046510424 -0.024680777 0.07338819 0.11606797 -0.054894596 0.044730775
0.0086977165 0.103621565 -0.0968236 -0.033664256 0.056157704 -0.067566 0.07799638 -0.079464786
-0.110191844 -0.09513361 0.12230133 -0.04224437 0.08344497 0.11207669 -0.03563859 -0.0075281025
0.11899443 -0.030742321 -0.05101819 0.1374583 0.09802769 -0.06738084 -0.09529258 -0.037280876
0.02046488 -0.039803285 0.044224884 0.021207934 0.0053373114 0.023893954 -0.07097832 -0.044744194
0.118155695 0.12517934 -0.076739065 -0.083816275 0.016856717 0.0609502 -0.07857694 -0.046219695
0.052326236 0.02706074 -0.012629752 -0.03816277 -0.08854086 0.025706748 0.11482349 0.06271095
0.032567862 0.13554698 -0.013492787 0.06422561 0.05347126 0.10555919 0.024135467 0.018831681
0.07902813 0.11387135 -0.020557119 0.0012622983 -0.0035826182 0.0075707976 0.056088936 -0.0528872
0.09175149 0.1266007 -0.09211751 -0.026467687 0.14576094 0.13164204 -0.10791081 0.040774617
-0.03301465 -0.104650185 -0.09715146 0.079429165 -0.07096469 0.024105284 -0.077843785 -0.08333091
-0.08938235 -0.07932177 0.05646078 0.019940816 -0.11118112 -0.018773952 -0.13651392 0.12674634
0.10524807 -0.015293215 0.10330476 0.0012573174 0.05251439 -0.13045624 -0.12549572 -0.05104559
0.12561001 -0.121894225 0.10040722 -0.1310954 -0.0847354 -0.10891786 0.015013836 0.02250672
0.08339314 0.033822842 0.06263197 0.053620216 -0.0041949055 0.06931126 0.07804949 0.065111674
0.050942 0.1297426 0.07909177 0.01830749 0.08361418 -0.056851856 0.09441548 -0.12045402
-0.06875579 -0.08604252 0.018473106 -0.030472904 -0.06495985 -0.117511004 -0.07589603 0.075567655
-0.08809671 -0.08876818 0.12829098 0.055582456 0.020341655 -0.056591425 0.102638125 -0.087314904
0.123141386 -0.07196667 0.14063431 0.062604584 0.011542388 -0.0019802249 -0.09946485 0.0005336057
0.12988347 -0.06602939 -0.08844179 -0.05444116 0.0008664955 -0.027949274 -0.044406235 -0.015117781
0.09694641 0.029385619 0.022348179 0.047319617 -0.04385806 -0.09962903 0.09428577 0.12829097
-0.0384716 0.1581687 -0.056113675 0.15518169 0.07488596 -0.00485742 -0.09145204 -0.01799613
-0.09913412 -0.061172206 -0.052284297 -0.059722163 0.08871795 -0.016405331 0.115081705 -0.0038505448
0.08461026 -0.030590298 0.014758834 0.014995468 0.07680108 -0.07010257 0.048379686 -0.0135414135
0.057881493 -0.02470599 -0.004273856 0.13918369 -0.097436436 -0.025965415 0.023373306 0.0066156164
-0.05732303 0.006346324 0.059954338 0.012299748 0.124471515 0.07466023 -0.0042457636 0.09416362

lstm.bias_hh_l0 f4 [256]
00000000: 1714 433d 0506 9dbd 1229 a03d 77c5 f33d
00000010: 2edb 9f3d 5502 42bd 9f48 b43d 5334 afbd
00000020: c70e ec3d 698b b1bd a458 d53d 6c05 b8bd
00000030: dfa7 5bbc c16a 9d3d 381a aabc 9901 26bd
00000040: cb88 9bbd 8406 bb3d 7156 dc3d a13d c03c
00000050: 1286 e73d 9e4d ddbb 8854 483d ac64 85bd
00000060: e2a0 343c cdf4 9fbd ad07 b43d 59b5 f53d
00000070: 7979 87bd 837f 4dbd c7c9 67bd d8c2 adbd
00000080: 4ccf 833d f080 69bc 2a8f bdbd 947e 8f3d
00000090: efdc 823d 1d8c b53d 58ca 83bd 700f ba3d
000000a0: e1a0 91bd b743 4bbd 4b8c 273e 449d 32bd
000000b0: c6cf 0cbd 4103 d53d 72f8 17bd 3e8d 64bc
000000c0: c0af 3f3c 4958 cf3d de8a 9a3d 6d4c 07bd
000000d0: cab0 d83d 5020 213d 5756 cabd 82d5 053e
000000e0: 3703 57bd 0304 ad3c aeed bbbd 622d 673d
000000f0: d1f0 41bc 3ec0 063e a5f7 103e 4ef1 24bc
00000100: 47d3 82bd 204f 91bc b3ac 223d e5be d33c
00000110: 6489 d33d d103 d33d 6874 9ebd 3249 d03d
00000120: 97ff 7cbd 919c a23d 5cbd e73d 7dd3 d03d
00000130: 2423 093e f5f3 143d e687 96bd 8299 82bb
00000140: d61e c5bd 92cc e4bc 533d c23c 9a3a a93d
00000150: 7071 aabd d28f a2bb 3f24 f63d ba03 5abd
00000160: b71a f3bd 127e 33bd a146 7ebd 25e1 783c
00000170: 8ae5 bd3d 616c 133e 2867 d53c e1d0 b53d
00000180: a32e 97bd eb6e c63d d5fe 09bd dd9c fc3a
00000190: 4229 a0bc a7f4 ed3d b09c 0839 ae22 b93d
000001a0: a83c a13d 4613 33bd 0224 af3c 5c2a b73c
000001b0: dba7 c03d 8703 933d bc54 f13d 2775 58bd
000001c0: c274 65bd 9809 253c 297f 123e ce4b 993b
000001d0: b4e8 943b b636 22bd 85d0 743c 2a7a 423d
000001e0: 2d21 e23d 0f01 cabb 1772 c03c 092f e13d
000001f0: d3f7 613d 9487 e33d 3ef6 b83d 2999 90bb
00000200: 1b05 1a3d 0a30 3ebc d923 fdbc dda4 b63c
00000210: 773f 21bd ecea ecbd 43f3 0bbe 5bf6 d63d
00000220: 0445 423d 9c48 0abd 4629 95bd 19a9 853d
00000230: 4fa0 90bb ef0e b9bd 238d 90bc 2ae4 b3bd
00000240: 17cb 603d 5681 783c d607 8fbd 5e2e b03d
00000250: da7c bd3d e834 223d 08d5 e3bd 6b36 9ebc
00000260: 060f f73d 0492 d33d 817b 8c3c 1531 423d
00000270: 8f96 da3d 6ebd d6bd bbb2 8bbd 79aa b53d
00000280: 9dab 013e 9deb edbd 6213 6d3c 3b2d 9ebc
00000290: 0db8 de3d 07e4 003e 582c 943d b824 093e
000002a0: e9f7 34bd e7e0 db3a 4265 41bd 4d4e bb3d
000002b0: 8707 663d 7a21 fdbd 3988 e63d 084c 5cbb
000002c0: dcab 62bd 68f3 ccbd 3712 b5bd 71c9 b0bd
000002d0: b600 043d 6780 fdbd 5404 98bc efc1 c3bd
000002e0: 7c1f f7bd 91d9 f0bd ce78 4cbd ac09 f73d
000002f0: 3d2d d63d b4d3 223c 1896 56bb e2cb b1bd
00000300: ff37 59bd aeaf 53bb 845c 82bc 1fdb ce3c
00000310: 1041 b7bc 103d e53d 055e 033e d3db 62bd
00000320: 7ab3 b73c f461 73bd 19b1 12bc 4f22 9a3a
00000330: d4f2 ffbc c139 55bd 0d74 87bd fcb7 3b3d
00000340: b8b8 3ebd d40f 023e ad27 103d 8963 ed3d
00000350: ac70 813c fae0 b0bd bad3 7fbc c17b 4cbd
00000360: 6a8f f63d 74bc 1d3e 3153 4cbd 4f5d 1c3e
00000370: 78a8 e0bd 787d 04bd 9199 013e 0841 a8bd
00000380: 30be acbb 98f3 8d3c 926e a53b eb6b b43d
00000390: d840 e93d b27b 073e 0b26 ee3d 764a 103e
000003a0: 2ffb 91bd 45f9 b63d 0270 133d f6ce a43d
000003b0: f854 ba3d 9e74 a7bd 0749 a13d c57a c2bd
000003c0: 674a 28bc 8e69 ef3d b223 96bc fc07 8a3d
000003d0: e231 4ebd 7341 f93d da24 d73d f813 1fbc
000003e0: 6e4b e83c 3817 a33d 4880 b0bd 7c1d 573b
000003f0: 0e4c 92bd 1e3e 873d 4a9c 453d f5e9 573d
0.04762658 -0.07667164 0.078203335 0.11902898 0.07805477 -0.047365505 0.08802914 -0.08554902
0.11526256 -0.086691685 0.104172975 -0.08985409 -0.013406723 0.07686377 -0.020764455 -0.040528867
-0.075944506 0.09132102 0.10758675 0.023466887 0.11304869 -0.0067536375 0.04890874 -0.06513342
0.011024686 -0.07810364 0.087905265 0.1199748 -0.06614966 -0.050170433 -0.056588914 -0.08484429
0.06436023 -0.0142519325 -0.09255822 0.07006565 0.06389796 0.08864615 -0.064350784 0.09084976
-0.07110763 -0.049625125 0.16362111 -0.04360701 -0.034377836 0.10401011 -0.03710217 -0.01394969
0.011699617 0.10124261 0.07546018 -0.03303187 0.10580595 0.039337456 -0.09879749 0.13069728
-0.0524933 0.021120077 -0.09176193 0.056439765 -0.0118372 0.13159272 0.14156969 -0.010067297
-0.06387954 -0.017737925 0.03971548 0.025847862 0.103289396 0.10303462 -0.077370465 0.10170211
-0.061767187 0.07940019 0.11315414 0.10196588 0.13392311 0.036365468 -0.07350139 -0.0039855847
-0.09625022 -0.027929578 0.023710882 0.082631305 -0.08322418 -0.0049609924 0.12018632 -0.05322621
-0.1187033 -0.043821402 -0.062079076 0.015190397 0.09272297 0.14396812 0.026050165 0.08877731
-0.07381942 0.09689125 -0.033690292 0.0019272823 -0.019550923 0.11618929 0.00013028341 0.09039818
0.078728974 -0.043719552 0.021379475 0.022359066 0.09407016 0.07178407 0.1178374 -0.0528461
-0.056019552 0.010073088 0.1430632 0.004678226 0.004544342 -0.039602958 0.014942293 0.047479786
0.11041484 -0.006164677 0.023491902 0.10995299 0.055167984 0.11109844 0.09031342 -0.0044127894
0.037602525 -0.011608133 -0.030900883 0.02229541 -0.039367165 -0.11568245 -0.13667016 0.10496207
0.0474291 -0.033760652 -0.07283263 0.065263934 -0.0044136415 -0.090360515 -0.017645424 -0.08783753
0.05488118 0.015167555 -0.069839165 0.08602594 0.09252329 0.039601237 -0.11124617 -0.019313058
0.12063412 0.10330585 0.017148735 0.04741009 0.10673248 -0.104853496 -0.068211995 0.08870406
0.12663122 -0.11617205 0.014469953 -0.019308677 0.10874949 0.12586986 0.072350204 0.13392913
-0.044181738 0.00167754 -0.047215708 0.09145794 0.056159522 -0.12359901 0.11256451 -0.0033614654
-0.05533968 -0.100073636 -0.08841365 -0.08632172 0.03222724 -0.123780064 -0.018556751 -0.09558474
-0.12066552 -0.117602475 -0.049919896 0.12062392 0.10457847 0.009938169 -0.0032743271 -0.08681466
-0.053031918 -0.0032300758 -0.015913256 0.02525097 -0.022369891 0.111932874 0.12828834 -0.055385422
0.022424448 -0.059419587 -0.008953356 0.0011759492 -0.03124372 -0.05205703 -0.06613932 0.045829758
-0.04656288 0.1270135 0.035194088 0.115912504 0.015800796 -0.08636661 -0.015614444 -0.04992271
0.12039073 0.1540392 -0.049884025 0.1526997 -0.10969633 -0.03234622 0.12656237 -0.08215529
-0.0052716956 0.017328069 0.0050485814 0.08809646 0.11389321 0.1323078 0.1162835 0.14090905
-0.071279876 0.08934263 0.03599549 0.08047287 0.09098238 -0.0817654 0.07875257 -0.09496073
-0.010271645 0.11690055 -0.018327568 0.06739804 -0.05034054 0.121706866 0.10505076 -0.009709351
0.02835628 0.07963413 -0.08618218 0.003282397 -0.071434125 0.06603645 0.048244752 0.052713353

lstm.weight_ih_l1 f4 [256, 64]
00000000: afd1 623d 3773 e73c 93b5 473d e6e4 b0bc
00000010: c36c debc 21e4 fabc 6ee3 c83d 38a8 3c3d
00000020: e02d 91bc c563 64bc d045 18be afba 903d
00000030: a311 9c3d 0419 a1bd 9fb1 0abe f0b8 e33d
00000040: 1b44 c63d 6271 913d b808 dcbd 2ff9 063d
00000050: 03ab a93d 6931 933d 4778 983d 8868 0dbd
00000060: a3a4 4e3d fdc7 353d 3ec8 83bd 80d1 8bbd
00000070: 82cc df3c 5504 40bd d3d1 b3bb db15 543d
00000080: 0358 c4bc e547 febd dc23 4f3d 13c5 683d
00000090: 5702 1a3d d501 b0bc f6f3 68bd 7d2e fb3d
000000a0: 2f87 023e 86b5 a73d d1c5 d8bd 9b7a 8e3a
000000b0: 0733 9cbd 36e6 ef3d a967 8abd dc96 7abd
000000c0: 1bf9 a1bd 4f4c a73d 5772 20bd fc11 27bd
000000d0: 6fe6 99bd 674a ffbd 5aa8 bbbd bc56 f139
000000e0: 5103 c7ba d5d1 a73d 3167 823d d993 763c
000000f0: ffca 0a3e eadb 8e3d e038 9d3d 4254 4d3d
00000100: 4213 e3bd 165a febd 0068 08be 37a3 11bd
00000110: 75bf a4bd 10cf 6cbd b1b6 11be 0345 8dbd
00000120: 04df 3fbd 50e7 053d c761 95bd a07f 1c3e
00000130: b4c4 63bd 7d7e 9d3c 50f4 8e3d b7c1 d5bc
00000140: f511 e23d 9506 733b 42cd f3bd cdde b63d
00000150: 532b d93d 83ce b1bd 2015 a03d 35a5 0f3d
00000160: 07ea 083d f8e0 cc3d c3d5 5ebd 0c67 87bd
00000170: 31b0 92bc 6b4d 95bd 7fb5 a63c da09 063b
00000180: a662 bb3d 055d 03be 134a dd3d 0b06 7e3c
00000190: a886 dc3b b36e 53bb 2d31 003e f64c 073e
000001a0: 2915 f33d 4539 af3d a8f8 42bd 55db 0abd
000001b0: 931c abbc 8a34 2ebd 2031 a9bd b6b0 1fbd
000001c0: 64f2 e6bd bd43 36bd d121 c23b e7e8 193d
000001d0: 20da 883c 9c94 8cbd 97f0 35bd d601 823d
000001e0: fd6b d0bb 174c eebd e990 3a3c 91b0 4f3c
000001f0: 2f2e bf3d 1466 bc3d 3b97 893d d9d2 fdbd
00000200: 5b02 e9bd 9828 02be e294 c6bd 755d 8c3c
00000210: 148d d6bd b901 adbd 576b febd f405 193c
00000220: edf3 aabd 528f 323d 69c1 75bd daf7 b03d
00000230: 6259 bebd a7d8 a33d b704 953d 594f 52bd
00000240: e79c b0bd f4fb 8f3d 3ac1 9e3c d57a 95bc
00000250: e918 82bd 2f68 2fbc 1566 3f3d 21c9 28bd
00000260: 6201 ce3c cd30 be3d 7385 923b 3b71 8dbd
00000270: 85e1 10bd 8c86 f53c f165 23bd b0b5 f5bd
00000280: 75e1 bd3d 2042 c83c b9d7 99bd 6de4 41bd
00000290: a1cc c53d 7fc4 ac3d 2e98 0d3e 4b67 eebb
000002a0: 3f1b e53d de48 c9bd cbfe be3c 85f1 a13c
000002b0: 37d8 cfbc c2d0 7abd 781e 293d 0f19 cbbd
000002c0: 2ae3 dc3d 0605 723b 58c1 a9bc 0c6a 77bd
000002d0: c38f 10bd e398 073d 9375 acbd 219c 103e
000002e0: ccbe 4d3d c3a9 a0bd f878 f0bb 04cd a93d
000002f0: 73e7 a0bd bd41 973d 0b7b 843d 6569 74bd
00000300: 1f37 8c38 1540 af3d 5a94 75bd c238 033d
00000310: f80d 063c e3f2 d93c 7ff7 3f3d d74b 05be
00000320: 30d2 f73d ff4b 5c3d d831 e63d b905 94bd
00000330: 0899 16be 5c48 3e3d 75fe 973d eade a7bd
00000340: 838a a3bd d45d a7bd 18e5 b03d 2e6b 023e
00000350: e31e 98bd 376e fb3c 18e0 0cbe 4d56 f4bd
00000360: 95dc 9e3d 80f1 dcbd 58f0 5dbd 4a5a 313d
00000370: 3dcd 8ebd 3f9d d8bd b2cb b63d 8ef3 7abd
00000380: 916a 263d 0527 813d b251 e4bc e9d2 80bd
00000390: 8f79 9bbc c6ea 31bc d9b5 25bd 8b5b 73bc
000003a0: 6e82 a2bd 8a6a 413d a783 bfbd 3d74 c63d
000003b0: e6e6 cfbd 3911 8fbd 8d7f d13c e90e ca3c
000003c0: 68e4 733d b8e7 b4bd a51a 353d f8b7 8f3d
000003d0: 9f86 353c 68b9 e1bd e6be 1ebd 5f3a 803c
000003e0: 8d08 943c 7a44 423d 5d03 053e 2bac f13d
000003f0: 836e ba3c 93fa a93d 0178 b6bc c040 3ebd
0.05537575 0.02825318 0.048757147 -0.021593522 -0.027151471 -0.030626358 0.09809004 0.046058863
-0.01772207 -0.013939803 -0.14870381 0.07066857 0.076205514 -0.078660995 -0.1354432 0.111192584
0.09680959 0.07101704 -0.107438505 0.032952484 0.08284571 0.071871586 0.07444816 -0.034523517
0.05044998 0.044380177 -0.064346775 -0.06827068 0.027319197 -0.04687913 -0.0054876595 0.051778655
-0.023967749 -0.124160565 0.050571308 0.05682857 0.037599888 -0.021485249 -0.056873284 0.12264726
0.12746881 0.0818892 -0.105846055 0.001087028 -0.0762692 0.11713831 -0.06758053 -0.061179027
-0.07908841 0.081688516 -0.039171543 -0.040788636 -0.07514655 -0.12465363 -0.0916297 0.00046031724
-0.0015183483 0.08194319 0.063673384 0.015049898 0.13554 0.06975539 0.07676864 0.050129183
-0.110876575 -0.12419526 -0.13320923 -0.035556044 -0.0804433 -0.057814658 -0.14229847 -0.068979286
-0.046843544 0.0326913 -0.0729404 0.1528306 -0.055607513 0.019225353 0.06980193 -0.026093347
0.11038581 0.003708278 -0.11904384 0.089292146 0.106039666 -0.08681967 0.07816529 0.035069663
0.03342631 0.10003847 -0.054403078 -0.066114515 -0.01790628 -0.07290157 0.020350216 0.002045265
0.09149675 -0.12828453 0.10805144 0.01550437 0.0067299195 -0.0032262027 0.12518759 0.13212952
0.1186927 0.08555845 -0.04760042 -0.033900578 -0.020887649 -0.042530574 -0.08261323 -0.038986884
-0.11276701 -0.044498194 0.0059244414 0.03757563 0.016705573 -0.068642825 -0.044418897 0.063480064
-0.0063605295 -0.11635607 0.011387088 0.012676374 0.09334981 0.09199157 0.06718298 -0.123937316
-0.113774024 -0.12710798 -0.09696366 0.017134408 -0.10476127 -0.08447594 -0.12422817 0.009339798
-0.083473064 0.043593712 -0.059998903 0.08641024 -0.09294392 0.080003075 0.0727629 -0.051345203
-0.08623677 0.07030478 0.019379247 -0.018247047 -0.063524075 -0.010705992 0.046728212 -0.041207436
0.025147144 0.09286652 0.004471475 -0.069063626 -0.035371322 0.029971384 -0.03989214 -0.11997545
0.09271518 0.024445593 -0.07511849 -0.047336984 0.096581705 0.08435916 0.13827583 -0.007275497
0.111868374 -0.098283514 0.023314854 0.019768486 -0.025371654 -0.061234243 0.041288823 -0.09916889
0.107855156 0.0036929264 -0.020722076 -0.06040387 -0.03529335 0.03310479 -0.08420863 0.14122058
0.050230786 -0.078448795 -0.0073386393 0.08291057 -0.078566454 0.073855855 0.06468781 -0.059670825
6.685987e-05 0.085571446 -0.059955932 0.03203655 0.008182041 0.026605075 0.04686689 -0.13017212
0.12100637 0.053783413 0.11239976 -0.07227654 -0.14706814 0.046455726 0.07421581 -0.08196814
-0.079854034 -0.08172193 0.08637446 0.12736198 -0.07427766 0.030692203 -0.1375736 -0.11930523
0.077569164 -0.1078825 -0.054184288 0.043298997 -0.0697274 -0.10576867 0.089255705 -0.061267428
0.040628973 0.063062705 -0.027870987 -0.06290228 -0.018978862 -0.010859197 -0.040456627 -0.0148533685
-0.07935034 0.047220744 -0.093512826 0.096901394 -0.10151462 -0.06985707 0.025573516 0.024665313
0.059543997 -0.08833259 0.044214863 0.07017511 0.011079459 -0.110216916 -0.038756274 0.015652834
0.018070484 0.047428586 0.12989564 0.118004166 0.022757774 0.08299746 -0.02227402 -0.04644847

lstm.weight_hh_l1 f4 [256, 64]
00000000: a6be 47bb 7383 18bc 6c93 9c3d 60d2 d4bc
00000010: 1d9a 073e 8801 42bd e53b 943d 046e 96bc
00000020: 9f57 16bd 09f1 bbbd 9529 dc3d 6f75 f9bd
00000030: 20fc cabd f543 c53c 14a3 48bd 9982 e93d
00000040: 5814 bbbd 5ddf 1a3e e9ba 58bd 27a4 ddbd
00000050: cd6d 813c 30c5 003e 81d5 443c 753e 3cbd
00000060: f23e 0fbc 5821 b4bd 8044 4c3d 7cf1 ba3d
00000070: 1f61 a43d 4127 0a3e dc76 f33d 3eba 603d
00000080: 6e2d d6bd 64a0 9c3d eba5 043d 358f f33c
00000090: 271e 0bbe 98eb 16bd 7b74 92bb bb36 41bd
000000a0: 1f44 cb3d ba50 153d 480b ebbd 25b9 ec3d
000000b0: f785 633d 1e97 a93d 5ebf 793d 6b68 a43c
000000c0: 2333 0c3d 44c6 1e3d e149 d43d ff8f 1cbd
000000d0: d8b4 1a3d 83ed e1ba ddc3 9abd 6e17 a33b
000000e0: 02a4 9cbc 47de 9a3b d9c4 92bd da1b 63bd
000000f0: 59c5 aa3c 8a39 a03d 5dca 04bd 44c8 fb3c
00000100: 0a8c d3bd ac9e ae3d 2c06 74bd e28b e7bd
00000110: 8fdc d23c 6616 b03d e470 b8bd 24e9 2d3d
00000120: d8cf 2cbe ab27 a3bc 85d1 ae3d 6021 e3bd
00000130: 95e2 c8bb 2616 b0bc f859 973d 7078 b4bd
00000140: ae5f e93d 2deb 90bd 20f2 0d3d 45eb 953b
00000150: 0d6c 9f3d a344 b0bd 48ee c5bd 2cb4 803b
00000160: 75c7 71bd b3fd 833d eba3 8b3c 8eaf 793c
00000170: e263 f3bd 5254 983d ce47 94bd e617 35bd
00000180: ff3a fbbd 0c60 d23d 93fb 743d 9898 24bc
00000190: fedd cabd fb31 8bbd 55d0 96bd a8fd f7bd
000001a0: d164 ed3c 796d 273d 2ec5 e63c e5b7 a7bd
000001b0: 045a 323d c0a9 d5bc 1880 8c3d 9b5c b2bd
000001c0: e503 2abd b57e 463d 7942 b13d eddd 0dbe
000001d0: 443f 043c 4946 53bd ab31 db3d 1cbf a4bc
000001e0: 5fca 273d 4a09 7fbd 7281 15bd 8ce7 ab3d
000001f0: 903d 643d 8b60 193d 0615 cd3d e4ac 05be
00000200: 0ddf b83d 9893 9e3d 7043 90bd bd28 edbd
00000210: d76d 9ebd 1664 e83d 4249 ac3d 2b12 aa3d
00000220: 06d3 c2bd 8123 e43d 7626 913d 0dfb 87bd
00000230: c5be 00be c389 083e 983b ac3c 150a 7a3b
00000240: b039 8bbd a1a2 cbbc 9b6b 64bd 509c 7f3d
00000250: d580 89bd f8b7 83bd 0dbf b6bc d5ce 15bd
00000260: aeb1 06be 3481 96bb c673 5dbd deff 82bd
00000270: 4fb2 8cbd 5d7a ce3d 84b1 d8bd e22a f63d
00000280: 9ff9 ad3d 405e cebc 85bc ce3d 7c32 d53d
00000290: 878c b8bd 4ca9 a83d 863f 38bb 5464 46bc
000002a0: 653a 36bd 6c8e cebd 2104 9ebb aaae b53d
000002b0: 846c 80bd ef8c 4f3d 51c2 8a3c cc4c 9b3d
000002c0: 5da4 d7bd 3841 f4bd 13b1 eb3d b4ed 5abc
000002d0: f6db 283a 948a 353d 3eed adbd 4a50 cd3d
000002e0: 8ea5 7b3d fc4b c43c 73ae a7bd b436 da3c
000002f0: 0bd1 b8bc ef1f b23d 6478 a93c 53b1 f93c
00000300: 4909 8dbc 903d 06bd e898 d13d b4e3 54bd
00000310: c297 073e ec60 0c3e 899f 09bd d29a 05bd
00000320: 8c07 8f3d ad26 02bc 7c66 4cbb 5c40 95bd
00000330: 8faa b43c e692 9e3d 3445 de3c 67f4 73bd
00000340: d8cf 2cbd 6686 d4bc d755 c93a 87c2 8e3d
00000350: c630 413d 27a2 d8bd 0307 2f3c 251c a33d
00000360: 1690 ab3a 357a 203d 8d02 0fbe 6890 cf3d
00000370: 344f b13d 8849 22bd 3b3f dc3d 1a39 66bd
00000380: 0278 dabd 7782 da3d 7da3 413c edcd 2c3b
00000390: 8ede 13be 6f6c 903d cf36 053e 9108 a63d
000003a0: 90d6 143c 5b27 653c b8b0 bfba a74c 99bd
000003b0: 57c2 36bc ef86 013e 6f86 05be 1cb6 d0bc
000003c0: 0e63 a9bd c678 bd3d 1588 db3d 3008 22be
000003d0: 8b5f 873c 078a 223c 51f7 493c 485b 103d
000003e0: 1c52 70bd 15f2 23bc b5ff 323d 1480 793d
000003f0: 409e fa3c f67f 3bbc ff00 293d 7ecc 77bd
-0.0030478626 -0.009308684 0.07645306 -0.02597922 0.13242383 -0.04736474 0.072379865 -0.018363006
-0.036704656 -0.09176833 0.10750119 -0.12180602 -0.0991137 0.024080256 -0.04898365 0.11401863
-0.0913474 0.15124269 -0.052912626 -0.10822325 0.015799427 0.12575221 0.012013794 -0.045958
-0.008743035 -0.08795422 0.049870014 0.09128091 0.08026337 0.13491537 0.11887905 0.054865114
-0.10457884 0.076477796 0.032384794 0.029731372 -0.13585721 -0.036845773 -0.004469452 -0.047171336
0.099251024 0.03645394 -0.11476761 0.11558751 0.05554768 0.082807764 0.060973518 0.020069322
0.034228455 0.0387633 0.10365654 -0.038223263 0.037770122 -0.0017236922 -0.07556889 0.0049771583
-0.019121174 0.0047262046 -0.07166452 -0.055446483 0.020846056 0.07823475 -0.03241955 0.030735143
-0.10329445 0.08526358 -0.0595762 -0.113059774 0.025739936 0.08598022 -0.09005907 0.04245867
-0.16876161 -0.019916376 0.085360564 -0.1109035 -0.0061305263 -0.021494936 0.07390207 -0.08812034
0.113952026 -0.07076106 0.034654737 0.0045751655 0.07784281 -0.086068414 -0.09664589 0.003927728
-0.059028108 0.06444874 0.017045936 0.015239609 -0.118842855 0.07437958 -0.07240258 -0.044212244
-0.12267112 0.10272226 0.059810232 -0.010046147 -0.09905623 -0.067966424 -0.07363955 -0.12108928
0.028978737 0.040875886 0.028170194 -0.08189372 0.043542877 -0.02608192 0.068603694 -0.08709069
-0.04150762 0.04846068 0.08655257 -0.13854189 0.008071724 -0.0515807 0.10702833 -0.02011066
0.04096448 -0.062264718 -0.0365004 0.083937734 0.055722773 0.037445586 0.100137755 -0.13054234
0.090269186 0.07742995 -0.07044113 -0.11580036 -0.07735794 0.11347215 0.0841241 0.083042465
-0.09512906 0.11139584 0.07087414 -0.06639681 -0.12572773 0.13333802 0.02102451 0.0038152982
-0.067981124 -0.024857821 -0.055766683 0.06240493 -0.06714026 -0.06431574 -0.022307897 -0.036574204
-0.13153717 -0.004593039 -0.05406549 -0.06396459 -0.06869947 0.10081933 -0.105807334 0.12019898
0.08494877 -0.025191426 0.10094551 0.1041002 -0.090111785 0.08235416 -0.0028114035 -0.012108881
-0.044489283 -0.100857586 -0.0048222695 0.08871205 -0.06270698 0.050671514 0.01693836 0.07583007
-0.10529397 -0.11926502 0.115083836 -0.013362337 0.0006441468 0.04432161 -0.08492516 0.100250795
0.061437182 0.023962013 -0.081875704 0.026637413 -0.022560617 0.08697497 0.02068729 0.030480063
-0.017216342 -0.032773554 0.10234243 -0.051974967 0.13241485 0.13708848 -0.03359941 -0.03261835
0.06983861 -0.007943791 -0.0031189015 -0.07287666 0.022053985 0.077428624 0.027132608 -0.059559252
-0.042190403 -0.025942992 0.0015360665 0.06970697 0.047165655 -0.10577803 0.010682824 0.079643525
0.0013089206 0.039179046 -0.13965817 0.10134965 0.08657685 -0.039620906 0.10754248 -0.0562068
-0.10667421 0.106694154 0.011818764 0.0026367859 -0.14440367 0.07051932 0.13009189 0.08107103
0.009084359 0.013986434 -0.001462481 -0.074853234 -0.011154733 0.1264913 -0.13039564 -0.025477462
-0.08270846 0.09251551 0.10719315 -0.15823436 0.01652505 0.009920604 0.012327031 0.035243303
-0.058672056 -0.010006447 0.043700892 0.06091316 0.030593038 -0.0114440825 0.041260716 -0.060497753

lstm.bias_ih_l1 f4 [256]
00000000: 62e7 8abd 462c 8abd c684 823d 2fb2 cd3d
00000010: 0ff7 edbd add7 323d 7a7d aa3d 0480 a93d
00000020: 47a9 a7bb 7047 113e 2dbe 483d e239 193d
00000030: e250 d83c 3393 833d 706b e73d 0832 5d3d
00000040: 5b8e 4fbd 978b e83d 8d33 f939 137b d63d
00000050: ca68 78ba c9c3 ec3d 0d4f fbbc a117 1cbd
00000060: eacf 5b3d 9560 93bc 1d89 893b 552f f3bc
00000070: 814c cd3d 760e 87bd fc02 dbbd e2d3 df3d
00000080: 5b88 f8bc 4c83 fbbc 3e31 f3bd 6958 bbbd
00000090: 5809 adbd 752d aa3d 7d74 053e 196e cfbd
000000a0: c986 ebbd d44b 93bd 1eb6 c63c 63b3 b63d
000000b0: af55 57bc 4ceb 823d de6e 53bd 3534 0abd
000000c0: 62df a4bd 7f33 6b3c 4e26 9d3d 88b2 5f3d
000000d0: a029 bd3d f141 afbd 280d 0bbd 87a7 003e
000000e0: b14e 3f3d 4523 fe3d cbc3 203e f3e7 d8bd
000000f0: 0e55 f13d cdc4 19bd 7686 143c edcd 8a3d
00000100: b8b8 c4bd d994 d63d 109b af3d 7982 29bd
00000110: 1685 e2bd 3b39 5f3d 907e f2bc 672b 4fbc
00000120: 6876 913d 5a02 aa3b 4949 003e 3731 dcbd
00000130: ac61 dfbd c671 d0ba e3b7 a1bb 0595 aabc
00000140: ef6d 003d 9417 293d 23b6 59bd 9349 65bd
00000150: 6dcf 853d 0d48 713c 960c c13b fd7d a0bd
00000160: 8f29 a7bd 044b 363d c416 183d b152 adbd
00000170: bb7e 3f3d c19f 733c d2ad e1bd d34f f6bd
00000180: 5377 fdbb e07b 9739 b90b 09bd df5a 90bd
00000190: bbf5 b0bd e948 f93d e839 bfbd 0d68 c63d
000001a0: 7639 8d3d 8b28 21bc 706f b1bb 79b0 f83d
000001b0: 27f4 333d 46c0 6b3d 4619 b63d fd1b de3d
000001c0: 9f21 b9bd 338e 8cbd 516e ba3d ab17 dcbd
000001d0: 4912 30bc 9313 3a3d 3532 a8bd 0f98 a33d
000001e0: cf5d e53c 08d2 f93d ccbd 8b3d 4e24 d83d
000001f0: fd4f c93d df4c c7bd cd2f a83a b569 b03d
00000200: 1bcf b9bc ab29 d0bd 9459 c3bc 4a58 68bd
00000210: 298f 823d 3982 b43d 2762 2a3d dd15 fbbd
00000220: 31f4 03bd 4e21 28bd 15a8 23bb f962 d83d
00000230: 0f39 55bb 243b b33b 0ede cb3d c365 393d
00000240: e247 1bbd ee30 da3d c63c d73d f8a3 66bd
00000250: 4316 ccbd fc95 673d 19cc 0dbd 0092 ef3d
00000260: e1d3 a9bd 3e8e e8bc adff 00be 876f 453c
00000270: 9428 f53c 76f7 143e 9c8b ab3d 6efc a6bd
00000280: 5f8c 8fbd 1fa5 fbbd d04b c33d 7243 a1bd
00000290: 7113 2bbd 7207 e93d ab41 da3d 1eb0 743c
000002a0: b873 29bd 5be0 4cbc fd87 06be f36d f83d
000002b0: 78d0 743c 1e9c d8bd d0be d9bd c1d6 fbbd
000002c0: 3e10 84bd 2b5f fdbd 8c21 87bd 861d e5bd
000002d0: 6317 e73d 4b40 97bd c128 57bd e34b d53c
000002e0: 4643 c5bc 8344 eabd 38e6 76bd 1742 cfbd
000002f0: c829 5ebb d7d4 04bd 7f80 49bd b381 763d
00000300: 9229 41bd c273 733d 3a61 e4bd de90 39bd
00000310: 5327 8c3d 893e b1bc 5eb1 abbd a99c 2b3d
00000320: e5da bf3d ff38 0c3d 28a6 c23d 402d 8d3d
00000330: e718 8b3d d6f7 9b3d 655e c6bd 03be 57bc
00000340: 21f7 af3d 6d2f b33d dc01 b5bd aab4 a9bc
00000350: e562 833d 5355 c03d f862 b83c 6772 a8ba
00000360: 2af8 eebc bb97 7abd 1187 62bc 93b5 6abc
00000370: 5733 a4bd b1d0 a4bd 3199 953d dfa2 1abc
00000380: 7c21 afbd a0b4 943d 871e f3bc dc47 d1bd
00000390: 126e c3bd 2b9d a93d a061 a6bd c43e 0a3e
000003a0: 52f5 bd3d 930f 023e 46cb 983d cae0 2dbd
000003b0: ad56 0bbd addd f33d 6eb7 ba3c d978 0a3e
000003c0: 9855 0d3e 949b d93d e60b 28bb 2bd6 e83d
000003d0: 707d dc3d a520 60bb dbd2 813d 9d80 14bd
000003e0: dbfe 72bd 6f71 a8bd b9a2 df3c 457f ea3d
000003f0: 6f77 2dbc e137 5f3d b5f8 413b ca76 66bd
-0.06782414 -0.06746726 0.06372981 0.100437514 -0.11619388 0.043662716 0.08324714 0.0827637
-0.005116615 0.14187407 0.04900949 0.037408717 0.026405755 0.064245604 0.11299789 0.05400279
-0.05067287 0.1135475 0.0004753139 0.10472693 -0.0009476064 0.115607806 -0.030677343 -0.03810847
0.05366508 -0.01799039 0.0041972534 -0.029685656 0.100243576 -0.06594555 -0.106939286 0.10929085
-0.030338457 -0.030702256 -0.118746266 -0.09147722 -0.08449048 0.083094515 0.13032718 -0.10128421
-0.115003176 -0.071921974 0.024256762 0.08920934 -0.013142987 0.063925356 -0.051619403 -0.033741195
-0.080504194 0.014355539 0.07673322 0.05461362 0.09236455 -0.08557499 -0.033948094 0.12563907
0.046705905 0.12409071 0.15699689 -0.10591116 0.11783801 -0.0375412 0.009065261 0.067775585
-0.09605545 0.10477609 0.08574498 -0.041384194 -0.110605404 0.05449794 -0.029601365 -0.012644625
0.07102662 0.0051882686 0.12527956 -0.107515745 -0.10907301 -0.0015903048 -0.004935251 -0.020823011
0.03135484 0.04128225 -0.053152215 -0.05597837 0.06533704 0.014726651 0.005891393 -0.0783653
-0.081622235 0.044505134 0.037131086 -0.08463038 0.04675172 0.014869631 -0.11019482 -0.12026944
-0.007735172 0.00028893258 -0.033458445 -0.07048582 -0.08640619 0.1217211 -0.093372166 0.09687815
0.068957254 -0.009836326 -0.0054148957 0.121430345 0.043934014 0.057556413 0.08891539 0.10845182
-0.09039616 -0.0686306 0.091030724 -0.10746702 -0.010746547 0.045428824 -0.08212701 0.07987987
0.027998833 0.121982634 0.0682331 0.105537996 0.0982971 -0.09731459 0.0012831629 0.08613912
-0.022681763 -0.101641975 -0.023846425 -0.056724824 0.06374962 0.088139005 0.04159751 -0.122600295
-0.0322153 -0.041047387 -0.002497201 0.105657525 -0.003253523 0.0054696966 0.09954463 0.045263063
-0.03791035 0.10653864 0.105096385 -0.056308717 -0.099651836 0.05653952 -0.03461847 0.11697769
-0.08292366 -0.028388139 -0.12597533 0.012050516 0.029926576 0.14547524 0.08376238 -0.08153616
-0.070091955 -0.12287354 0.095359445 -0.07874192 -0.041766588 0.11378373 0.106570564 0.014934568
-0.041370124 -0.012504662 -0.13137813 0.12130346 0.014942281 -0.10576652 -0.10632098 -0.122968204
-0.064484105 -0.123716675 -0.065981954 -0.11187272 0.112837575 -0.0738531 -0.0525291 0.026037162
-0.02407993 -0.11438849 -0.060278147 -0.101200275 -0.0033899415 -0.032429542 -0.04919481 0.060182285
-0.047158785 0.059436567 -0.11151357 -0.04530417 0.06843438 -0.021636264 -0.083834395 0.04189745
0.09367923 0.034234043 0.09504348 0.068933964 0.06791859 0.0761563 -0.09685973 -0.013167861
0.08592058 0.0874928 -0.08838245 -0.02071603 0.06415347 0.09391274 0.02250813 -0.0012851477
-0.029171068 -0.061179858 -0.013826148 -0.014325517 -0.08017605 -0.08047617 0.073046096 -0.009438246
-0.085513085 0.07261014 -0.029677643 -0.10218784 -0.095424786 0.082819305 -0.08124089 0.13500506
0.09275307 0.12701254 0.07460646 -0.042450704 -0.034018207 0.11907516 0.022792544 0.13522662
0.13802183 0.10625377 -0.0025641858 0.11368974 0.10766113 -0.0034199145 0.063390456 -0.036255468
-0.05932508 -0.08224761 0.027299272 0.11450056 -0.010587557 0.05449665 0.0029597704 -0.05626563
