Python_Agent_Hub/ml_pipeline/models/direction_model.pt (torch, 178977 bytes, 12 tensors)

weight_ih_l0 f4 [192, 9]
0.07447077 -0.035445854 0.0883954 -0.11356723 0.01834166 -0.051888645 -0.099037245 0.07292004
0.011968136 -0.0797535 0.06845334 -0.010348126 0.024433315 -0.06359251 0.044485286 -0.0036334842
-0.08932823 -0.11429052 -0.124855235 -0.03600356 -0.09850694 0.06630641 -0.03528644 0.04211454
0.05763212 -0.114729136 0.051886737 -0.089728504 0.043395936 0.070076525 -0.013534248 -0.0031754076
-0.072843045 0.10713339 -0.028591886 -0.11958636 -0.09307183 0.0223604 -0.117140785 -0.07054098
0.019704401 -0.11625831 -0.11825611 0.12241623 -0.043281212 0.050072163 0.014491737 0.070851624
0.061835065 0.07071045 0.05323322 0.010351047 -0.07177621 0.093910545 0.018911391 -0.09456688
0.11227442 0.02634579 0.07516442 0.031706646 0.08767705 0.112206206 0.0056151003 -0.095625415
0.061748207 -0.09114975 -0.08266272 -0.03281045 -0.08791365 0.076844975 -0.0866178 0.023375243
-0.102261856 0.07096174 0.108477086 -0.012633398 -0.08844447 -0.07717076 -0.09903462 0.0974669
0.042278722 0.09415519 0.11574821 -0.050168797 0.03285493 0.12388031 -0.12305832 -0.008626878
-0.019580558 -0.10830191 -0.04634975 -0.110936135 0.013891026 0.07929936 -0.063557655 0.015532792
0.07607348 -0.09490563 -0.057676762 -0.095296144 -0.12409237 0.11849834 -0.10484296 -0.07776992
0.033930153 0.09146416 -0.123619035 0.06506437 -0.02711755 -0.11704883 0.056299627 -0.029552221
0.08934234 -0.038144305 0.029630378 0.014234617 -0.1206857 -0.12072511 -0.02399233 -0.02356419
0.014600873 -0.04996912 0.08143756 0.06971814 0.10841283 -0.084941626 0.096025124 -0.03280388
0.073857486 -0.070001796 0.104037 0.12068701 0.050671384 -0.011603877 0.031080887 -0.08896305
0.11195624 -0.057776853 -0.03485921 0.07608619 -0.011755392 -0.031670302 0.01747714 0.04540366
-0.03573376 0.0023943186 -0.025474235 0.1246188 0.093459815 -0.06919122 -0.014735326 -0.04638736
0.048037067 -0.06385997 0.07809982 -0.06172988 -0.038132235 -0.090726435 0.048217073 -0.040148303
0.017444327 0.026450023 0.11870213 -0.033599317 -0.08630203 0.013931677 -0.026148021 -0.00818193
-0.006642401 0.05296959 -0.009172067 -0.08201885 -0.06219089 0.031019762 0.002045676 0.078118086
-0.120499596 0.00815101 0.04986316 0.014942139 -0.0064053237 0.07485664 0.08578178 0.05996138
-0.11226779 -0.037968665 0.082216844 -0.044496134 -0.075844884 0.10016829 0.03158532 -0.06200704
0.034304157 0.035046905 0.07087338 -0.017785221 0.051865652 -0.03724122 0.09051195 0.058405057
0.0686833 -0.10902855 0.03732425 0.10551652 -0.028978601 0.045544967 -0.12140283 -0.11507143
-0.09326878 -0.016441092 -0.03422691 0.041316852 0.12006624 -0.11886619 -0.09347284 0.12202726
-0.037470996 -0.11791973 -0.05168654 -0.097748786 0.06075844 -0.07338616 -0.08976054 0.08078489
-0.09590161 -0.06383152 -0.057883516 -0.033255726 0.1109187 0.033223525 -0.007845119 0.056052
-0.09346378 -0.008280396 0.00258182 -0.09544107 -0.009737149 -0.008770928 0.0102220625 0.040680274
0.051441833 -0.019268677 -0.10270637 0.06578426 -0.013187915 -0.06461327 -0.02787304 0.12476978
-0.059881344 0.045824215 0.024589881 0.110792994 0.019286051 -0.017812058 -0.108228505 0.037660733
00000000: 2284 983d ac2f 11bd a608 b53d f095 e8bd
00000010: 4041 963c 3089 54bd 0ad4 cabd 1a57 953d
00000020: 0016 443c ce55 a3bd 4431 8c3d 308b 29bc
00000030: 6028 c83c ca3c 82bd 3436 363d c01f 6ebb
00000040: b8f1 b6bd 2611 eabd 1ab4 ffbd 7878 13bd
00000050: 02be c9bd a8cb 873d 8488 10bd 4c80 2c3d
00000060: a80f 6c3d 1cf7 eabd 3087 543d 94c3 b7bd
00000070: f0bf 313d 4884 8f3d c0be 5dbc 801a 50bb
00000080: bc2e 95bd c068 db3d 8839 eabc b2e9 f4bd
00000090: 729c bebd 282d b73c 82e7 efbd ca77 90bd
000000a0: 206b a13c d618 eebd 4230 f2bd 5cb5 fa3d
000000b0: a447 31bd 7818 4d3d c06e 6d3c a81a 913d
000000c0: c446 7d3d a4d0 903d 140b 5a3d 7097 293c
000000d0: 68ff 92bd 2c54 c03d 10ec 9a3c 48ac c1bd
000000e0: 22f0 e53d 20d3 d73c ceef 993d d4de 013d
000000f0: 0690 b33d 5ecc e53d e0fe b73b 42d7 c3bd
00000100: b0eb 7c3d b8ac babd 124b a9bd 4064 06bd
00000110: 120c b4bd e660 9d3d ac64 b1bd 707d bf3c
00000120: aa6e d1bd 6454 913d 3c29 de3d 50fc 4ebc
00000130: 6022 b5bd b40b 9ebd aad2 cabd ba9c c73d
00000140: 742c 2d3d 70d4 c03d 660d ed3d cc7d 4dbd
00000150: e492 063d f6b4 fd3d 0006 fcbd c057 0dbc
00000160: 6867 a0bc 64cd ddbd 3cd9 3dbd 7c32 e3bd
00000170: 3097 633c b467 a23d 842a 82bd 407d 7e3c
00000180: 6acc 9b3d e25d c2bd 783e 6cbd a02a c3bd
00000190: 2424 febd 42af f23d e8b7 d6bd d645 9fbd
000001a0: 58fa 0a3d 9051 bb3d fa2b fdbd 7840 853d
000001b0: a025 debc 4cb7 efbd 709a 663d 8017 f2bc
000001c0: 1ef9 b63d 343d 1cbd 68bb f23c 5038 693c
000001d0: 102a f7bd ba3e f7bd 908b c4bc b009 c1bc
000001e0: 8038 6f3c 6cac 4cbd bcc8 a63d 62c8 8e3d
000001f0: 8c07 de3d e0f5 adbd d2a8 c43d 5c5d 06bd
00000200: 9842 973d 1a5d 8fbd 5a11 d53d c02a f73d
00000210: cc8c 4f3d 301e 3ebc 589d fe3c 4232 b6bd
00000220: 5049 e53d 6ca7 6cbd 88c8 0ebd 14d3 9b3d
00000230: b099 40bc b8b8 01bd 382c 8f3c 30f9 393d
00000240: 905d 12bd 00ea 1c3b 58af d0bc 2438 ff3d
00000250: dc67 bf3d 20b4 8dbd 706c 71bc ac00 3ebd
00000260: 84c2 443d 04c9 82bd ccf2 9f3d 78d8 7cbd
00000270: 8c30 1cbd c8ce b9bd 447f 453d 8c72 24bd
00000280: 68e7 8e3c b8ad d83c 1a1a f33d 709f 09bd
00000290: 1ebf b0bd b041 643c 6034 d6bc 800d 06bc
000002a0: 80a8 d9bb a4f6 583d 7046 16bc 80f9 a7bd
000002b0: e0bb 7ebd 281d fe3c c010 063b 60fc 9f3d
000002c0: 7ec8 f6bd d08b 053c 503d 4c3d e0cf 743c
000002d0: c0e3 d1bb 704e 993d 5cae af3d 109a 753d
000002e0: a8ec e5bd 0885 1bbd 4e61 a83d 9441 36bd
000002f0: 9054 9bbd 0825 cd3d 9c5f 013d 18fb 7dbd
00000300: 8482 0c3d 588d 0f3d 1026 913d 50b2 91bc
00000310: 1471 543d 408a 18bd 545e b93d 243a 6f3d
00000320: d4a9 8c3d 5c4a dfbd 50e1 183d 0c19 d83d
00000330: 8864 edbc 5c8d 3a3d 0ca2 f8bd 92aa ebbd
00000340: b403 bfbd 78af 86bc 8431 0cbd dc3b 293d
00000350: 4ae5 f53d 1e70 f3bd b06e bfbd 6ee9 f93d
00000360: 307b 19bd e67f f1bd 44b5 53bd 8430 c8bd
00000370: d8dd 783d 7c4b 96bd 60d4 b7bd 8c72 a53d
00000380: 1068 c4bd 1aba 82bd 4417 6dbd 2837 08bd
00000390: 5829 e33d 6415 083d d088 00bc c896 653d
000003a0: f069 bfbd 80aa 07bc c033 293b 9c76 c3bd
000003b0: 9088 1fbc f0b3 0fbc 707a 273c 5ca0 263d
000003c0: acb4 523d 58d9 9dbc b857 d2bd e6b9 863d
000003d0: 2012 58bc f653 84bd 0056 e4bc 4c87 ff3d
000003e0: 2446 75bd 2cb2 3b3d b870 c93c 70e7 e23d
000003f0: c8fd 9d3c 98ea 91bc e8a6 ddbd 2442 1a3d

weight_hh_l0 f4 [192, 64]
-0.072237834 0.045628414 0.08950955 -0.085939094 0.05794856 0.05551155 0.038985267 -0.036750183
0.006276652 -0.111584455 -0.09001389 -0.101041645 -0.05040866 -0.11565192 0.012590438 -0.11643699
0.10704033 0.10916039 -0.10691951 -0.024631485 -0.030523717 0.0011528134 0.060178325 -0.0684659
0.017540306 0.077183396 -0.060668394 -0.030424953 -0.09684341 0.028733164 0.008033365 0.07037063
0.09144294 0.036746264 0.016857043 0.011778414 0.044114754 -0.028377712 -0.061893657 0.07355644
-0.12265749 0.07707095 -0.05907747 0.043182537 0.09859751 0.02942495 -0.034931153 -0.07400626
0.01718375 0.009911537 -0.08189598 -0.011458859 0.12321931 0.047860816 0.063194096 -0.089141354
0.060747698 0.0012317449 0.12155624 -0.02817972 0.11952783 0.008569673 0.12385525 -0.11206633
0.057516113 0.02499424 -0.054504722 0.06873007 -0.08944288 -0.043462515 0.11044936 -0.03686948
-0.035333678 -0.089903265 -0.11944671 0.07010706 -0.040755898 0.10309139 -0.12238078 -0.033385694
0.11060323 -0.10548101 -0.077539325 -0.0720267 -0.060610205 -0.0048909783 -0.070935234 0.036628917
-0.11161144 -0.077951714 -0.014292523 0.069370806 0.11557175 -0.012616098 0.0065936297 -0.011895314
0.109996974 -0.04712236 -0.109547615 -0.030438095 0.018865108 -0.04818572 0.057268277 0.05491738
0.07450025 0.006118849 0.010114595 0.055470064 -0.095560625 0.04124242 0.0075953156 -0.050043017
0.085495755 -0.084053576 -0.047924265 -0.111634195 0.07928164 -0.016895682 0.030090451 -0.10373348
0.0041807294 -0.082936525 0.022164315 0.05586344 0.033064693 -0.102613345 -0.005439818 0.05097519
-0.07522091 -0.10679297 -0.11437674 -0.11649801 0.013229281 -0.023019195 -0.037020057 0.068400234
0.08483088 0.070572525 -0.12438871 -0.0072869062 0.10444841 -0.045534536 -0.093466535 0.093242064
-0.074743554 0.043144673 0.11653665 -0.010109752 -0.049301773 -0.0339783 0.012898862 0.02702403
-0.1198314 -0.12206328 -0.028295398 0.023661971 -0.075194195 0.08770089 0.032969356 0.12172267
0.052585095 -0.07006028 -0.04968743 0.044425786 0.1040709 -0.11965352 -0.00423944 -0.041690752
0.07429661 0.042542577 0.027707875 -0.088075414 -0.08923675 0.02771835 0.027665406 -0.08106828
-0.06866692 -0.0052472353 0.007962033 0.05193445 0.06555705 -0.04610145 0.06803875 0.0043515265
0.11545052 0.04357025 0.04927072 0.027252302 -0.00782004 -0.055975527 -0.096935794 -0.09962949
-0.066937596 0.07107741 -0.10960622 -0.013751984 -0.034109294 0.1057511 -0.07125068 0.08700082
-0.024948418 0.0115032345 0.062907726 -0.124019384 -0.02869828 -0.10540247 0.054695904 -0.0874158
0.09053354 -0.099864274 0.07556075 0.12245639 -0.112671986 -0.042611897 -0.10526158 -0.044973895
0.021296829 0.11519936 0.11109185 0.09573114 0.09545095 -0.10835336 0.0775865 -0.1201334
0.10253686 0.06836204 -0.07090536 -0.08308995 0.038964897 0.122582644 -0.061384693 0.092377186
0.04280278 -0.11979526 0.057275817 -0.060664818 0.09647089 -0.08233185 0.067818075 -0.08830333
-0.08452116 -0.048176616 0.022973686 0.03794612 -0.092843994 -0.02010104 -0.08106716 0.10587318
-0.0716864 0.001894787 0.09142688 0.10191855 -0.0150818825 0.0127336085 -0.09264867 0.09109409
00000000: 6ef1 93bd dce4 3a3d c850 b73d d600 b0bd
00000010: 785b 6d3d 1460 633d 04af 1f3d 5c87 16bd
00000020: 60ac cd3b 6486 e4bd 3459 b8bd ecee cebd
00000030: 5079 4ebd eada ecbd 2048 4e3c 8476 eebd
00000040: f637 db3d 7c8f df3d 9ef8 dabd f8c7 c9bc
00000050: e00c fabc 001a 973a 8c7d 763d da37 8cbd
00000060: b0b0 8f3c 5412 9e3d 6c7f 78bd c03d f9bc
00000070: d655 c6bd d061 eb3c 609e 033c 7a1e 903d
00000080: 7046 bb3d 4083 163d c817 8a3c 40fa 403c
00000090: acb1 343d 6078 e8bc 3484 7dbd c2a4 963d
000000a0: da33 fbbd 60d7 9d3d 38fb 71bd 2ce0 303d
000000b0: 7eed c93d 980c f13c f813 0fbd 9890 97bd
000000c0: f0c4 8c3c 0064 223c 14b9 a7bd f0bd 3bbc
000000d0: 685a fc3d b409 443d e86b 813d be8f b6bd
000000e0: 94d2 783d 8072 a13a 7af2 f83d 28d9 e6bc
000000f0: 02cb f43d d067 0c3c d2a7 fd3d 0883 e5bd
00000100: 0496 6b3d b8c0 cc3c 5840 5fbd 5ac2 8c3d
00000110: d42d b7bd c005 32bd 4633 e23d 7404 17bd
00000120: 0cba 10bd 341f b8bd 7aa0 f4bd 4a94 8f3d
00000130: a8ef 26bd 9421 d33d c6a2 fabd 70bf 08bd
00000140: f283 e23d 6e06 d8bd f0cc 9ebd bc82 93bd
00000150: 6842 78bd 8044 a0bb 7e46 91bd 3408 163d
00000160: 8a94 e4bd 26a5 9fbd 302b 6abc 4812 8e3d
00000170: e2b0 ec3d c0b3 4ebc 600f d83b 90e4 42bc
00000180: 1846 e13d 6003 41bd 805a e0bd 5059 f9bc
00000190: 008b 9a3c 645e 45bd 2492 6a3d 0cf1 603d
000001a0: 9693 983d a080 c83b b0b7 253c 9434 633d
000001b0: 4ab5 c3bd d0ed 283d 20e2 f83b e8f9 4cbd
000001c0: 6618 af3d 4824 acbd 3c4c 44bd 78a0 e4bd
000001d0: 6a5e a23d d068 8abc 4080 f63c 3872 d4bd
000001e0: 80fe 883b a0da a9bd f091 b53c 10d1 643d
000001f0: d86e 073d f226 d2bd 8040 b2bb 5ccb 503d
00000200: 6c0d 9abd 46b6 dabd 5a3e eabd 8296 eebd
00000210: a0bf 583c c092 bcbc 58a2 17bd 6c15 8c3d
00000220: d0bb ad3d 5488 903d 82bf febd 00c7 eebb
00000230: 0ce9 d53d 6c82 3abd 626b bfbd b2f5 be3d
00000240: 2613 99bd 78b8 303d c4aa ee3d 60a3 25bc
00000250: a8f0 49bd d42c 0bbd c055 533c 8061 dd3c
00000260: 2a6a f5bd 50fc f9bd c0cb e7bc c0d6 c13c
00000270: 6aff 99bd 869c b33d e00a 073d bc49 f93d
00000280: 7863 573d c47b 8fbd 0c85 4bbd d0f7 353d
00000290: 2023 d53d e80c f5bd 00eb 8abb ecc3 2abd
000002a0: d228 983d 2041 2e3d a0fb e23c e260 b4bd
000002b0: c2c1 b6bd 9811 e33c 90a2 e23c 2007 a6bd
000002c0: 3ea1 8cbd 00f1 abbb 3073 023c 38b9 543d
000002d0: c642 863d e0d4 3cbd e657 8b3d 4097 8e3b
000002e0: 5271 ec3d b876 323d 18d0 493d 3840 df3c
000002f0: a01f 00bc 9846 65bd 4686 c6bd 8c0a ccbd
00000300: 9416 89bd 0891 913d 3a79 e0bd 0050 61bc
00000310: 30b6 0bbd 0894 d83d e0eb 91bd 7c2d b23d
00000320: a060 ccbc 1078 3c3c c4d5 803d e0fd fdbd
00000330: a818 ebbc 40dd d7bd d008 603d 0e07 b3bd
00000340: a669 b93d a485 ccbd 98bf 9a3d 6aca fa3d
00000350: 92c0 e6bd d089 2ebd 6293 d7bd 8c36 38bd
00000360: b076 ae3c a4ed eb3d 2084 e33d b00e c43d
00000370: ca7b c33d 5ee8 ddbd ace5 9e3d 8008 f6bd
00000380: d8fe d13d 6601 8c3d d436 91bd 102b aabd
00000390: a899 1f3d 9c0c fb3d 846e 7bbd 4030 bd3d
000003a0: f851 2f3d 3857 f5bd 0c9a 6a3d ac7b 78bd
000003b0: 8892 c53d 9a9d a8bd 34e4 8a3d 60d8 b4bd
000003c0: 6e19 adbd d854 45bd 5033 bc3c 646d 1b3d
000003d0: fe24 bebd f0aa a4bc 8a06 a6bd 0ad4 d83d
000003e0: 52d0 92bd 805a f83a 043e bb3d acba d03d
000003f0: 001a 77bc a0a0 503c 96be bdbd 8a8f ba3d

bias_ih_l0 f4 [192]
-0.07429145 0.014593765 -0.0037040412 -0.055205747 -0.05860123 0.071006 0.12445149 -0.11522013
-0.093886435 -0.09908858 0.04100342 -0.12099996 0.0018893033 -0.05419594 -0.11272827 -0.029389337
-0.08010197 0.0050243735 0.118506774 0.060264662 -0.051875964 -0.009869412 0.0619594 0.12447646
-0.10506567 0.09707509 -0.085272804 -0.0055799037 0.08064611 0.039475515 0.047677055 0.11290456
0.09859078 -0.0868258 0.025201619 -0.045379117 -0.025352806 -0.06733097 -0.10616174 -0.023379073
-0.07474993 0.1243595 -0.055588648 -0.06784986 -0.020882428 0.08374405 -0.0964849 -0.03233944
0.05443968 0.09700982 0.0010615289 -0.101686984 0.07074107 -0.097154975 0.09049386 -0.07859443
-0.054391727 0.09463182 -0.037030756 -0.0053414404 -0.08711894 0.113407895 0.014503673 0.05058086
-0.04492651 0.0429333 0.1176386 0.031238317 -0.086441055 -0.02506724 0.07787657 -0.077382654
-0.0055351257 0.040413573 0.10617417 0.06388494 0.0021616518 0.07167445 0.010695621 0.017491072
-0.004386008 -0.003976375 0.061921448 0.083332315 -0.03586252 -0.011905894 -0.12038669 -0.086904496
0.014192611 0.017261699 0.029568642 0.044581175 -0.05741729 -0.104070306 -0.10813448 -0.11495793
0.11149554 0.05358 -0.02443555 0.08555871 0.06617418 0.009248257 0.11851956 0.007030055
-0.087647945 -0.041140243 -0.0693655 0.011506617 0.12384431 0.024994597 0.09825316 0.10061237
-0.051051706 -0.10360883 0.11364666 0.029708669 -0.09989144 0.031374827 -0.06725831 0.08233592
0.0613032 0.011163384 -0.124835566 -0.12053889 0.10709119 -0.1145443 -0.017077029 0.03059718
-0.059270546 0.109919846 0.09259972 0.01894465 -0.027540177 0.06711556 -0.10582483 -0.11425012
-0.046194732 0.107494175 0.121398225 0.103191614 0.09805052 -0.06004426 -0.056174815 0.06991264
0.0939738 -0.07883096 -0.029187799 -0.096182674 -0.09584756 -0.017517641 0.04313089 0.06369327
0.039329052 -0.07536557 -0.06584929 0.12206037 -0.0783198 -0.10286717 0.030710474 0.08262092
-0.117389396 0.016382575 0.11413853 -0.08828293 -0.08391133 -0.11203967 0.0034694523 -0.105209574
0.10845111 0.003877595 0.045193464 0.04975626 0.018063083 0.022432253 -0.005982533 0.12291002
-0.083898515 0.08199391 -0.076234564 -0.0008100867 -0.12414114 -0.013175204 -0.11859052 -0.028574571
0.04656443 -0.04040338 0.0009811819 -0.015324637 -0.07552257 0.09269917 0.03283003 0.06768204
00000000: 1e26 98bd b01a 6f3c 80bf 72bb 6c1f 62bd
00000010: d807 70bd 986b 913d 6ce0 fe3d 88f8 ebbd
00000020: 8847 c0bd f4ee cabd 34f3 273d d4ce f7bd
00000030: 80a2 f73a 90fc 5dbd 14de e6bd e8c1 f0bc
00000040: 800c a4bd 80a3 a43b aeb3 f23d 14d8 763d
00000050: e47b 54bd 50b3 21bc 24c9 7d3d 84ed fe3d
00000060: ac2c d7bd 4ecf c63d 82a3 aebd a0d7 b6bb
00000070: ca29 a53d 14b1 213d 0449 433d 823a e73d
00000080: f6e9 c93d bad1 b1bd a073 ce3c 74df 39bd
00000090: b0b0 cfbc d2e4 89bd 546b d9bd 7885 bfbc
000000a0: 7e16 99bd 32b0 fe3d ecb0 63bd def4 8abd
000000b0: a011 abbc 0082 ab3d e099 c5bd 5c76 04bd
000000c0: 24fc 5e3d 16ad c63d 0023 8b3a 4441 d0bd
000000d0: b2e0 903d 30f9 c6bd d854 b93d 1ef6 a0bd
000000e0: dcc9 5ebd 54ce c13d 90ad 17bd 4007 afbb
000000f0: 6a6b b2bd 6642 e83d d0a0 6d3c e02d 4f3d
00000100: dc04 38bd d4da 2f3d 82ec f03d 80e7 ff3c
00000110: 0208 b1bd d059 cdbc c07d 9f3d cc7a 9ebd
00000120: 0060 b5bb b488 253d d871 d93d 1cd6 823d
00000130: 80aa 0d3b 0eca 923d b03c 2f3c 7049 8f3c
00000140: 80b8 8fbb 404c 82bb 58a1 7d3d 22aa aa3d
00000150: 94e4 12bd f010 43bc 4c8d f6bd fcfa b1bd
00000160: 2088 683c 6868 8d3c f039 f23c c09a 363d
00000170: 642e 6bbd d022 d5bd 9c75 ddbd 106f ebbd
00000180: c657 e43d b476 5b3d 102d c8bc 6839 af3d
00000190: 5486 873d 0086 173c 62ba f23d 605c e63b
000001a0: c480 b3bd ac82 28bd 800f 8ebd 4086 3c3c
000001b0: 16a2 fd3d 78c1 cc3c f438 c93d dc0d ce3d
000001c0: 981b 51bd de30 d4bd 94bf e83d 985f f33c
000001d0: e293 ccbd e482 003d babe 89bd bc9f a83d
000001e0: 1019 7b3d a0e6 363c caa9 ffbd 18dd f6bd
000001f0: a052 db3d 3496 eabd 20e5 8bbc f0a6 fa3c
00000200: acc5 72bd a81d e13d eca4 bd3d d031 9b3c
00000210: f09b e1bc e273 893d b0ba d8bd f8fb e9bd
00000220: b036 3dbd e825 dc3d a29f f83d 2056 d33d
00000230: b6ce c83d f8f0 75bd 9017 66bd 5c2e 8f3d
00000240: 5675 c03d 2072 a1bd 401b efbc 6cfb c4bd
00000250: ba4b c4bd 2881 8fbc 04aa 303d 9e71 823d
00000260: 8017 213d 4459 9abd fedb 86bd cafa f93d
00000270: 2266 a0bd 06ac d2bd 8894 fb3c 2835 a93d
00000280: da69 f0bd c034 863c 76c1 e93d aecd b4bd
00000290: b4d9 abbd 0e75 e5bd c05f 633b 1e78 d7bd
000002a0: 9e1b de3d 401f 7e3b c81c 393d 38cd 4b3d
000002b0: 08f9 933c d8c3 b73c 2009 c4bb 40b8 fb3d
000002c0: fcd2 abbd 6cec a73d de20 9cbd 005c 54ba
000002d0: b63d febd d0dc 57bc 96df f2bd 3815 eabc
000002e0: 58ba 3e3d 047e 25bd 009b 803a 3014 7bbc
000002f0: 94ab 9abd 10d9 bd3d c878 063d e29c 8a3d

bias_hh_l0 f4 [192]
0.031192392 -0.08396195 -0.002592519 0.06846796 -0.10816677 -0.1225948 0.11464 0.07526001
-0.08319244 -0.06706689 -0.106227085 -0.06404038 -0.020150483 -0.12281394 -0.013840154 0.029288948
0.08065231 0.035580188 -0.03822151 0.013752818 0.106745124 0.063070446 0.00845544 -0.07074411
0.0098884255 0.075121 0.0063351393 0.041575804 0.05198531 -0.038804308 -0.07609685 -0.08205913
-0.013349906 -0.0015178025 -0.092948526 -0.06781109 -0.003470689 0.042976856 0.04425496 -0.053952515
0.10353787 0.070710346 0.08327797 -0.023613408 0.038371786 -0.09606682 -0.010988072 0.042677343
-0.06313263 -0.008039489 0.1081769 -0.049922153 -0.055834636 0.065701544 0.03936656 -0.05813475
-0.04229413 -0.013933092 0.013081536 -0.030406967 0.059306473 -0.0072495043 0.052613854 -0.06117639
-0.110267326 0.071833804 -0.024077028 0.109193 0.10059875 0.11140004 -0.066526994 0.120859
0.09640598 -0.103136346 0.09404664 -0.010163292 0.10092305 0.00669688 -0.027232036 0.09503691
0.12048042 0.03088002 -0.103073105 0.020490438 0.12407921 0.10051575 0.024633422 0.0016400069
0.122948796 0.052880228 0.041899085 0.06290296 0.013416007 -0.07551707 0.05785431 0.10160899
0.073829696 0.06915596 0.039503396 0.023736805 0.119047195 0.072691604 -0.052272454 0.118513554
0.082953244 0.01114212 -0.109520406 -0.05159378 0.0810304 -0.06106603 -0.06128025 0.07109591
-0.10370427 -0.027567312 0.025652796 0.030253321 0.098996386 0.050711676 -0.10175532 0.022124618
-0.121467605 0.10469413 0.10896903 -0.10359359 -0.017464504 0.044047356 0.043509215 0.040357575
0.11488235 0.016508773 0.05997631 0.117205605 -0.015063196 -0.08976288 0.1173456 -0.06616147
0.07010335 0.0089187175 0.071302265 0.057107672 0.09385833 0.08576466 -0.035656616 0.09390919
0.104211465 -0.10798985 -0.029789522 -0.018779412 -0.12183897 -0.10124087 0.053366736 -0.106477246
0.061112612 -0.0047640502 -0.10224369 0.09133957 0.07441048 0.08882302 -0.10724376 0.052977294
-0.056465864 0.08237505 0.045963585 0.042353585 -0.074943766 -0.055676132 -0.013062447 -0.082435995
0.04708731 -0.116478145 -0.07905103 0.05613874 0.10417561 -0.09491886 -0.047267422 -0.08808589
-0.04783593 0.07609059 -0.09413259 0.07652937 -0.015002668 -0.015618831 -0.048340604 0.0030427277
-0.040613666 0.118142456 0.03945312 -0.022896215 0.033559307 0.09680945 0.10774477 -0.050135255
00000000: 3087 ff3c 3ef4 abbd 40e7 29bb ee38 8c3d
00000010: 8a86 ddbd fc12 fbbd 60c8 ea3d ec21 9a3d
00000020: cc60 aabd 5e5a 89bd 968d d9bd 9a27 83bd
00000030: a012 a5bc e085 fbbd d0c1 62bc 60ef ef3c
00000040: 0a2d a53d 88bc 113d 288e 1cbd 8053 613c
00000050: 309d da3d 142b 813d b088 0a3c 4ae2 90bd
00000060: 1003 223c 0ad9 993d 0097 cf3b 644b 2a3d
00000070: 8cee 543d 44f1 1ebd aad8 9bbd 9e0e a8bd
00000080: 90b9 5abc 00f1 c6ba cc5b bebd 8ae0 8abd
00000090: 8074 63bb 8008 303d b044 353d 50fd 5cbd
000000a0: aa0b d43d 96d0 903d a48d aa3d e870 c1bc
000000b0: bc2b 1d3d aebe c4bd 5007 34bc 70ce 2e3d
000000c0: ae4b 81bd 10b8 03bc da8b dd3d 2c7b 4cbd
000000d0: dcb2 64bd 888e 863d d43e 213d b41e 6ebd
000000e0: 9c3c 2dbd a047 64bc f053 563c 0818 f9bc
000000f0: 58eb 723d 408d edbb a081 573d 1894 7abd
00000100: d6d3 e1bd 9a1d 933d 303d c5bc 94a0 df3d
00000110: b806 ce3d b425 e43d 4e3f 88bd ec84 f73d
00000120: 8070 c53d 2639 d3bd 869b c03d f083 26bc
00000130: beb0 ce3d 8071 db3b b815 dfbc b6a2 c23d
00000140: 70be f63d 18f8 fc3c fe17 d3bd 90db a73c
00000150: 3e1d fe3d 34db cd3d 08cc c93c 80f5 d63a
00000160: 94cc fb3d f098 583d 609e 2b3d 44d3 803d
00000170: d0ce 5b3c b2a8 9abd a4f8 6c3d 6018 d03d
00000180: 0634 973d a4a1 8d3d 50ce 213d b073 c23c
00000190: 04cf f33d 56df 943d a41b 56bd 3cb7 f23d
000001a0: 64e3 a93d 708d 363c 3c4c e0bd 0054 53bd
000001b0: 44f3 a53d 6020 7abd 0001 7bbd bc9a 913d
000001c0: e862 d4bd d8d4 e1bc d025 d23c d0d5 f73c
000001d0: 9ebe ca3d 0cb7 4f3d 1865 d0bd b03e b53c
000001e0: 02c4 f8bd e069 d63d 282b df3d e028 d4bd
000001f0: b811 8fbc 006b 343d b836 323d fc4d 253d
00000200: 7047 eb3d 683d 873c b8a9 753d 7e09 f03d
00000210: a0cb 76bc 9ad5 b7bd e452 f03d aa7f 87bd
00000220: 5892 8f3d d01f 123c ec06 923d bce9 693d
00000230: cc38 c03d 62a5 af3d ac0c 12bd 7653 c03d
00000240: d26c d53d c829 ddbd 2809 f4bc 48d7 99bc
00000250: b686 f9bd 6057 cfbd 1497 5a3d be10 dabd
00000260: 3851 7a3d c01b 9cbb 2465 d1bd 3e10 bb3d
00000270: 8664 983d d8e8 b53d 9ea2 dbbd b8fe 583d
00000280: c048 67bd 40b4 a83d 5044 3c3d f47a 2d3d
00000290: 1e7c 99bd a80c 64bd e003 56bc 34d4 a8bd
000002a0: a0de 403d 188c eebd 82e5 a1bd bcf1 653d
000002b0: 065a d53d d264 c2bd 7c9b 41bd 6066 b4bd
000002c0: 9cef 43bd 62d5 9b3d 96c8 c0bd 6ebb 9c3d
000002d0: c0cd 75bc 20e6 7fbc cc00 46bd 8068 473b
000002e0: 845a 26bd acf4 f13d 9899 213d d890 bbbc
000002f0: 7c75 093d 0844 c63d 4aa9 dc3d a05a 4dbd

weight_ih_l1 f4 [192, 64]
0.11005898 -0.09489238 0.12305465 -0.07484825 -0.04496385 0.01062797 0.04381977 0.000986442
-0.121073365 -0.07636769 -0.03613189 0.105588764 0.060527414 0.008559585 0.0066908 0.003506139
0.08629431 0.09974356 -0.02002941 -0.08458927 -0.10872565 0.08557503 0.004202649 -0.10802594
0.0021001399 -0.117846236 0.10652214 -0.12463139 -0.12437475 -0.017841026 0.02246593 -0.07986468
0.038596228 0.029483676 -0.016111225 -0.056330815 0.07904646 -0.0010546893 -0.002671957 0.056581408
-0.08445887 0.027663738 0.111885175 0.004611686 -0.016047746 -0.010076389 -0.118286535 -0.10272868
-0.07738319 -0.07327628 0.035804212 0.0648164 -0.041300356 -0.12037754 -0.032452658 0.03545302
-0.007941738 -0.012180582 -0.12335773 0.025632024 0.02893205 -0.09333667 -0.10137527 0.004131511
-0.032468677 -0.09779069 -0.014322907 -0.07558775 -0.12232216 0.038748577 0.030606896 -0.039936677
0.056913897 0.10187973 0.047965378 -0.055655792 -0.08680895 -0.02299288 0.059612557 -0.050342977
0.10022858 -0.028943256 -0.02273351 -0.032818392 -0.03733024 -0.028498664 -0.026461989 -0.12041345
0.085868135 0.064723566 0.023960829 -0.10764167 -0.108638585 -0.035941914 0.004522562 0.090729296
0.066410765 0.029027164 0.110231 -0.103226244 -0.07828291 0.0018142015 -0.09628776 0.063654095
0.07595484 0.051237002 0.066879705 0.03500937 0.0005082637 0.047204033 -0.056434736 0.10402422
0.08179256 0.05637312 0.11765635 0.055427894 -0.037207067 0.11800188 0.11363955 -0.025486872
0.11791219 -0.10675296 -0.0011234134 -0.0020117462 0.11668262 0.030876517 0.1152339 -0.06587179
0.06531614 -0.0450387 -0.043903083 0.038847595 -0.069300964 0.014667705 0.04972434 0.08300701
-0.10431054 0.06700595 0.010257065 0.023161784 -0.091738254 -0.056431264 0.10669488 -0.04092498
-0.11687337 -0.10735363 -0.018676534 0.03101939 0.02800639 -0.08664119 0.024721026 0.04243365
0.046724036 0.027479649 -0.040822297 -0.09607662 0.0058666617 -0.10079813 -0.027934477 -0.09579909
0.041488618 0.02242212 0.09858036 -0.108733684 -0.023485735 -0.104885444 0.036773458 0.12454797
-0.12125392 0.08258067 0.116233245 0.021548763 -0.07808663 0.030923858 0.07527158 0.020651355
-0.12348209 0.011707932 0.050964236 -0.019137442 0.10307658 0.06081751 -0.11075699 -0.044533104
0.10767341 -0.00716722 -0.091873825 0.046095863 -0.048340693 0.08951041 -0.039223284 0.05202104
-0.03555931 -0.07279937 0.000954777 0.11128734 0.11507967 0.063197136 -0.04568407 -0.027565137
0.04002294 0.11550975 -0.044118866 0.10944301 0.025769934 0.015969813 0.023730412 0.049742326
0.078689635 0.06943129 -0.0894354 -0.06674668 -0.102569744 -0.025525078 -0.030620575 0.12376003
-0.103724524 -0.058485672 0.118731976 -0.06756528 0.105936736 -0.087551326 4.158914e-05 0.011982098
-0.064133555 -0.028124511 0.020580843 -0.11013678 -0.122181386 -0.05407387 0.08193493 -0.016898453
-0.08931889 0.11517204 -0.112586364 0.09589349 -0.09998517 -0.10695873 0.004903868 0.030202284
-0.021030232 0.04713103 -0.10094154 -0.11759873 -0.0072804093 0.037847012 0.12178202 0.07331017
-0.012798041 -0.06671597 -0.03758779 -0.05617237 0.10114585 0.12066057 -0.053297177 0.09555143
00000000: 9a66 e13d f056 c2bd 1404 fc3d 0a4a 99bd
00000010: 042c 38bd f020 2e3c 5c7c 333d 804b 813a
00000020: 50f5 f7bd aa66 9cbd 08ff 13bd ec3e d83d
00000030: 98eb 773d 803d 0c3c 803e db3b 40c7 653b
00000040: 12bb b03d 5a46 cc3d b814 a4bc 243d adbd
00000050: 8eab debd f641 af3d 60b6 893b b43c ddbd
00000060: 80a2 093b 5e59 f1bd 4828 da3d be3e ffbd
00000070: 30b8 febd 5827 92bc 780a b83c 1890 a3bd
00000080: 1417 1e3d c087 f13c b0fb 83bc 24bb 66bd
00000090: 1ce3 a13d 803d 8aba 001c 2fbb e8c1 673d
000000a0: c6f8 acbd 109f e23c 0e24 e53d a01d 973b
000000b0: 9076 83bc 7017 25bc 3640 f2bd 6a63 d2bd
000000c0: 147b 9ebd e011 96bd 70a7 123d 76be 843d
000000d0: 902a 29bd 8088 f6bd 14ed 04bd 3037 113d
000000e0: 101e 02bc 1091 47bc faa2 fcbd 40fa d13c
000000f0: e802 ed3c 4c27 bfbd d69d cfbd a061 873b
00000100: e0fd 04bd 7c46 c8bd a0aa 6abc c0cd 9abd
00000110: 0a84 fabd d4b6 1e3d 50bb fa3c a494 23bd
00000120: 8c1e 693d 52a6 d03d 5877 443d 54f7 63bd
00000130: e4c8 b1bd 905b bcbc 4c2c 743d 7034 4ebd
00000140: a444 cd3d 681a edbc a03b babc 946c 06bd
00000150: 98e7 18bd 0876 e9bc d0c6 d8bc 549b f6bd
00000160: a2db af3d ca8d 843d 8049 c43c 3c73 dcbd
00000170: e87d debd d437 13bd 0032 943b 48d0 b93d
00000180: 5e02 883d 60ca ed3c cac0 e13d 4868 d3bd
00000190: ca52 a0bd 80ca ed3a 8432 c5bd 145d 823d
000001a0: 368e 9b3d e4dd 513d 3af8 883d fc65 0f3d
000001b0: 003d 053a 0459 413d 1c28 67bd a60a d53d
000001c0: dc82 a73d 80e7 663d d0f5 f03d 5c08 633d
000001d0: 7066 18bd f8aa f13d dabb e83d d8c9 d0bc
000001e0: f27b f13d 4ca1 dabd 803f 93ba 80d7 03bb
000001f0: 4cf7 ee3d c0f0 fc3c c0ff eb3d cae7 86bd
00000200: 78c4 853d 807a 38bd b8d3 33bd a81e 1f3d
00000210: aaed 8dbd d050 703c c0ab 4b3d 94ff a93d
00000220: c4a0 d5bd 6a3a 893d 400d 283c c8bd bd3c
00000230: 44e1 bbbd 7824 67bd d882 da3d f4a0 27bd
00000240: 4e5b efbd 38dc dbbd 88ff 98bc 601c fe3c
00000250: a86d e53c f070 b1bd c083 ca3c e8ce 2d3d
00000260: b461 3f3d 001d e13c 4835 27bd d2c3 c4bd
00000270: 203d c03b 406f cebd d8d6 e4bc 5032 c4bd
00000280: f8ef 293d 98ae b73c 80e4 c93d c4af debd
00000290: 2865 c0bc 2ece d6bd c49f 163d 0213 ff3d
000002a0: fa53 f8bd 0e20 a93d b20b ee3d 0887 b03c
000002b0: e2eb 9fbd 0854 fd3c fc27 9a3d 082d a93c
000002c0: 2ee4 fcbd a0d2 3f3c e0bf 503d 20c6 9cbc
000002d0: d019 d33d c81b 793d 90d4 e2bd 5868 36bd
000002e0: e083 dc3d 00db eabb 5828 bcbd 04cf 3c3d
000002f0: e400 46bd 3c51 b73d 98a8 20bd 0414 553d
00000300: a4a6 11bd d617 95bd 004a 7a3a 9eea e33d
00000310: e4ae eb3d 806d 813d 381f 3bbd 48d0 e1bc
00000320: 18ef 233d 6090 ec3d fcb5 34bd a823 e03d
00000330: 781b d33c 20d3 823c 4866 c23c 9cbe 4b3d
00000340: 0828 a13d fe31 8e3d e829 b7bd 7cb2 88bd
00000350: 1610 d2bd f819 d1bc 00d8 fabc e675 fd3d
00000360: 866d d4bd ac8e 6fbd c029 f33d aa5f 8abd
00000370: 5cf5 d83d 1c4e b3bd 0070 2e38 9050 443c
00000380: 7458 83bd 6065 e6bc 2899 a83c 648f e1bd
00000390: 3c3a fabd 907c 5dbd 80cd a73d a06e 8abc
000003a0: d2ec b6bd 52df eb3d ae93 e6bd ce63 c43d
000003b0: 06c5 ccbd 2e0d dbbd a0b0 a03b c86a f73c
000003c0: 9847 acbc 780c 413d 70ba cebd 9ad7 f0bd
000003d0: 8090 eebb 7805 1b3d da68 f93d a423 963d
000003e0: e0ae 51bc 62a2 88bd a8f5 19bd 0015 66bd
000003f0: 8e25 cf3d e41c f73d 244e 5abd 78b0 c33d

weight_hh_l1 f4 [192, 64]
-0.02432412 -0.05125779 -0.06176327 0.112712786 0.0074192137 0.0230266 -0.08686891 0.032575876
0.11421202 0.09755625 -0.07692693 -0.120434254 0.10794665 -0.03132537 -0.0010704398 -0.12295857
-0.012527198 0.056704387 -0.0665289 0.0267016 0.055950075 -0.09499152 0.07847461 -0.04142034
0.0014169216 0.117523596 0.07577257 0.04589477 -0.07347511 0.066709146 -0.037718073 0.03957711
0.10691884 -0.09951493 0.016382158 -0.09562467 -0.052904427 0.08985399 0.009239197 -0.0655002
0.08148299 -0.05080092 0.047512442 0.10038006 -0.10022394 0.06076525 0.11480887 -0.032767326
-0.09206289 -0.12050289 0.075573996 -0.021688461 -0.088500425 0.037494242 0.051208884 0.01238744
0.11653742 0.09456426 0.061181217 0.10113497 0.051273182 0.017876491 0.040618896 0.02893363
0.061683804 0.046487898 -0.08503868 0.09107737 0.11940336 0.035124555 -0.018556625 0.035145923
0.05056879 -0.09412825 -0.039597437 0.009617209 -0.007531017 0.013944522 -0.059761405 0.019750714
-0.0034008473 0.06792493 -0.09377876 0.10964894 0.10745941 -0.07527968 0.11659287 0.031027943
0.032151714 -0.07608551 0.06430669 0.061524317 0.060776472 0.10087867 0.07910748 0.096398756
0.11112709 -0.108276054 0.09440169 0.1168372 -0.039265335 -0.098121926 0.05471523 0.02905795
-0.0023466349 0.11206177 0.09758009 0.06209138 -0.10407536 -0.07644567 0.124024555 0.063452885
-0.048793852 0.024887636 0.11896962 -0.01724276 0.023512289 -0.097862974 -0.1194464 -0.04044491
0.072168276 0.09968878 -0.009728491 -0.11126757 0.10968229 0.09739022 0.0786763 -0.12004791
0.117930755 -0.009378016 0.09963362 -0.03601417 0.11270164 0.111269355 0.040540025 -0.08071883
-0.0678888 -0.060754895 -0.020819962 -0.036061957 -0.12332344 -0.003429234 -0.06287457 0.07343824
0.061494395 -0.027811915 -0.024734154 -0.06468296 0.0012824237 -0.0029843748 -0.10028534 0.08048591
0.070470706 -0.004574135 0.10518974 -0.0450868 -0.09292905 0.038774505 0.027233824 -0.060676813
0.048916847 0.049278542 -0.12484893 -0.10497916 -0.04781662 -0.07791762 -0.022945672 0.0071136355
-0.040067032 -0.010542855 -0.030328855 0.10621412 -0.04792589 -0.040419772 -0.08826922 0.09683706
-0.111905426 -0.096707344 -0.074585795 0.05524984 0.091734946 -0.09218927 0.028566986 -0.08369401
0.052390814 -0.00086577237 -0.06615016 0.028382033 0.03298363 -0.112143084 -0.044157416 0.11789335
0.025585055 0.020097956 -0.123568505 -0.124833286 0.045672923 0.026058301 -0.104888275 0.033864394
-0.055848762 -0.04025297 0.06886938 0.041602463 -0.08130178 0.079811946 -0.0770075 -0.0234887
0.0111320615 -0.07904123 -0.07281765 0.10557984 0.07943334 0.0072672665 -0.058523 -0.031488642
-0.11233272 -0.052385703 0.0109336525 0.11672151 -0.11956704 0.081471205 -0.016678378 -0.06159112
0.06328775 -0.10526955 -0.03209734 0.042392224 -0.064795405 -0.037573516 -0.059357658 0.006280154
0.105800465 -0.07368864 -0.09840669 0.031120345 0.009792656 -0.12319444 -0.091081664 0.11978233
-0.051175326 0.05055438 0.09744486 0.111836165 -0.05849299 -0.049527004 -0.0029815882 0.09718196
0.026536673 0.033343226 0.079767704 -0.078179464 -0.07879534 0.035322845 0.096874 0.02748242
00000000: 6043 c7bc b0f3 51bd 7cfb 7cbd f6d5 e63d
00000010: e01c f33b 48a2 bc3c 54e8 b1bd 486e 053d
00000020: fee7 e93d 92cb c73d de8b 9dbd 3ca6 f6bd
00000030: 2213 dd3d 084f 00bd 004e 8cba b4d1 fbbd
00000040: e03e 4dbc dc42 683d 4e40 88bd 50bd da3c
00000050: e82b 653d ea8a c2bd 4cb7 a03d 60a8 29bd
00000060: 00b8 b93a 36b0 f03d a62e 9b3d 28fc 3b3d
00000070: 1e7a 96bd ce9e 883d 447e 1abd 9c1b 223d
00000080: 44f8 da3d 7cce cbbd e033 863c ded6 c3bd
00000090: 50b2 58bd 5e05 b83d 0060 173c f824 86bd
000000a0: 8ee0 a63d a014 50bd 689c 423d 1094 cd3d
000000b0: 3642 cdbd fce4 783d ea20 eb3d 0837 06bd
000000c0: 788b bcbd 38ca f6bd 8ac6 9a3d 00ac b1bc
000000d0: b63f b5bd 9093 193d 68c0 513d b0f4 4a3c
000000e0: 2cab ee3d e8aa c13d 2899 7a3d da1f cf3d
000000f0: d403 523d b871 923c 0060 263d 3806 ed3c
00000100: 28a8 7c3d 186a 3e3d c228 aebd c686 ba3d
00000110: c089 f43d c4de 0f3d 1004 98bc 2cf5 0f3d
00000120: 3821 4f3d 50c6 c0bd ec30 22bd 8091 1d3c
00000130: c0c6 f6bb 9077 643c 60c8 74bd 40cc a13c
00000140: c0e0 5ebb 3a1c 8b3d 140f c0bd a08f e03d
00000150: ae13 dc3d 3c2c 9abd 3ec8 ee3d 502e fe3c
00000160: 84b1 033d b8d2 9bbd 3ab3 833d ec00 7c3d
00000170: c0f0 783d 7a99 ce3d 1a03 a23d b66c c53d
00000180: 9a96 e33d d6bf ddbd ac55 c13d 5848 ef3d
00000190: b0d4 20bd 26f4 c8bd 141d 603d f00a ee3c
000001a0: 00ca 19bb a480 e53d 12d8 c73d 8853 7e3d
000001b0: 7625 d5bd 8c8f 9cbd 9600 fe3d 96f3 813d
000001c0: 10dc 47bd 28e1 cb3c 58a6 f33d b040 8dbc
000001d0: d89c c03c 626c c8bd 50a0 f4bd 90a9 25bd
000001e0: f6cc 933d a229 cc3d 4064 1fbc 40e0 e3bd
000001f0: 1ca1 e03d 8674 c73d 0a21 a13d aedb f5bd
00000200: ae85 f13d 40a6 19bc b60c cc3d 9883 13bd
00000210: 1ed0 e63d 30e1 e33d 4c0d 263d ea4f a5bd
00000220: 4809 8bbd 20da 78bd a08e aabc b4b5 13bd
00000230: 0091 fcbd 00bd 60bb 62c4 80bd ca66 963d
00000240: 8ce1 7b3d d0d5 e3bc 489f cabc 8078 84bd
00000250: 0017 a83a 8095 43bb 6662 cdbd ccd5 a43d
00000260: f252 903d a0e2 95bb b86d d73d f0ac 38bd
00000270: 9651 bebd 04d2 1e3d 7819 df3c 4088 78bd
00000280: 085d 483d 4cd8 493d ccb0 ffbd 50ff d6bd
00000290: 5cdb 43bd 4693 9fbd 90f8 bbbc 8019 e93b
000002a0: 541d 24bd f0bb 2cbc 3874 f8bc ca86 d93d
000002b0: f04d 44bd 348f 25bd 7ec6 b4bd 8252 c63d
000002c0: ac2e e5bd 800e c6bd 70c0 98bd a84d 623d
000002d0: 88df bb3d bacd bcbd 5005 ea3c c467 abbd
000002e0: c097 563d 00f5 62ba bc79 87bd 7081 e83c
000002f0: d819 073d 46ab e5bd 68de 34bd 1272 f13d
00000300: c097 d13c 78a4 a43c 7c11 fdbd 98a8 ffbd
00000310: 8813 3b3d 3878 d53c aacf d6bd 64b5 0a3d
00000320: acc1 64bd 4ce0 24bd 640b 8d3d 5867 2a3d
00000330: 8c81 a6bd 7274 a33d 1cb6 9dbd 606b c0bc
00000340: 4063 363c 5ee0 a1bd 6c21 95bd 3e3a d83d
00000350: f2ad a23d 4022 ee3b d0b5 6fbd 3cfa 00bd
00000360: b20e e6bd 6492 56bd 1023 333c b00b ef3d
00000370: 90df f4bd 60da a63d 18a1 88bc f846 7cbd
00000380: 029d 813d 9097 d7bd 8078 03bd 78a3 2d3d
00000390: 74b3 84bd b0e6 19bd 0421 73bd c0c9 cd3b
000003a0: eaad d83d 12ea 96bd 7289 c9bd 18f0 fe3c
000003b0: 6071 203c 5e4d fcbd 0689 babd 7050 f53d
000003c0: 389d 51bd 1c12 4f3d 2c91 c73d 5c0a e53d
000003d0: 5896 6fbd d4dc 4abd c066 43bb 5607 c73d
000003e0: 7063 d93c e892 083d 405d a33d 8e1c a0bd
000003f0: 745f a1bd b0ae 103d e065 c63d d022 e13c

bias_ih_l1 f4 [192]
-0.1093895 -0.049906045 0.0008946806 -0.08272022 0.013130084 -0.08617595 0.10371156 0.09124896
0.119498774 0.00561814 -0.091120794 -0.11653793 0.0636148 0.050485298 0.019419298 0.122385755
-0.016076967 0.08750318 0.026491165 0.007302195 -0.035742626 -0.024255723 0.054211512 -0.08300817
-0.05165927 -0.09564689 0.02095516 0.027073115 -0.11147271 -0.05723825 0.09387961 -0.10116008
0.017471135 -0.022024646 -0.08326292 -0.016991273 -0.12359248 0.025412917 0.1020039 -0.01661554
0.09409812 0.10462411 0.10251975 0.08052494 0.092714086 0.07761729 -0.0034175366 -0.08538599
0.06651749 0.067776695 0.039952606 -0.053481996 -0.008054942 0.10397965 -0.019780368 -0.06564705
0.0882671 -0.08516444 -0.06385374 -0.119924545 -0.09226848 -0.08431187 0.019568488 0.111242846
0.055918112 -0.04841143 0.063012436 -0.014359772 -0.05804932 -0.018905282 0.0648734 0.04596491
-0.031793892 0.09972088 0.11250241 0.09056458 0.0441121 0.08454619 -0.04646401 -0.086618915
-0.092746556 0.07260327 0.102540225 -0.09009841 -0.091779456 -0.01343821 -0.07526961 -0.08633524
-0.055361792 -0.011439741 -0.09193879 -0.029490218 -0.10879205 -0.106921494 0.053164482 0.0378384
0.09953365 0.054627642 -0.03620337 0.056008667 0.034065664 -0.1221247 0.05338095 -0.076366514
0.10204558 0.115814134 -0.09290734 -0.09392168 0.05255434 0.064447686 0.05907616 -0.08764276
-0.11663647 -0.05648631 0.07393187 -0.09414153 -0.07721889 0.010552064 0.06885654 -0.027636662
0.03584759 -0.11082238 0.04046823 -0.12142053 0.11037511 -0.096548975 -0.0061785877 -0.010477379
0.1247803 -0.083045006 -0.06370598 -0.08446154 0.07613641 0.080733314 -0.052299365 -0.10572152
0.0733895 0.0908895 0.065952286 -0.038539946 -0.113683894 -0.009394541 0.08892822 -0.022710845
0.10028426 -0.0068352073 0.02992192 -0.08323893 -0.0038463771 -0.10756977 -0.090680644 -0.03505896
0.07246064 -0.025806427 -0.061273307 0.08663249 -0.02516085 -0.111793995 -0.08549425 0.018754363
-0.02188678 -0.027832612 -0.117217734 -0.1045987 -0.10150653 0.07968357 0.038313597 0.07464862
-0.03192717 0.06561126 -0.039744407 0.018144801 -0.036476403 0.007871598 -0.036616355 -0.06922419
0.008345991 0.06157072 -0.033735782 -0.10337296 -0.03244032 0.10125646 0.07638204 0.033106714
-0.013953939 -0.07741207 -0.098849714 0.099018306 -0.06392418 -0.049740896 0.07111281 0.019556955
00000000: 9a07 e0bd 486a 4cbd 0089 6a3a 3869 a9bd
00000010: 901f 573c 047d b0bd ba66 d43d bce0 ba3d
00000020: c6bb f43d 6018 b83b 8a9d babd 70ab eebd
00000030: 7a48 823d acc9 4e3d 3815 9f3c 62a5 fa3d
00000040: d8b3 83bc de34 b33d 0004 d93c 4047 ef3b
00000050: dc66 12bd f0b3 c6bc e40c 5e3d 3000 aabd
00000060: ac98 53bd 84e2 c3bd 28aa ab3c 70c8 dd3c
00000070: ce4b e4bd a872 6abd f443 c03d 042d cfbd
00000080: a01f 8f3c 086d b4bc c085 aabd 4831 8bbc
00000090: 0e1e fdbd c02e d03c 6ce7 d03d 501d 88bc
000000a0: 84b6 c03d 2a45 d63d e0f5 d13d 42ea a43d
000000b0: e2e0 bd3d d0f5 9e3d c0f8 5fbb dade aebd
000000c0: 523a 883d 82ce 8a3d 58a5 233d f00f 5bbd
000000d0: e0f8 03bc 48f3 d43d 700a a2bc f671 86bd
000000e0: 62c5 b43d b26a aebd c0c5 82bd 009b f5bd
000000f0: 42f7 bcbd b4ab acbd 184e a03c 4ad3 e33d
00000100: 640a 653d 104b 46bd aa0c 813d 4045 6bbc
00000110: 20c5 6dbd 40df 9abc 58dc 843d b445 3c3d
00000120: 503a 02bd 763a cc3d aa67 e63d ec79 b93d
00000130: e4ae 343d 8e26 ad3d 0c51 3ebd 4265 b1bd
00000140: e8f1 bdbd 06b1 943d 9c00 d23d 8485 b8bd
00000150: def6 bbbd f02b 5cbc f426 9abd 88d0 b0bd
00000160: 0cc3 62bd c06d 3bbc 684a bcbd 7895 f1bc
00000170: 5ece debd a8f9 dabd 00c3 593d 70fc 1a3d
00000180: 4cd8 cb3d 3cc1 5f3d fc49 14bd 5869 653d
00000190: 7088 0b3d 841c fabd fca5 5a3d 0c66 9cbd
000001a0: 46fd d03d f62f ed3d 3446 bebd 025a c0bd
000001b0: 3843 573d 26fd 833d d8f9 713d 0c7e b3bd
000001c0: 1adf eebd 305e 67bd 9869 973d 46cd c0bd
000001d0: f024 9ebd 90e2 2c3c a804 8d3d 4866 e2bc
000001e0: ecd4 123d d8f6 e2bd 04c2 253d 54ab f8bd
000001f0: 580c e23d 78bb c5bd c075 cabb 50a9 2bbc
00000200: d08c ff3d 8013 aabd 4878 82bd 2cfa acbd
00000210: 68ed 9b3d 8257 a53d dc37 56bd 8684 d8bd
00000220: 3c4d 963d 4624 ba3d fe11 873d 10dc 1dbd
00000230: 1ad3 e8bd 90eb 19bc 0020 b63d 180c babc
00000240: d661 cd3d e0f9 dfbb d01e f53c 2c79 aabd
00000250: 8013 7cbb 8a4d dcbd c6b6 b9bd fc99 0fbd
00000260: 3e66 943d 0068 d3bc b8f9 7abd 606c b13d
00000270: 201e cebc 40f4 e4bd 9c17 afbd c0a2 993c
00000280: e84b b3bc 3801 e4bc da0f f0bd d837 d6bd
00000290: a8e2 cfbd 2431 a33d b8ee 1c3d 60e1 983d
000002a0: 10c6 02bd 325f 863d 08cb 22bd 68a4 943c
000002b0: 4868 15bd e0f7 003c 08fb 15bd 6ac5 8dbd
000002c0: a0bd 083c 9431 7c3d 882e 0abd 34b5 d3bd
000002d0: 24e0 04bd 8c5f cf3d 306e 9c3d e89a 073d
000002e0: 109f 64bc 388a 9ebd b871 cabd 1cca ca3d
000002f0: aeea 82bd 1cbd 4bbd 98a3 913d e835 a03c

bias_hh_l1 f4 [192]
-0.10439192 0.06202446 -0.11744717 0.014979348 -0.06297962 0.12491205 0.0671092 -0.032635763
-0.0597706 -0.109674275 0.12136914 0.007023126 -0.057913885 -0.09623951 0.10394059 -0.07843277
-0.11113031 0.020456284 0.03731166 0.10515705 -0.102511734 -0.10946907 0.025645405 -0.11353631
-0.001876384 -0.0827001 0.100222856 0.10840963 -0.09770039 0.09026134 0.114468575 0.11574881
0.016680717 -0.07782857 -0.09606226 0.07572149 0.11688164 0.022722527 -0.09778328 0.04220666
-0.03728211 -0.07854843 -0.05742903 -0.019945577 0.03997402 -0.09542735 -0.09301071 0.028102353
0.097905725 -0.12063466 -0.04503545 0.08096102 0.02467294 -0.02550292 0.06320299 0.10209745
0.07561481 -0.011242524 0.04882443 0.06075509 0.033112824 -0.03215821 -0.045560703 -0.06581427
0.063357815 0.083638564 -0.0020303875 0.078321904 0.10200183 0.11182882 -0.0813109 -0.08868986
-0.048352852 -0.08259681 -0.07258046 -0.122329935 0.08099876 -0.014184475 -0.102022424 0.021222308
0.06234008 -0.073896915 0.07161479 0.07248153 0.111671 0.03875847 -0.07392612 -0.041331097
0.054392666 0.050465032 -0.08876264 0.08001207 -0.071240306 -0.093332425 0.04251632 0.046741456
-0.08998218 0.10113457 -0.022502422 0.07867427 -0.058232665 -0.043557048 -0.017173886 -0.066926956
-0.030867964 -0.03536658 -0.09292047 0.08197987 -0.05715573 -0.034170866 -0.091281295 0.0025814325
0.032685757 -0.056512177 -0.01997213 0.07857011 -0.00975576 0.05272281 -0.09087314 0.06517847
-0.09229067 0.032031626 -0.108290136 0.060853764 -0.12364559 0.09601706 -0.10144058 -0.11427219
-0.024110943 -0.07200444 0.111542046 -0.12252498 0.034370095 -0.11583009 -0.091318324 -0.07484749
-0.08260238 0.061533198 0.07907756 -0.120851815 0.122638285 -0.07236478 -0.08760846 -0.07353528
-0.11966416 -0.098469615 -0.07120922 -0.08508672 -0.010053739 -0.03987053 0.021617353 0.012212798
0.037970483 0.03978038 0.05058983 0.058951482 0.028828606 -0.09487587 -0.100926355 -0.011413202
-0.04493481 0.05380644 0.07239005 0.119030684 0.060332596 0.056305498 -0.009742796 -0.031190008
0.0448768 0.011738464 0.012513876 0.041900203 -0.09873994 0.06899141 -0.002376929 -0.048608735
0.02002281 -0.041966587 -0.007815585 0.044837534 -0.01218529 -0.0879993 -0.017588183 -0.05882366
-0.05381772 0.1166852 0.109700546 0.062202036 0.073272616 0.016196072 -0.009853616 -0.017123535
00000000: 6ecb d5bd 5c0d 7e3d 2488 f0bd f06b 753c
00000010: 76fb 80bd e4d1 ff3d 8c70 893d 14ad 05bd
00000020: 04d2 74bd e89c e0bd 6290 f83d 4022 e63b
00000030: 1c37 6dbd 3819 c5bd cede d43d 5ca1 a0bd
00000040: 4a98 e3bd f093 a73c 1cd4 183d 945c d73d
00000050: acf1 d1bd 5231 e0bd 5016 d23c ba85 e8bd
00000060: 00f1 f5ba ac5e a9bd a441 cd3d de05 de3d
00000070: 2417 c8bd f0da b83d 806e ea3d b60d ed3d
00000080: 00a6 883c 9664 9fbd 4abc c4bd de13 9b3d
00000090: a45f ef3d 9824 ba3c 9a42 c8bd e4e0 2c3d
000000a0: 20b5 18bd 00de a0bd b43a 6bbd e864 a3bc
000000b0: ccbb 233d 6a6f c3bd 667c bebd e836 e63c
000000c0: cc82 c83d 4e0f f7bd 1877 38bd e4ce a53d
000000d0: e81e ca3c 80eb d0bc 9270 813d 7818 d13d
000000e0: f0db 9a3d 9032 38bc 20fc 473d 54da 783d
000000f0: 50a1 073d 54b8 03bd dc9d 3abd a2c9 86bd
00000100: bec1 813d b24a ab3d 4010 05bb 3c67 a03d
00000110: 56e6 d03d 8206 e53d 5486 a6bd 08a3 b5bd
00000120: a40d 46bd 8428 a9bd 10a5 94bd 1e88 fabd
00000130: aee2 a53d 0066 68bc 22f1 d0bd 68da ad3c
00000140: 5058 7f3d 4457 97bd c6aa 923d 3271 943d
00000150: c4b3 e43d 34c1 1e3d 9466 97bd cc4a 29bd
00000160: d8ca 5e3d 6cb4 4e3d 30c9 b5bd 5edd a33d
00000170: 70e6 91bd 1225 bfbd 9825 2e3d f873 3f3d
00000180: 9448 b8bd a41f cf3d 0057 b8bc fa1f a13d
00000190: 6085 6ebd e068 32bd 40b0 8cbc 0011 89bd
000001a0: d0de fcbc 8cdc 10bd 164d bebd 10e5 a73d
000001b0: 201c 6abd c0f6 0bbd b0f1 babd 402d 293b
000001c0: 80e1 053d 5079 67bd 989c a3bc 5ee9 a03d
000001d0: a0d6 1fbc e0f3 573d b21b babd 4a7c 853d
000001e0: e402 bdbd 9833 033d 38c7 ddbd cc41 793d
000001f0: e639 fdbd 98a4 c43d 14c0 cfbd 8a07 eabd
00000200: 5084 c5bc 1077 93bd 2870 e43d 60ee fabd
00000210: a8c7 0c3d 5438 edbd 1a05 bbbd a449 99bd
00000220: 702b a9bd 3c0a 7c3d 6af3 a13d 2881 f7bd
00000230: c829 fb3d fc33 94bd 106c b3bd aa99 96bd
00000240: 7c12 f5bd 70aa c9bd 24d6 91bd f241 aebd
00000250: 70b8 24bc 484f 23bd e016 b13c 3018 483c
00000260: f086 1b3d c0f0 223d 4837 4f3d 1c77 713d
00000270: f829 ec3c 484e c2bd 7ab2 cebd 70fe 3abc
00000280: 900d 38bd 2464 5c3d 3c41 943d 5cc6 f33d
00000290: 501f 773d 98a0 663d 40a0 1fbc 3082 ffbc
000002a0: bcd0 373d b052 403c 0007 4d3c 8c9f 2b3d
000002b0: 2a38 cabd 5e4b 8d3d 40c6 1bbb f419 47bd
000002c0: e006 a43c 28e5 2bbd f00c 00bc 90a7 373d
000002d0: d0a4 47bc fa38 b4bd 1815 90bc 14f1 70bd
000002e0: f86f 5cbd a6f8 ee3d aeaa e03d 90c7 7e3d
000002f0: f40f 963d a0ad 843c 1071 21bc a846 8cbc
