Python_Agent_Hub/ml_pipeline/models/direction_model.onnx (onnx, 170096 bytes, 10 tensors)

fc1.bias f4 [32]
00000000: 5813 413d a66a 203d 5c00 d3bc 4dba 133e
00000010: 6598 9dbd 419b 0f3e 1db5 8ebd da68 773d
00000020: 6d2b 763c 7f22 ccbd c414 febd 581f 403d
00000030: f0b0 593d e011 0d3e a4e6 b6bc 7ddc 05bd
00000040: 9b94 e03d f6e9 c7bd 6c83 77bd 7935 cb3d
00000050: cc9e 34bd f299 f43c 9cb8 1d3d 6f87 eabc
00000060: e41c babc 8ec8 883d 2c0d 163e d739 e4bd
00000070: 04d2 a43c f9fb 293b e045 f9bd e598 01be
0.04713759 0.039164208 -0.025757007 0.14426537 -0.076950826 0.14024068 -0.06968138 0.06040273
0.015025002 -0.09967517 -0.124063045 0.04690489 0.053147256 0.1377635 -0.022326775 -0.032680977
0.10965844 -0.097614214 -0.060428068 0.099223085 -0.044096753 0.029858563 0.038506135 -0.028629033
-0.022718854 0.06678878 0.14653462 -0.111438446 0.020119675 0.002593754 -0.12171531 -0.12655981

fc1.weight f4 [32, 64]
00000000: ee22 f1bc ac5a f83c b9ac 44bc 4fed 013d
00000010: 5c36 0ebc 7d9f 50bb d5e3 61bd 97d3 13bd
00000020: bcba 4d3c 0598 1cbd 4e8d 89bc 26f9 aa3d
00000030: 8e2b 3bbd c1dc f0bd 8be2 9ebc 2a16 82bc
00000040: 6464 af3c 1e45 ffbc 3571 113d 54d2 813d
00000050: d578 dabd cf7c c8bc b98a 8cbd f8bf 16bc
00000060: bfca 81bd 79b4 a1b8 1a30 c2bd e93a cfbd
00000070: 9f08 24bd 579e bfbd 3205 183d 3675 b0bd
00000080: d93a b9bc c7c7 0ebb 956e 27bd 38af cebd
00000090: 7374 1abd 0c2f cfbd d335 5cbd 1556 50bd
000000a0: e837 ce3c 6039 c8bd 255e 5dbd daed 64bd
000000b0: 2a3d ebbd 4ba7 5d3d 8217 b33b fe38 a8bd
000000c0: 6e1e d73c b294 fc3d b6f2 0f3d a351 a5bd
000000d0: 938c 9b3c 9674 88bd 5098 cabd abb9 a7bd
000000e0: 530b 80bd 6ec2 a93d f06b 923c c29e 8e3b
000000f0: dc17 833c 2192 0cbd d71d 2bbd 1236 663d
00000100: c478 f13c bdd8 323c acde f8bd bc2e 01be
00000110: 9cab 21bd a8c0 183e 28c4 e9bd afd5 23be
00000120: 62c5 7ebc 0b11 533c 0b50 72bd dc7b acbd
00000130: 2602 23be 562f 31bc 457d 98bc f423 0e3e
00000140: ae4a 10be 39a7 b6bd 13a3 d4bc f20f ddbd
00000150: bd88 ce3d babc c2bd 05a6 173e 7dec f53d
00000160: 8bc5 66bd 6340 3abd dfc6 4bbd 8d8b c53d
00000170: 93dc 003d 945f 163d baf1 683c 329b 7bbd
00000180: 5c1e 653d 994d c2bc 6058 a13d 57fe 743c
00000190: 3f41 e2bb 2df5 8a3c 925b 06bc b2a9 d0bc
000001a0: 41c6 9b3d d032 0a3d 2199 313d 22ae 99bd
000001b0: df49 2dba 2033 b93d 924a d73c db99 4ebe
000001c0: 1c63 0dbe 68fa 47bd cc20 1abe 95a1 39be
000001d0: fb55 ee3d ee9b a23d 4b51 073c 0013 b93d
000001e0: 078e 1fbe 069c 853d 2dbb b63d 9e54 ae3d
000001f0: 9117 59bd 0a16 943b 91d9 9c3d 4307 bbbd
00000200: 4811 a73d 7c92 88bd 0d21 823d e146 e1bd
00000210: 518c 213c 08b1 d13d c1f8 e9bd 5612 f43d
00000220: 8662 fe3c 5456 b03d dcad b83d 38ac 553d
00000230: d2db ecbd 6209 9ebd efe9 a6bc 8ca1 bbbc
00000240: 2408 d83d 5671 d3bd 1222 e43d 4660 ebbd
00000250: 43fb 6f3c b36f d83d 5d3e 1cbd 36b3 4ebd
00000260: 0a3e e4bc 281b a5bd 1e7b 983c f3c5 cbbd
00000270: 0c4b 943d 70f8 6e3d ab32 b2bd b491 f53d
00000280: df7d a43d 6eba 84bd e990 b4bd 409f df3d
00000290: 4e43 10bb b70e dd3c 488f 62bd 6d5b e0bd
000002a0: 7595 a2bb d599 6d3b 0cb4 1fbd 7d7d 22bc
000002b0: 3e31 6abd adc5 183d 0204 e23c ba70 3ebd
000002c0: c064 cb3d baac e23d beff 0c3d 15e0 a23a
000002d0: 609c e4bb cfde 413c 7530 af3b 66ce 06bd
000002e0: 5e8a 00bd 9853 f4ba 230b a6bd 768b 6dbd
000002f0: 9f5a 30bb a2e9 5fbb c551 3c3d 9da1 cebb
00000300: 54ab 1d3d 8046 8a3c a9a7 88bd 164c d2bc
00000310: d5fc 8dbc 1d1d de3d 2fac 29be 86ac aebd
00000320: f05f 64bc 05e5 0a3c db69 9f3c 1d6c 8cbd
00000330: a89b 10be 67db 5f3d e629 fc3c 3186 683e
00000340: 015b 1ebe 6a38 dabd 4ea9 f23d 70cc 92bd
00000350: 4b8e 4c3d 1179 adbd 3932 c13c fb04 c13d
00000360: 2532 4bbe 84cc 1e3d b518 493d 53ff 983c
00000370: 284a 373e 5711 b63d f968 ce3a 8098 a5ba
00000380: 3472 b7bd 5e30 b33c 3c63 423d d5dc 7b3c
00000390: 8abb e33c 1c3d 93bc 5b55 353e 09d4 12be
000003a0: a2fa 453a 3511 4bbd d869 23be bbc6 2bbd
000003b0: adb2 9fbb f475 133e efc0 19bd 5ad3 953c
000003c0: da64 9cbd 337f 973d 7794 23be 7229 973b
000003d0: f3fd 133d 66e5 bcbd dc9e bcbd 8b85 003d
000003e0: 7c32 833d f928 35bb 71ef 333e e479 d93b
000003f0: 9761 fc3c 36e8 adbd 86a9 243e a123 1bbd
-0.029435601 0.030316673 -0.012004071 0.031720456 -0.0086799525 -0.0031833344 -0.05514892 -0.03609046
0.012556728 -0.038230915 -0.016791012 0.083483025 -0.045695834 -0.117608555 -0.019395133 -0.01587971
0.021410175 -0.031160887 0.035508353 0.06338945 -0.10667578 -0.024473576 -0.06862397 -0.009201042
-0.06337499 -7.710694e-05 -0.09481831 -0.10118658 -0.040047284 -0.09356373 0.03711433 -0.08616106
-0.022611069 -0.0021786557 -0.040876944 -0.10092014 -0.03770871 -0.10116395 -0.05376227 -0.050863344
0.025173143 -0.097765684 -0.05404486 -0.055890895 -0.114862755 0.05411462 0.005465449 -0.082139954
0.026259627 0.12333049 0.035143577 -0.080722116 0.01898793 -0.06662862 -0.098923326 -0.0818971
-0.0625216 0.08289038 0.017873734 0.0043524215 0.016002588 -0.034319047 -0.041776504 0.05620391
0.02947653 0.010915932 -0.12151846 -0.12615484 -0.0394703 0.14917243 -0.11414367 -0.15999483
-0.015549989 0.012882481 -0.059158366 -0.08422062 -0.15918788 -0.010814508 -0.01861442 0.13880903
-0.14090988 -0.08918614 -0.025956666 -0.10794057 0.100846745 -0.09508653 0.14809425 0.12007997
-0.056340735 -0.04547156 -0.049750205 0.09645758 0.031460356 0.036712244 0.014217788 -0.061427303
0.055937156 -0.023718642 0.07878184 0.0149532175 -0.0069047506 0.016962612 -0.008200543 -0.025471542
0.07606173 0.033739865 0.043358926 -0.07503916 -0.0006610434 0.090429544 0.026280675 -0.20175879
-0.13807338 -0.04882279 -0.15051574 -0.18128045 0.11637493 0.079398975 0.008259128 0.09036827
-0.15581523 0.065239 0.0892242 0.08512233 -0.05300099 0.004519229 0.07658685 -0.091322444
0.08157593 -0.06668565 0.0635396 -0.10999847 0.009860114 0.10238844 -0.11424399 0.1191756
0.031052839 0.08610216 0.09017536 0.052166194 -0.11565365 -0.077166334 -0.02037522 -0.02290418
0.10548428 -0.103243515 0.11139311 -0.11492972 0.014647308 0.1056818 -0.03814541 -0.050463878
-0.027861614 -0.0806182 0.018613394 -0.09949865 0.072408766 0.058342397 -0.087010704 0.11990681
0.080318205 -0.06480871 -0.08816702 0.109190464 -0.0022012773 0.026984556 -0.055312425 -0.10954938
-0.0049616643 0.003625502 -0.038990065 -0.009917614 -0.057175867 0.037297893 0.027589802 -0.046494223
0.09931326 0.11068101 0.034423582 0.0012426401 -0.006976649 0.011832907 0.0053463527 -0.03291168
-0.031381957 -0.0018640636 -0.08107593 -0.05799433 -0.0026909483 -0.0034166356 0.04597642 -0.006305887
0.03849347 0.01687932 -0.06672604 -0.025671046 -0.017332474 0.10845397 -0.16569589 -0.08529
-0.013938889 0.008477454 0.019459656 -0.068565585 -0.14121878 0.054652598 0.030781697 0.2270744
-0.15464403 -0.106552914 0.118486986 -0.071678996 0.04994039 -0.08470357 0.023583518 0.09424778
-0.19843347 0.03876926 0.049095828 0.018676436 0.17899382 0.08890026 0.0015747837 -0.001263395
-0.089573294 0.02187365 0.04745792 0.015372475 0.027799387 -0.017973475 0.17708342 -0.14338697
0.0007552301 -0.049576957 -0.15958345 -0.04193757 -0.0048735947 0.14400464 -0.03753751 0.018289257
-0.076364234 0.07397308 -0.15974604 0.004613095 0.036130857 -0.09223442 -0.092099875 0.031377356
0.064061135 -0.002764283 0.17571808 0.006636845 0.030808253 -0.08491556 0.16080293 -0.037875775

fc2.bias f4 [2]
00000000: 7bf7 b7bd 33b6 273d
-0.0898275 0.040945243

fc2.weight f4 [2, 32]
00000000: d289 18bd 4fc6 1a3e 5a5e 2fbe 29ef db3c
00000010: bdc1 2e3e db5c 0e3e e347 2ebe 4abf 0ebe
00000020: a35f 1bbb 80fd a33d 0a31 fa3d 18f5 ca3d
00000030: f7b5 e5bd db20 ba3d e10f 383e 87f5 ed3d
00000040: 23b2 20be fbf4 453d a1be 803d d62a 26be
00000050: 9509 133e 9444 483e 3e6e 7ebd d1aa 803c
00000060: e6c3 f63d b931 5e3e 84c7 e63d 003c 9cbd
00000070: 04d0 5d3e 9c3d 4f3e c9d3 85bd 13d1 b2bc
00000080: dfc7 b2bc 00fc 60be e6d8 ed3d 340d 08be
00000090: 9140 28bc fd5f 97bc 868d a6bc 3e30 a0bd
000000a0: 18f0 d73d 2bf4 debd 0ac5 d83d 98cd 293c
000000b0: f597 973d df6b 45be ee94 56be 806f 06be
000000c0: 18c3 113e d335 eb3d bfd0 49bb 133f 303d
000000d0: 997e 18be 5054 6dbd 185a 9c3d ed42 df3d
000000e0: 1477 a63c f66b 90bd ca07 fbbd 1bc5 c3bc
000000f0: 1b10 8dbd fdf6 f9bc dacf 933d 8906 23bc
-0.03724081 0.15114711 -0.17125836 0.026847439 0.17066093 0.13902609 -0.1701961 -0.13940158
-0.0023708127 0.08007336 0.12216385 0.09910029 -0.11216348 0.09088298 0.17974807 0.11619096
-0.15692954 0.048329335 0.062863596 -0.16227278 0.14359124 0.1955741 -0.062116854 0.015706452
0.120490834 0.21698655 0.11268523 -0.076286316 0.21661383 0.20238346 -0.065345354 -0.02182821
-0.021823822 -0.2197113 0.11613636 -0.13286287 -0.0102693 -0.018478388 -0.020331156 -0.078217015
0.10543841 -0.10886415 0.10584457 0.010363959 0.074020304 -0.19279431 -0.2095525 -0.13128471
0.14234579 0.114848755 -0.0030794588 0.043028902 -0.14892043 -0.057941735 0.076343715 0.10901437
0.020320453 -0.07051842 -0.12257345 -0.023897698 -0.068878375 -0.030513281 0.07217379 -0.009950289

onnx::GRU_196 f4 [1, 192, 9]
00000000: ecac 7cbd 6487 553d b8ee 59bd c8d9 a8bc
00000010: 009d 13bd 5ce9 d3bd c09f c43b 2c79 713d
00000020: b024 8d3d c004 4fbc 70f8 38bc 9c91 273d
00000030: 867c c93d aa54 f1bd d4bc 2dbd 1cf2 643d
00000040: a492 363d ba77 bf3d 2603 adbd 4675 bebd
00000050: 2074 e3bd a8b9 f43d 8824 9e3d 70c5 77bc
00000060: c8dd 293d 9057 a53d 2cf8 453d 06d0 e7bd
00000070: 9ac1 c7bd 545f b13d 60d7 30bd 9443 de3d
00000080: 00b6 afba 22bf b6bd d00b 81bd 8eec ca3d
00000090: 80dc 8b3a 6c4d 763d 805b 42bc b0be 6fbc
000000a0: 06cd babd c408 8abd c8d5 f3bd b0a5 8cbc
000000b0: 68df 89bd d01f c23d 4c32 643d 0a2c ac3d
000000c0: 44ed 05bd 7000 e6bd e0d5 7a3c 40cd a63c
000000d0: a043 053d 94d6 bc3d bc38 2ebd 044e c2bd
000000e0: e096 a83d 605a 1fbc 9006 73bc 027d b8bd
000000f0: f0c6 90bd 80cb 9bbd ec15 9ebd 36dc e9bd
00000100: 34e8 493d f0e1 71bc 72a4 f73d 4099 f5bb
00000110: 90af c53c aab7 ce3d d0ed abbd 80f6 f13b
00000120: a0a5 c2bb 0c22 93bd 187d 733d b02c 9e3c
00000130: d0c6 8bbd f082 ff3d c894 d53c 7845 683d
00000140: d429 113d e494 c8bd daef ad3d 3286 a4bd
00000150: 8e7b 8dbd 50c5 45bd fc79 363d c893 4fbd
00000160: f03f 95bd f00e d03c 341d babd 50d5 a2bc
00000170: 88e7 3e3d 7e9d a5bd ec8d 2cbd e818 5c3d
00000180: 1419 943d 8adc a7bd 223d bbbd 9078 11bd
00000190: 7032 983c 2081 f1bd e041 a4bb 6455 f73d
000001a0: ec0c 583d 7ecc 883d f28d 953d 3c1b 66bd
000001b0: 6cf7 623d 0817 a33c 106b 72bc 9e75 973d
000001c0: 6e64 b73d c8fd 68bd e412 6ebd 4672 82bd
000001d0: 2050 6a3d 207c 983d f807 cb3c 4224 89bd
000001e0: 3e3e a2bd e881 95bc 584e 7ebd 2ccb a7bd
000001f0: 020a c9bd 2888 fb3d 8004 d93c 3089 3bbc
00000200: 2616 ac3d 4e4c ddbd b28d d93d 9474 083d
00000210: 4025 08bd 9065 453d 4a10 88bd 344a 4fbd
00000220: 30c9 4c3d 123f af3d 604f 133d c491 22bd
00000230: ea4a b23d 80b0 dcbc 30e9 34bd 5cdf afbd
00000240: a035 a43d 0834 b6bd 04af b63d 24c1 d83d
00000250: 6087 843c ee37 df3d ac66 4dbd 7019 423d
00000260: e0bf 67bc dc36 05bd 08f7 db3d 76c8 e83d
00000270: 9eb9 8fbd 90b1 b8bd 00f9 59bd ea36 e13d
00000280: 6ea5 a7bd e6af d1bd 2055 dfbd 4e01 c13d
00000290: faee 953d b0a9 dc3c 60e7 233d e465 c3bd
000002a0: b686 ea3d 1630 fa3d 8816 273d 2240 d93d
000002b0: 1077 8f3d 560f a23d e449 fd3d 3658 cabd
000002c0: f069 68bd e875 adbc 5c2e 79bd ac7f c5bd
000002d0: 68bc 65bd 1cf8 073d 361c bc3d bcab 173d
000002e0: 70c5 963d 30ae 6abc 740f cabd bc25 86bd
000002f0: 4e39 b43d 48bc f1bc 74ba 65bd 7616 cd3d
00000300: 0c4b 41bd a823 ae3c e00b 3e3c 60b4 f83b
00000310: 2636 c4bd fc58 c53d c85a 533d 9ac9 9f3d
00000320: 10e2 b8bd c00e 703d 5086 d23d 88f0 243d
00000330: 20a3 c2bb 9429 b7bd e8f8 693d a035 5dbc
00000340: 5447 f5bd 7839 d7bd 0852 c63c c06f e43d
00000350: 3cf4 7bbd c2d2 cabd c8c7 063d 7035 8fbd
00000360: 9a86 94bd e83f 74bd a296 f9bd 68a9 c23d
00000370: 766c e8bd 461f c2bd c0cc bc3d 30a8 3e3c
00000380: f847 a3bd 00eb 0ebc e26f a43d fe5c a23d
00000390: b8de ca3c 8023 72bb 2a01 ec3d 0026 f2bd
000003a0: 8cc4 153d 84c6 bbbd a0f5 59bd 6002 edbb
000003b0: e03a eb3b a0b8 57bc 40db 18bc d419 3d3d
000003c0: a043 853b 301f dbbc e808 4d3d 4ed4 c53d
000003d0: dc65 693d 1426 5ebd bc2d 103d 6007 723d
000003e0: 10e8 4a3d 4032 523b 10e8 623c 4058 9cbc
000003f0: 20d8 d43c 8627 cd3d 402b 793b ec7e aa3d
-0.06168835 0.05213107 -0.053206176 -0.020611659 -0.0360384 -0.10347244 0.006000489 0.05895345
0.06891763 -0.01263541 -0.011289701 0.04091035 0.09838204 -0.117837265 -0.04241641 0.055894956
0.04457344 0.09349008 -0.08447866 -0.09299712 -0.111061335 0.119494736 0.077218115 -0.015122756
0.041471273 0.08073342 0.04833238 -0.11318974 -0.097537234 0.086607605 -0.043174148 0.10852733
-0.0013405681 -0.089231744 -0.06301081 0.099084005 0.0010670573 0.06013243 -0.011862636 -0.014632866
-0.09121136 -0.06739953 -0.1190601 -0.01716885 -0.067320645 0.09478724 0.05571203 0.08406837
-0.032696977 -0.11230552 0.015309781 0.020361543 0.032535195 0.09220615 -0.042534575 -0.094875365
0.08231902 -0.009726137 -0.014833108 -0.09008218 -0.07069194 -0.07607174 -0.07719025 -0.11418955
0.04929371 -0.01476334 0.12091912 -0.0074950755 0.024131566 0.10093625 -0.083949685 0.0073841214
-0.005940154 -0.07184228 0.05944547 0.019308418 -0.0682503 0.12476146 0.026071921 0.056706876
0.03544028 -0.09794024 0.08493014 -0.08033408 -0.06908332 -0.048283875 0.044549927 -0.050678045
-0.07287586 0.025397748 -0.09087601 -0.019877106 0.046607524 -0.0808668 -0.042127535 0.05373469
0.07231346 -0.08196361 -0.091425195 -0.035515368 0.018578738 -0.11792207 -0.0050127357 0.12076834
0.0527467 0.06679629 0.073024645 -0.056178316 0.05541174 0.019908443 -0.0147960335 0.073954806
0.08954702 -0.05688265 -0.058123484 -0.06369452 0.05720532 0.0744555 0.024784073 -0.06696369
-0.07922028 -0.01825042 -0.062086433 -0.08193049 -0.09816362 0.12281829 0.026491404 -0.011446282
0.08402662 -0.108055696 0.10622729 0.033314303 -0.03323865 0.04819256 -0.06643732 -0.050607875
0.049996555 0.085569516 0.03596437 -0.039689794 0.08705695 -0.02693963 -0.044167697 -0.08587524
0.08018041 -0.08896643 0.089201 0.10583714 0.016177833 0.108993396 -0.050146744 0.04738754
-0.014144868 -0.03252302 0.10740477 0.1136636 -0.070178255 -0.09018242 -0.05321598 0.10996802
-0.0818585 -0.10238628 -0.10904908 0.09424077 0.07320972 0.026936382 0.04001558 -0.095409185
0.11451475 0.12216203 0.04079297 0.106079355 0.07005131 0.07913081 0.12367609 -0.09880106
-0.056741655 -0.021174386 -0.060835227 -0.09643492 -0.05608788 0.0331956 0.09185068 0.037029013
0.07361877 -0.014323756 -0.09866229 -0.06550166 0.087999925 -0.029508725 -0.05608602 0.1001405
-0.04719071 0.021257237 0.011599511 0.0075898618 -0.095806405 0.09636113 0.051600248 0.07802124
-0.09027493 0.058607817 0.10279524 0.04026845 -0.005939856 -0.08943477 0.05712214 -0.013501555
-0.119764954 -0.10509008 0.024209037 0.11154127 -0.061512217 -0.0990348 0.03290537 -0.06992614
-0.07252236 -0.05963126 -0.12186934 0.09504968 -0.11348812 -0.09478621 0.092187405 0.011636779
-0.07972711 -0.008723021 0.080291525 0.07927893 0.024764404 -0.003694743 0.115236595 -0.11823654
0.036564395 -0.09168723 -0.053212762 -0.007232949 0.0071786493 -0.013166577 -0.009329617 0.04616721
0.0040668994 -0.02674827 0.05005732 0.096596345 0.056981906 -0.054235533 0.035199866 0.059089065
0.04953772 0.0032073408 0.013849273 -0.01908505 0.025981963 0.10017304 0.0038020164 0.0832499

onnx::GRU_197 f4 [1, 192, 64]
00000000: d43d 283d ea83 813d 62e2 f5bd dcea 4cbd
00000010: 723c c13d fa13 e23d 68e0 513d 0c02 a63d
00000020: f82b d73c 7abb a8bd 7473 42bd 30a8 7b3d
00000030: a8d1 c43c 208c c33b 1a3a f8bd 0c68 34bd
00000040: f8f7 6b3d 3e5a a83d c0ad 05bd 0062 dcbc
00000050: c43c a3bd 6069 e3bd 3477 603d aeb1 993d
00000060: ca85 9dbd 0025 1aba a81f 7cbd 2ae9 f63d
00000070: 4084 323d ce95 d53d 865a d83d 7843 cabc
00000080: 447b 833d a242 be3d d07f a5bc 1456 40bd
00000090: 1463 79bd 2851 cbbc d020 e6bd 6e44 e73d
000000a0: b06f 2b3c 4488 d53d c884 abbd 80c1 d8ba
000000b0: 16b4 c9bd 905a 41bd 80c6 fe3d 707b fabc
000000c0: 98a8 a43d 1458 6ebd 7c34 1c3d 98a2 c33d
000000d0: 3816 acbc 1ca8 c13d 1eb9 e0bd 2692 963d
000000e0: 4c34 973d e2cf c83d b611 e4bd 08d2 1fbd
000000f0: b013 e6bd 6a16 a13d 8833 debc d241 ac3d
00000100: b2a0 db3d e058 a6bb e0ed e2bb 0ce8 d7bd
00000110: a61e 943d e0c1 17bc 009d a03b 6ac8 df3d
00000120: c8d4 233d e085 1f3c 548d 78bd d071 d5bd
00000130: 2c0d 303d e830 173d 0086 40ba 566b dabd
00000140: 1054 ed3d a0d5 aabd 824b d2bd 842c 913d
00000150: a6a6 983d 0c5b 23bd 30eb d13d 08d1 29bd
00000160: 9a83 8cbd b44c dfbd e2e2 83bd d03e a9bc
00000170: f886 40bd 186c b7bd 6057 ac3c 7e69 b33d
00000180: c0da a0bb e0c8 dc3d 4862 a13d 4051 65bc
00000190: a050 723c 98da cfbd a0ef 22bd f8cb 4dbd
000001a0: 5e99 8cbd 3854 1a3d e0e5 a3bc acf7 61bd
000001b0: f092 9abd 0a34 b8bd 8852 a93c 22b7 9bbd
000001c0: 6007 64bc 2c8a a5bd a895 19bd 0892 cfbd
000001d0: 6033 b6bb b436 b73d fa12 d93d d0ff 6abc
000001e0: c8e0 42bd a404 99bd 2859 2dbd 8090 a93c
000001f0: 04a0 213d a0bf 0dbd 00ba 0abd c01f 553b
00000200: f883 b5bd 9082 a1bc 945c 16bd c424 2a3d
00000210: 3ccc 473d e094 273d e0a2 213c 60ec eabd
00000220: 248a 10bd 80cb fcbc 104e 20bd c6d3 c13d
00000230: 4267 e83d 4064 473b 5840 a83c dcb5 fc3d
00000240: f42e cc3d 606a 25bc 60b2 acbb 04cc cabd
00000250: 4883 97bc 9040 bf3c 224c 91bd 1079 f03d
00000260: e86e 53bd 3a96 993d 0424 473d bc01 f5bd
00000270: b0a2 b2bc 0429 b7bd 64b2 bfbd 0838 923c
00000280: 1495 c23d 46b5 eb3d 24f6 e4bd 02d9 dabd
00000290: 00c9 823b 5eae d43d 807c e93c fc19 e03d
000002a0: 32c5 a2bd f8af bf3d 7aca bd3d b09e a6bc
000002b0: 92a8 c03d 78be aabd 1269 e4bd 4029 e53b
000002c0: e8f1 6d3d 101a da3c 00a5 e13a 60e4 e63b
000002d0: 687d ccbc fcd6 663d a802 e23d a036 2d3c
000002e0: a6cf c13d 50f9 69bd 009c 523a 009d 223c
000002f0: d834 f63c 507a 33bd 82c6 993d 86b3 dbbd
00000300: 9af3 b83d 8016 8c3a 8023 d33d 9860 b03c
00000310: 7453 963d fc0e 5f3d d08c 12bc fcac 483d
00000320: d2f6 a1bd 8a73 ba3d 38b0 c33c 4aa2 843d
00000330: 54c1 2abd 2454 3b3d 0851 c5bc 303c f73c
00000340: 9c51 78bd 804e 22bb 76e3 f33d 9c76 aabd
00000350: d8bf fa3d eafc c5bd 4a8b f8bd bc20 74bd
00000360: f4bb 603d 3031 c73d 4262 adbd f45c 53bd
00000370: 228f ffbd d0ea 8c3c e80a 76bd be05 a8bd
00000380: 4e68 a3bd 1011 c2bd 7c68 1a3d 90fb 4c3d
00000390: 6030 e83b 4e76 a7bd 6c7b c6bd 6ca3 12bd
000003a0: 00a0 033c f63c 8cbd 0018 693a 1e90 aa3d
000003b0: 56f4 c13d bcf4 f7bd ccf1 893d 2020 fd3b
000003c0: 7e98 dd3d c0bb 093c 5424 3f3d 0c53 983d
000003d0: d02e 2d3d d6b9 933d c883 da3d 80ee 4c3d
000003e0: 30dc 18bc 2212 9c3d b06a 7f3d 007e 953a
000003f0: e019 02bc 8011 fe3d 60e2 5c3d 9080 f7bd
0.04107459 0.06323989 -0.1200607 -0.050028667 0.09435357 0.110389665 0.0512394 0.08105859
0.026266083 -0.08238883 -0.047473386 0.061439693 0.024025753 0.005967632 -0.12120457 -0.04404454
0.05760953 0.08220337 -0.032636404 -0.026902199 -0.079705745 -0.11104083 0.05480118 0.07504593
-0.07691534 -0.0005880147 -0.061553627 0.12056191 0.043583155 0.104289636 0.10564141 -0.024690375
0.064199954 0.09290053 -0.020202547 -0.04695709 -0.060885504 -0.024818972 -0.11236727 0.11292349
0.01046364 0.10426381 -0.083749354 -0.001653716 -0.09848802 -0.047205508 0.124402046 -0.030576438
0.08039969 -0.058189467 0.03813599 0.09552497 -0.021006688 0.094558924 -0.10972808 0.07352094
0.07383022 0.098052755 -0.111361906 -0.03901866 -0.11234224 0.07865603 -0.027124181 0.08410992
0.107240096 -0.0050765127 -0.0069253296 -0.10542306 0.07232408 -0.009262532 0.0049015284 0.10926898
0.039997846 0.009736508 -0.060681656 -0.10422099 0.04298131 0.036911875 -0.00073441863 -0.10665004
0.11588299 -0.08341527 -0.10268308 0.07088569 0.07453661 -0.03988175 0.102499366 -0.041459113
-0.068610385 -0.10903302 -0.06439759 -0.020659834 -0.047003716 -0.08956164 0.021037757 0.087603554
-0.0049088895 0.10780501 0.07880074 -0.013996422 0.01478973 -0.10149115 -0.039779305 -0.050243348
-0.0686519 0.037677974 -0.020007074 -0.05516784 -0.07547557 -0.08994301 0.020669237 -0.07603289
-0.013917774 -0.08082995 -0.03749624 -0.10135275 -0.0055603236 0.08945981 0.105993226 -0.014343217
-0.04757765 -0.07471588 -0.042321354 0.020698786 0.039459243 -0.034606576 -0.03386879 0.0032520145
-0.08863062 -0.019715577 -0.036709383 0.04153897 0.048778757 0.040913463 0.009865493 -0.11470866
-0.03528799 -0.030858755 -0.039136946 0.09464221 0.1134782 0.0030424744 0.020538494 0.123393744
0.09969893 -0.010096163 -0.0052702874 -0.09902194 -0.018495217 0.023346215 -0.07094599 0.11741841
-0.05161944 0.074993566 0.04861833 -0.119632214 -0.021806091 -0.0894337 -0.09360197 0.017848983
0.09501091 0.115091845 -0.1117976 -0.10685922 0.003991246 0.103848204 0.028501749 0.10942456
-0.07947768 0.09359735 0.09267135 -0.02033934 0.09407152 -0.0833711 -0.11152853 0.006993443
0.058092028 0.026623756 0.0017215312 0.0070462674 -0.024962142 0.05635737 0.11035663 0.010572106
0.09463434 -0.05712253 0.000803411 0.009925127 0.030054495 -0.04381782 0.075085655 -0.10727601
0.09030838 0.0010687858 0.103095055 0.021530434 0.07340136 0.05445765 -0.008944705 0.048993096
-0.07908405 0.091040686 0.023887739 0.06476267 -0.04168828 0.04573454 -0.02408649 0.030180067
-0.060624704 -0.0024766028 0.11908619 -0.08323404 0.122436225 -0.0966738 -0.12135942 -0.05960153
0.054866746 0.09726179 -0.08466007 -0.05160232 -0.12478472 0.017201811 -0.060068995 -0.0820422
-0.07978879 -0.09475911 0.0376973 0.050044596 0.007085845 -0.08176862 -0.096915096 -0.035800382
0.008033752 -0.06847565 0.0008891821 0.083282694 0.094704315 -0.12107226 0.06735572 0.007724777
0.10820101 0.0084065795 0.046665505 0.07437715 0.042280972 0.0721318 0.106696665 0.05003214
-0.009329841 0.07620646 0.062357605 0.0011405349 -0.007940739 0.124056816 0.053926826 -0.12085068

onnx::GRU_198 f4 [1, 384]
00000000: dc04 38bd d4da 2f3d 82ec f03d 80e7 ff3c
00000010: 0208 b1bd d059 cdbc c07d 9f3d cc7a 9ebd
00000020: 0060 b5bb b488 253d d871 d93d 1cd6 823d
00000030: 80aa 0d3b 0eca 923d b03c 2f3c 7049 8f3c
00000040: 80b8 8fbb 404c 82bb 58a1 7d3d 22aa aa3d
00000050: 94e4 12bd f010 43bc 4c8d f6bd fcfa b1bd
00000060: 2088 683c 6868 8d3c f039 f23c c09a 363d
00000070: 642e 6bbd d022 d5bd 9c75 ddbd 106f ebbd
00000080: c657 e43d b476 5b3d 102d c8bc 6839 af3d
00000090: 5486 873d 0086 173c 62ba f23d 605c e63b
000000a0: c480 b3bd ac82 28bd 800f 8ebd 4086 3c3c
000000b0: 16a2 fd3d 78c1 cc3c f438 c93d dc0d ce3d
000000c0: 981b 51bd de30 d4bd 94bf e83d 985f f33c
000000d0: e293 ccbd e482 003d babe 89bd bc9f a83d
000000e0: 1019 7b3d a0e6 363c caa9 ffbd 18dd f6bd
000000f0: a052 db3d 3496 eabd 20e5 8bbc f0a6 fa3c
00000100: 1e26 98bd b01a 6f3c 80bf 72bb 6c1f 62bd
00000110: d807 70bd 986b 913d 6ce0 fe3d 88f8 ebbd
00000120: 8847 c0bd f4ee cabd 34f3 273d d4ce f7bd
00000130: 80a2 f73a 90fc 5dbd 14de e6bd e8c1 f0bc
00000140: 800c a4bd 80a3 a43b aeb3 f23d 14d8 763d
00000150: e47b 54bd 50b3 21bc 24c9 7d3d 84ed fe3d
00000160: ac2c d7bd 4ecf c63d 82a3 aebd a0d7 b6bb
00000170: ca29 a53d 14b1 213d 0449 433d 823a e73d
00000180: f6e9 c93d bad1 b1bd a073 ce3c 74df 39bd
00000190: b0b0 cfbc d2e4 89bd 546b d9bd 7885 bfbc
000001a0: 7e16 99bd 32b0 fe3d ecb0 63bd def4 8abd
000001b0: a011 abbc 0082 ab3d e099 c5bd 5c76 04bd
000001c0: 24fc 5e3d 16ad c63d 0023 8b3a 4441 d0bd
000001d0: b2e0 903d 30f9 c6bd d854 b93d 1ef6 a0bd
000001e0: dcc9 5ebd 54ce c13d 90ad 17bd 4007 afbb
000001f0: 6a6b b2bd 6642 e83d d0a0 6d3c e02d 4f3d
00000200: acc5 72bd a81d e13d eca4 bd3d d031 9b3c
00000210: f09b e1bc e273 893d b0ba d8bd f8fb e9bd
00000220: b036 3dbd e825 dc3d a29f f83d 2056 d33d
00000230: b6ce c83d f8f0 75bd 9017 66bd 5c2e 8f3d
00000240: 5675 c03d 2072 a1bd 401b efbc 6cfb c4bd
00000250: ba4b c4bd 2881 8fbc 04aa 303d 9e71 823d
00000260: 8017 213d 4459 9abd fedb 86bd cafa f93d
00000270: 2266 a0bd 06ac d2bd 8894 fb3c 2835 a93d
00000280: da69 f0bd c034 863c 76c1 e93d aecd b4bd
00000290: b4d9 abbd 0e75 e5bd c05f 633b 1e78 d7bd
000002a0: 9e1b de3d 401f 7e3b c81c 393d 38cd 4b3d
000002b0: 08f9 933c d8c3 b73c 2009 c4bb 40b8 fb3d
000002c0: fcd2 abbd 6cec a73d de20 9cbd 005c 54ba
000002d0: b63d febd d0dc 57bc 96df f2bd 3815 eabc
000002e0: 58ba 3e3d 047e 25bd 009b 803a 3014 7bbc
000002f0: 94ab 9abd 10d9 bd3d c878 063d e29c 8a3d
00000300: d6d3 e1bd 9a1d 933d 303d c5bc 94a0 df3d
00000310: b806 ce3d b425 e43d 4e3f 88bd ec84 f73d
00000320: 8070 c53d 2639 d3bd 869b c03d f083 26bc
00000330: beb0 ce3d 8071 db3b b815 dfbc b6a2 c23d
00000340: 70be f63d 18f8 fc3c fe17 d3bd 90db a73c
00000350: 3e1d fe3d 34db cd3d 08cc c93c 80f5 d63a
00000360: 94cc fb3d f098 583d 609e 2b3d 44d3 803d
00000370: d0ce 5b3c b2a8 9abd a4f8 6c3d 6018 d03d
00000380: 0634 973d a4a1 8d3d 50ce 213d b073 c23c
00000390: 04cf f33d 56df 943d a41b 56bd 3cb7 f23d
000003a0: 64e3 a93d 708d 363c 3c4c e0bd 0054 53bd
000003b0: 44f3 a53d 6020 7abd 0001 7bbd bc9a 913d
000003c0: e862 d4bd d8d4 e1bc d025 d23c d0d5 f73c
000003d0: 9ebe ca3d 0cb7 4f3d 1865 d0bd b03e b53c
000003e0: 02c4 f8bd e069 d63d 282b df3d e028 d4bd
000003f0: b811 8fbc 006b 343d b836 323d fc4d 253d
-0.04492651 0.0429333 0.1176386 0.031238317 -0.086441055 -0.02506724 0.07787657 -0.077382654
-0.0055351257 0.040413573 0.10617417 0.06388494 0.0021616518 0.07167445 0.010695621 0.017491072
-0.004386008 -0.003976375 0.061921448 0.083332315 -0.03586252 -0.011905894 -0.12038669 -0.086904496
0.014192611 0.017261699 0.029568642 0.044581175 -0.05741729 -0.104070306 -0.10813448 -0.11495793
0.11149554 0.05358 -0.02443555 0.08555871 0.06617418 0.009248257 0.11851956 0.007030055
-0.087647945 -0.041140243 -0.0693655 0.011506617 0.12384431 0.024994597 0.09825316 0.10061237
-0.051051706 -0.10360883 0.11364666 0.029708669 -0.09989144 0.031374827 -0.06725831 0.08233592
0.0613032 0.011163384 -0.124835566 -0.12053889 0.10709119 -0.1145443 -0.017077029 0.03059718
-0.07429145 0.014593765 -0.0037040412 -0.055205747 -0.05860123 0.071006 0.12445149 -0.11522013
-0.093886435 -0.09908858 0.04100342 -0.12099996 0.0018893033 -0.05419594 -0.11272827 -0.029389337
-0.08010197 0.0050243735 0.118506774 0.060264662 -0.051875964 -0.009869412 0.0619594 0.12447646
-0.10506567 0.09707509 -0.085272804 -0.0055799037 0.08064611 0.039475515 0.047677055 0.11290456
0.09859078 -0.0868258 0.025201619 -0.045379117 -0.025352806 -0.06733097 -0.10616174 -0.023379073
-0.07474993 0.1243595 -0.055588648 -0.06784986 -0.020882428 0.08374405 -0.0964849 -0.03233944
0.05443968 0.09700982 0.0010615289 -0.101686984 0.07074107 -0.097154975 0.09049386 -0.07859443
-0.054391727 0.09463182 -0.037030756 -0.0053414404 -0.08711894 0.113407895 0.014503673 0.05058086
-0.059270546 0.109919846 0.09259972 0.01894465 -0.027540177 0.06711556 -0.10582483 -0.11425012
-0.046194732 0.107494175 0.121398225 0.103191614 0.09805052 -0.06004426 -0.056174815 0.06991264
0.0939738 -0.07883096 -0.029187799 -0.096182674 -0.09584756 -0.017517641 0.04313089 0.06369327
0.039329052 -0.07536557 -0.06584929 0.12206037 -0.0783198 -0.10286717 0.030710474 0.08262092
-0.117389396 0.016382575 0.11413853 -0.08828293 -0.08391133 -0.11203967 0.0034694523 -0.105209574
0.10845111 0.003877595 0.045193464 0.04975626 0.018063083 0.022432253 -0.005982533 0.12291002
-0.083898515 0.08199391 -0.076234564 -0.0008100867 -0.12414114 -0.013175204 -0.11859052 -0.028574571
0.04656443 -0.04040338 0.0009811819 -0.015324637 -0.07552257 0.09269917 0.03283003 0.06768204
-0.110267326 0.071833804 -0.024077028 0.109193 0.10059875 0.11140004 -0.066526994 0.120859
0.09640598 -0.103136346 0.09404664 -0.010163292 0.10092305 0.00669688 -0.027232036 0.09503691
0.12048042 0.03088002 -0.103073105 0.020490438 0.12407921 0.10051575 0.024633422 0.0016400069
0.122948796 0.052880228 0.041899085 0.06290296 0.013416007 -0.07551707 0.05785431 0.10160899
0.073829696 0.06915596 0.039503396 0.023736805 0.119047195 0.072691604 -0.052272454 0.118513554
0.082953244 0.01114212 -0.109520406 -0.05159378 0.0810304 -0.06106603 -0.06128025 0.07109591
-0.10370427 -0.027567312 0.025652796 0.030253321 0.098996386 0.050711676 -0.10175532 0.022124618
-0.121467605 0.10469413 0.10896903 -0.10359359 -0.017464504 0.044047356 0.043509215 0.040357575

onnx::GRU_218 f4 [1, 192, 64]
00000000: f2c9 dc3d c839 a33c 1c00 2b3d 84eb 3ebd
00000010: 0860 cabd d23d e0bd b8f9 cbbc 76c6 e93d
00000020: 6020 c03c fcf6 87bd aca1 743d 3884 ce3c
00000030: deb5 8ebd 48e9 943c 28bf d83c 0415 4ebd
00000040: b0cd dfbd dcb0 e63d 8005 8fbc 50eb 2ebc
00000050: 288d cabd 06b2 bd3d 60e0 bb3b e20d e5bd
00000060: c289 c8bd 9cf6 4ebd e8d6 923c 84f4 c43d
00000070: 7cf6 603d 5257 893d bc49 88bd e2bc 89bd
00000080: d025 84bd 62ed fbbd 2a5b 99bd 0886 ffbc
00000090: a855 7dbd c418 a1bd 5451 f23d 8655 9dbd
000000a0: ca3e 80bd a0ee 613c aa1e e13d 989a 48bd
000000b0: b84f 92bd e87c b03c 68aa bbbc a0a7 943b
000000c0: 7024 a73d 7665 fdbd b8c4 a9bc 705c c7bd
000000d0: c0d5 d63b 302a 92bc 9e1b c63d a00c 5d3c
000000e0: f03b 3f3d d0ea 80bd 7caa fbbd 1e00 a53d
000000f0: 62ca 8abd aa2c bbbd 8073 4f3b 0088 1fbd
00000100: 84fb 7fbd 3044 b83c 8063 33bd 186d 55bd
00000110: 6061 adbd 6448 06bd 58f8 b7bc 6cc6 c73d
00000120: 9a87 893d 4c2e 0bbd e803 88bd bc1a 293d
00000130: 501d 1fbd e0d0 82bc d818 f1bd 324b d13d
00000140: f838 5a3d 70d1 7bbc bca6 473d dab2 e5bd
00000150: 6086 d43b b4e0 19bd 1663 b93d 80ab 87bd
00000160: 5c3b ec3d c02e 003d 144c 0d3d d2d2 923d
00000170: c416 eb3d 78ee a83c 8ca7 5d3d c047 e83c
00000180: 703c 433c 2024 1a3d 6861 12bd 34c0 403d
00000190: 58a8 233d 28a8 f8bd 524c acbd 6088 4dbc
000001a0: 6c32 713d 3090 7abd 1c50 e83d fc40 f0bd
000001b0: b0bb 733d ba6e abbd 843b 3cbd 7a32 c5bd
000001c0: 10f6 93bc c22c b43d f437 3e3d 6c42 40bd
000001d0: d868 e93d d05a 1fbc c484 bebd 1495 353d
000001e0: 9ccf 38bd ac15 b43d 6c44 fe3d c23d f4bd
000001f0: 28f1 c13d e288 983d 0c3e 74bd c870 833d
00000200: 745a 62bd c4a5 4d3d 50b9 763c c4e7 f6bd
00000210: 4848 aebc e010 e7bd baa9 f6bd 98dc b6bd
00000220: 2857 aa3d e05f 6e3d 10b8 c33d dc7a 213d
00000230: 9885 dcbd 7e23 bfbd 9040 5fbd f080 eebd
00000240: 0079 bbbc b4d2 913d b0b3 0f3c 401c 553d
00000250: 345c e63d 0e83 86bd a4e1 30bd f0fd c13c
00000260: 2ae2 87bd 88ba a13c 98ce e4bc 5241 d33d
00000270: 3038 65bc bc1e 5a3d c027 a93b e0d2 323c
00000280: 36d9 bb3d e852 4b3d 1c48 2bbd 2073 193d
00000290: 125c cbbd c0cf c0bd 345b 49bd 54a0 8dbd
000002a0: 40b7 d83b 4868 cd3c a42d 1d3d b0ff fc3d
000002b0: 1880 ee3d 9883 c83c e095 d23d ee6b a2bd
000002c0: 7026 aabc 403d 45bd e80f 8cbc 1099 81bd
000002d0: f8d5 a5bc 5ea4 fbbd c898 05bd ac06 463d
000002e0: 50d6 0bbd a088 bdbc 9ed8 9b3d 703b c5bd
000002f0: 7c17 4cbd 28cc c93c cc52 ffbd 2e46 a8bd
00000300: f484 7a3d 90ee 9ebd c8c5 993c f4fb bd3d
00000310: 4c4a 123d 905f 95bd 64cb 993d 70ff f03d
00000320: f44e b1bd 0067 673a f0df a2bd cc9b 36bd
00000330: e07c c73b 8c03 493d 40c5 35bb ba99 b2bd
00000340: 82e7 943d c014 7a3b 2e4f 993d 308c 883d
00000350: d83c d6bc 5422 d53d 245c 783d e882 ed3c
00000360: 8055 4cbc d026 083c 7044 dbbd 004e cbbc
00000370: c488 963d bc86 733d c0e8 cbbd 7828 9d3d
00000380: 4cf0 c1bd f06d f53d 283a eb3c 8047 7b3c
00000390: 0c19 95bd 646f 8cbd 68e5 18bd 5866 e2bd
000003a0: 7004 7abc 107a 45bc c2ac 993d 10b4 50bc
000003b0: 0cd0 263d f029 e93d c057 3f3d 2845 cb3c
000003c0: 0eca b5bd 72e8 8a3d 1a62 b43d 0c75 8c3d
000003d0: e0aa 4dbc a0cf d3bc 3822 2c3d ee23 c7bd
000003e0: f0cb 6e3d 96c4 d5bd 0e5d f83d b07c 823c
000003f0: 2046 873c a04b 12bc 0076 303b 2ac6 ce3d
0.107807055 0.019925013 0.04174815 -0.046611324 -0.09881598 -0.10949291 -0.024899349 0.114148065
0.023452938 -0.066389054 0.059724495 0.025209531 -0.06968282 0.018177643 0.026458338 -0.05031301
-0.10927904 0.11264202 -0.017458677 -0.01067622 -0.09890205 0.09262471 0.0057335347 -0.111842886
-0.097919 -0.050528154 0.01792474 0.0961695 0.054922566 0.06706108 -0.06654689 -0.0672548
-0.06452525 -0.123011366 -0.07488091 -0.03119184 -0.061849266 -0.07866052 0.11831918 -0.07682328
-0.06261976 0.013789803 0.10992177 -0.048975557 -0.071441114 0.021543935 -0.022908404 0.004536584
0.08161247 -0.12372868 -0.020723686 -0.09734428 0.0065562427 -0.017842382 0.09673236 0.01349178
0.04668802 -0.06294787 -0.12288377 0.08056663 -0.06776883 -0.09139378 0.0031654537 -0.03894806
-0.062495723 0.022493452 -0.043796062 -0.052105993 -0.084658384 -0.03278388 -0.022457287 0.09754643
0.06715317 -0.0339797 -0.0664137 0.04128526 -0.038846314 -0.01596874 -0.11772317 0.102194205
0.053276986 -0.015369758 0.048742995 -0.11215754 0.0064857453 -0.03756781 0.09052102 -0.06624508
0.115347594 0.031294584 0.034496382 0.07169117 0.114789516 0.020621523 0.054114863 0.028354526
0.011916265 0.037632108 -0.035737425 0.0470583 0.039955467 -0.12141448 -0.084129944 -0.012544721
0.058885977 -0.061172664 0.11343405 -0.11731145 0.059505165 -0.08370729 -0.045955196 -0.09628768
-0.018061668 0.087975994 0.04644008 -0.046938345 0.113969505 -0.009726241 -0.09302667 0.044331625
-0.045119867 0.08793196 0.12415394 -0.11925842 0.09469825 0.07447983 -0.059629485 0.06417996
-0.055262044 0.050206915 0.01505883 -0.120559245 -0.0212747 -0.112825155 -0.120440915 -0.08928794
0.08317405 0.058196902 0.095565915 0.03942381 -0.107676685 -0.093329415 -0.05450493 -0.116456866
-0.022884846 0.071202666 0.008770868 0.052028894 0.11248055 -0.065679654 -0.043183938 0.023680657
-0.06634934 0.019742265 -0.027930543 0.10315193 -0.013990447 0.053251967 0.0051622093 0.010914534
0.09172289 0.049639612 -0.041816816 0.037463307 -0.099296704 -0.09414625 -0.049159244 -0.06915346
0.006613642 0.02507414 0.038373604 0.12353456 0.11645526 0.024476811 0.10282493 -0.07930742
-0.020770282 -0.048154116 -0.017097428 -0.063280225 -0.02024363 -0.1228721 -0.032616407 0.048346207
-0.03413993 -0.023136437 0.07609676 -0.096304774 -0.049827084 0.024633482 -0.12466964 -0.08216511
0.06116195 -0.07760346 0.018771067 0.09276572 0.035715386 -0.07293618 0.07509497 0.11767471
-0.08657637 0.0008827299 -0.07952869 -0.044582173 0.0060878843 0.04907565 -0.0027735978 -0.08720727
0.07270719 0.003815934 0.074858055 0.06667364 -0.02615206 0.10406938 0.060634747 0.028993085
-0.012471557 0.008310035 -0.10706413 -0.024817467 0.07350305 0.059454665 -0.09956503 0.076737344
-0.09469661 0.119838595 0.028714254 0.015336871 -0.07280168 -0.068571836 -0.037328154 -0.11054677
-0.015259847 -0.012053028 0.07503654 -0.012738243 0.040725753 0.11384952 0.046714544 0.02481325
-0.088764295 0.06782617 0.08807774 0.068582624 -0.012552947 -0.02585584 0.04202482 -0.0972365
0.05829996 -0.104378864 0.12127124 0.015928596 0.01651293 -0.008929163 0.0026925802 0.100963905

onnx::GRU_219 f4 [1, 192, 64]
00000000: fc87 c3bd 18b4 7b3d 68c4 cb3c 4ee0 b8bd
00000010: 60b7 c53c bee8 a6bd ac9b e6bd c8eb cf3d
00000020: 9099 76bd 6816 f73c d625 85bd c0d2 7cbd
00000030: 888e cf3c 400d 46bd 0c37 af3d c00f b03c
00000040: 9095 fcbc e051 a83b b2f2 f33d 0043 b8bd
00000050: 4e2f e43d 9029 5fbc 38ca 643d b40e 0b3d
00000060: 1055 ff3d e88d e2bd e4c2 ccbd c08b 6ebd
00000070: ecab c7bd c4ef fcbd 30fe 133d e2ae 96bd
00000080: 00dd bebb 003d 41bd d0f3 13bc 68b9 383d
00000090: a22a d23d aa2b cdbd 2ede bc3d 408a 573d
000000a0: 2617 bdbd 881d 583d b8c5 943c 828d 9b3d
000000b0: 8019 79bb 8607 b43d f012 ef3c 40ff 533b
000000c0: 66a9 e03d c808 8d3c 4295 e6bd e064 1dbc
000000d0: c073 d9bb 8c3b 62bd 4caa 77bd 80a5 273d
000000e0: f85e c0bd 40eb 41bd 002e a03a 10aa 6d3d
000000f0: 24ad 19bd 0043 6e3b 1016 b0bc 0699 dcbd
00000100: 54ef 8b3d 2c74 5b3d a01e 25bc 604f 4dbc
00000110: 72d2 c3bd 0009 abbb 36b9 e7bd 580d f03d
00000120: f601 cabd 14a6 dc3d 0088 203a 4044 1d3d
00000130: da14 b83d b45e d7bd 368d d53d 08cf b7bd
00000140: 50b6 323d 18d7 dd3c e426 6b3d b238 973d
00000150: e619 92bd 004b 993a 5cf1 f9bd 8c0e 873d
00000160: 1081 1d3d 3881 373d d868 373d 5076 76bc
00000170: c805 363d 20d5 843c d0ca e6bc c2f6 bcbd
00000180: 548a 093d 90e9 aebd c8c6 66bd 98ae 053d
00000190: 42ee d2bd 462b be3d f813 ef3c 1c5b cc3d
000001a0: 0c35 a9bd c069 e1bb ccfa 97bd 40fe 9cbb
000001b0: e831 edbc 0a99 be3d eca0 cfbd 084b f3bc
000001c0: 58d8 e33c 742e c23d 5008 09bd 344d 75bd
000001d0: 8c9c 9b3d 283d 313d f429 a53d a851 8a3c
000001e0: b2e7 bfbd c028 6dbb 54f4 14bd 2a8b d2bd
000001f0: b4fd 7ebd a6af d6bd 94a4 a4bd 0e0b 82bd
00000200: a0d9 52bd e4bd de3d e09e 90bd 9474 3cbd
00000210: d81a f3bd 14aa 39bd 7862 523d d031 453c
00000220: b096 8bbd 8e2f ca3d 386b 383d 202c 40bc
00000230: c477 97bd 2451 893d d02b 6cbc a427 2d3d
00000240: ea51 903d a899 ef3d 80c7 ecba 2009 a43c
00000250: 80e8 843b 0039 f83b 4035 fcbc 4847 9f3d
00000260: e8e8 5cbd 30a4 81bc 26e7 d9bd e851 eebd
00000270: e0f6 a1bb 549a b83d 6075 cdbc 7062 04bd
00000280: 5c22 823d 60f5 e53d c408 c53d 589c 8bbd
00000290: 4825 cf3c b4d9 bd3d a018 a13b b847 ae3c
000002a0: 52ef 903d 60ef e83c 00b7 013b 18f0 f6bd
000002b0: cc1e e03d d21b 87bd 6ade acbd b8c8 8a3d
000002c0: b076 0bbc 3ca0 573d 7249 c5bd e406 aa3d
000002d0: e818 8e3c 10e4 e83d a6ef cd3d 4867 913c
000002e0: 801e a2bc 3047 f5bc b017 d0bc 306f 73bd
000002f0: 4cd4 b53d 006e ff3b 6008 8e3b 78a3 bebc
00000300: 440c dfbd 1c3b 553d 142e fbbd 5889 cb3d
00000310: 0043 843a d0ee d73c 3605 e53d f47a 933d
00000320: 6e8e 833d 08c5 013d 5675 93bd 4077 783c
00000330: 482c c03c e0f6 a03d 3a64 abbd 4ee7 a63d
00000340: 4417 6d3d b464 0dbd d262 9ebd b0a0 e93c
00000350: 3059 883c f8af b7bd 08a0 f63d 8805 85bc
00000360: f4ef 5f3d 3ceb 553d d4ca c03d d069 0dbc
00000370: d86c b43c 52d3 eabd bc6e 52bd 56f7 883d
00000380: 1898 d4bc a89a 90bc 4c1c 883d 60df 74bd
00000390: 68b4 8a3c 3a42 82bd b619 933d 4423 79bd
000003a0: 241e 3e3d 98cb cebc 3834 313d 6a49 8c3d
000003b0: 2e5d be3d 247f f4bd 262b b2bd d043 cb3d
000003c0: 60f6 943c 5ec7 b2bd cc60 cdbd e063 643d
000003d0: d094 153d 0caf f0bd 002e fc39 5028 6f3c
000003e0: b04a cd3c 424b 89bd 86fc 953d 486f 44bd
000003f0: 3890 38bd a819 e3bd 28c7 983d 006a 263c
-0.09547421 0.061451048 0.024873927 -0.09027158 0.024135292 -0.08149861 -0.11260161 0.101523936
-0.060205042 0.030162051 -0.06501357 -0.061724424 0.025336519 -0.04835248 0.08555421 0.021491885
-0.030833036 0.0051367134 0.11911525 -0.08997154 0.11141835 -0.013620749 0.055856913 0.03394957
0.12467396 -0.11062223 -0.0999811 -0.058238745 -0.09749588 -0.12350419 0.036131084 -0.07357575
-0.005824685 -0.047177315 -0.009030297 0.045098692 0.10262038 -0.10018094 0.09222065 0.05262208
-0.09232931 0.05276254 0.018160686 0.0759535 -0.0038009584 0.087904975 0.029183835 0.0032348186
0.1096981 0.017216101 -0.112589374 -0.00960657 -0.006636113 -0.05523257 -0.060465142 0.040929317
-0.09393114 -0.047343493 0.001222074 0.058023512 -0.037518635 0.0036355853 -0.021494895 -0.107713744
0.068327576 0.053577587 -0.010078102 -0.0125311315 -0.09561624 -0.0052195787 -0.11314623 0.11721295
-0.09863655 0.107738644 0.0006123781 0.038395166 0.08988352 -0.1051611 0.104273245 -0.08975035
0.043630898 0.027080104 0.057410136 0.07383861 -0.07133846 0.0011695325 -0.12204239 0.065945715
0.03845316 0.044800967 0.04477772 -0.015042856 0.044439107 0.016214907 -0.02817288 -0.09226753
0.033579186 -0.08540642 -0.056341916 0.03263721 -0.1029935 0.092855975 0.029184327 0.09978315
-0.08262071 -0.0068790615 -0.074208826 -0.004791051 -0.028954461 0.09306534 -0.10138115 -0.029698864
0.027813122 0.094815165 -0.033455193 -0.05988808 0.07598218 0.043271214 0.080646425 0.01688464
-0.09370364 -0.003618762 -0.036365822 -0.1028045 -0.06225367 -0.10482721 -0.08039203 -0.06349765
-0.051477075 0.108760625 -0.07061553 -0.046009615 -0.118703544 -0.045328215 0.05136344 0.012035802
-0.06815851 0.098723516 0.045024127 -0.01172927 -0.0739589 0.067049295 -0.014414743 0.042274132
0.07046874 0.116992295 -0.0018064827 0.020023882 0.0040560365 0.0075751543 -0.03078711 0.07777268
-0.053933054 -0.015825361 -0.10639791 -0.11636716 -0.00494276 0.09013811 -0.025080383 -0.03232044
0.0635421 0.11228442 0.096208125 -0.068169296 0.025286332 0.09270039 0.0049162656 0.021274433
0.07076897 0.028434455 0.0019792914 -0.12057513 0.10943374 -0.06597103 -0.084408596 0.06776565
-0.008512184 0.052643046 -0.09633149 0.083020955 0.01734586 0.113716245 0.10055475 0.017749444
-0.019789934 -0.029941171 -0.02540192 -0.05943221 0.08878383 0.0077950954 0.0043344945 -0.023271307
-0.10891011 0.052058324 -0.12264648 0.099383056 0.0010090768 0.026358992 0.111826345 0.07201186
0.06423651 0.031682044 -0.072001144 0.01516515 0.023458615 0.07859588 -0.08368726 0.081495866
0.057883516 -0.034519866 -0.07733692 0.028519005 0.01664409 -0.0896911 0.12042242 -0.016237989
0.054672197 0.05222629 0.094136864 -0.008631185 0.022024557 -0.114660874 -0.051375136 0.066878006
-0.02595143 -0.01765187 0.06646022 -0.05978334 0.016931728 -0.06360288 0.07182638 -0.060824648
0.046415463 -0.025243565 0.04326269 0.0684994 0.09295116 -0.11938313 -0.08699636 0.099250436
0.018183887 -0.087294325 -0.10028228 0.05575931 0.03651887 -0.117521375 0.00048099458 0.014597014
0.025060028 -0.067038074 0.07323556 -0.04795769 -0.045059413 -0.11088878 0.07459861 0.010157108

onnx::GRU_220 f4 [1, 384]
00000000: 640a 653d 104b 46bd aa0c 813d 4045 6bbc
00000010: 20c5 6dbd 40df 9abc 58dc 843d b445 3c3d
00000020: 503a 02bd 763a cc3d aa67 e63d ec79 b93d
00000030: e4ae 343d 8e26 ad3d 0c51 3ebd 4265 b1bd
00000040: e8f1 bdbd 06b1 943d 9c00 d23d 8485 b8bd
00000050: def6 bbbd f02b 5cbc f426 9abd 88d0 b0bd
00000060: 0cc3 62bd c06d 3bbc 684a bcbd 7895 f1bc
00000070: 5ece debd a8f9 dabd 00c3 593d 70fc 1a3d
00000080: 4cd8 cb3d 3cc1 5f3d fc49 14bd 5869 653d
00000090: 7088 0b3d 841c fabd fca5 5a3d 0c66 9cbd
000000a0: 46fd d03d f62f ed3d 3446 bebd 025a c0bd
000000b0: 3843 573d 26fd 833d d8f9 713d 0c7e b3bd
000000c0: 1adf eebd 305e 67bd 9869 973d 46cd c0bd
000000d0: f024 9ebd 90e2 2c3c a804 8d3d 4866 e2bc
000000e0: ecd4 123d d8f6 e2bd 04c2 253d 54ab f8bd
000000f0: 580c e23d 78bb c5bd c075 cabb 50a9 2bbc
00000100: 9a07 e0bd 486a 4cbd 0089 6a3a 3869 a9bd
00000110: 901f 573c 047d b0bd ba66 d43d bce0 ba3d
00000120: c6bb f43d 6018 b83b 8a9d babd 70ab eebd
00000130: 7a48 823d acc9 4e3d 3815 9f3c 62a5 fa3d
00000140: d8b3 83bc de34 b33d 0004 d93c 4047 ef3b
00000150: dc66 12bd f0b3 c6bc e40c 5e3d 3000 aabd
00000160: ac98 53bd 84e2 c3bd 28aa ab3c 70c8 dd3c
00000170: ce4b e4bd a872 6abd f443 c03d 042d cfbd
00000180: a01f 8f3c 086d b4bc c085 aabd 4831 8bbc
00000190: 0e1e fdbd c02e d03c 6ce7 d03d 501d 88bc
000001a0: 84b6 c03d 2a45 d63d e0f5 d13d 42ea a43d
000001b0: e2e0 bd3d d0f5 9e3d c0f8 5fbb dade aebd
000001c0: 523a 883d 82ce 8a3d 58a5 233d f00f 5bbd
000001d0: e0f8 03bc 48f3 d43d 700a a2bc f671 86bd
000001e0: 62c5 b43d b26a aebd c0c5 82bd 009b f5bd
000001f0: 42f7 bcbd b4ab acbd 184e a03c 4ad3 e33d
00000200: d08c ff3d 8013 aabd 4878 82bd 2cfa acbd
00000210: 68ed 9b3d 8257 a53d dc37 56bd 8684 d8bd
00000220: 3c4d 963d 4624 ba3d fe11 873d 10dc 1dbd
00000230: 1ad3 e8bd 90eb 19bc 0020 b63d 180c babc
00000240: d661 cd3d e0f9 dfbb d01e f53c 2c79 aabd
00000250: 8013 7cbb 8a4d dcbd c6b6 b9bd fc99 0fbd
00000260: 3e66 943d 0068 d3bc b8f9 7abd 606c b13d
00000270: 201e cebc 40f4 e4bd 9c17 afbd c0a2 993c
00000280: e84b b3bc 3801 e4bc da0f f0bd d837 d6bd
00000290: a8e2 cfbd 2431 a33d b8ee 1c3d 60e1 983d
000002a0: 10c6 02bd 325f 863d 08cb 22bd 68a4 943c
000002b0: 4868 15bd e0f7 003c 08fb 15bd 6ac5 8dbd
000002c0: a0bd 083c 9431 7c3d 882e 0abd 34b5 d3bd
000002d0: 24e0 04bd 8c5f cf3d 306e 9c3d e89a 073d
000002e0: 109f 64bc 388a 9ebd b871 cabd 1cca ca3d
000002f0: aeea 82bd 1cbd 4bbd 98a3 913d e835 a03c
00000300: bec1 813d b24a ab3d 4010 05bb 3c67 a03d
00000310: 56e6 d03d 8206 e53d 5486 a6bd 08a3 b5bd
00000320: a40d 46bd 8428 a9bd 10a5 94bd 1e88 fabd
00000330: aee2 a53d 0066 68bc 22f1 d0bd 68da ad3c
00000340: 5058 7f3d 4457 97bd c6aa 923d 3271 943d
00000350: c4b3 e43d 34c1 1e3d 9466 97bd cc4a 29bd
00000360: d8ca 5e3d 6cb4 4e3d 30c9 b5bd 5edd a33d
00000370: 70e6 91bd 1225 bfbd 9825 2e3d f873 3f3d
00000380: 9448 b8bd a41f cf3d 0057 b8bc fa1f a13d
00000390: 6085 6ebd e068 32bd 40b0 8cbc 0011 89bd
000003a0: d0de fcbc 8cdc 10bd 164d bebd 10e5 a73d
000003b0: 201c 6abd c0f6 0bbd b0f1 babd 402d 293b
000003c0: 80e1 053d 5079 67bd 989c a3bc 5ee9 a03d
000003d0: a0d6 1fbc e0f3 573d b21b babd 4a7c 853d
000003e0: e402 bdbd 9833 033d 38c7 ddbd cc41 793d
000003f0: e639 fdbd 98a4 c43d 14c0 cfbd 8a07 eabd
0.055918112 -0.04841143 0.063012436 -0.014359772 -0.05804932 -0.018905282 0.0648734 0.04596491
-0.031793892 0.09972088 0.11250241 0.09056458 0.0441121 0.08454619 -0.04646401 -0.086618915
-0.092746556 0.07260327 0.102540225 -0.09009841 -0.091779456 -0.01343821 -0.07526961 -0.08633524
-0.055361792 -0.011439741 -0.09193879 -0.029490218 -0.10879205 -0.106921494 0.053164482 0.0378384
0.09953365 0.054627642 -0.03620337 0.056008667 0.034065664 -0.1221247 0.05338095 -0.076366514
0.10204558 0.115814134 -0.09290734 -0.09392168 0.05255434 0.064447686 0.05907616 -0.08764276
-0.11663647 -0.05648631 0.07393187 -0.09414153 -0.07721889 0.010552064 0.06885654 -0.027636662
0.03584759 -0.11082238 0.04046823 -0.12142053 0.11037511 -0.096548975 -0.0061785877 -0.010477379
-0.1093895 -0.049906045 0.0008946806 -0.08272022 0.013130084 -0.08617595 0.10371156 0.09124896
0.119498774 0.00561814 -0.091120794 -0.11653793 0.0636148 0.050485298 0.019419298 0.122385755
-0.016076967 0.08750318 0.026491165 0.007302195 -0.035742626 -0.024255723 0.054211512 -0.08300817
-0.05165927 -0.09564689 0.02095516 0.027073115 -0.11147271 -0.05723825 0.09387961 -0.10116008
0.017471135 -0.022024646 -0.08326292 -0.016991273 -0.12359248 0.025412917 0.1020039 -0.01661554
0.09409812 0.10462411 0.10251975 0.08052494 0.092714086 0.07761729 -0.0034175366 -0.08538599
0.06651749 0.067776695 0.039952606 -0.053481996 -0.008054942 0.10397965 -0.019780368 -0.06564705
0.0882671 -0.08516444 -0.06385374 -0.119924545 -0.09226848 -0.08431187 0.019568488 0.111242846
0.1247803 -0.083045006 -0.06370598 -0.08446154 0.07613641 0.080733314 -0.052299365 -0.10572152
0.0733895 0.0908895 0.065952286 -0.038539946 -0.113683894 -0.009394541 0.08892822 -0.022710845
0.10028426 -0.0068352073 0.02992192 -0.08323893 -0.0038463771 -0.10756977 -0.090680644 -0.03505896
0.07246064 -0.025806427 -0.061273307 0.08663249 -0.02516085 -0.111793995 -0.08549425 0.018754363
-0.02188678 -0.027832612 -0.117217734 -0.1045987 -0.10150653 0.07968357 0.038313597 0.07464862
-0.03192717 0.06561126 -0.039744407 0.018144801 -0.036476403 0.007871598 -0.036616355 -0.06922419
0.008345991 0.06157072 -0.033735782 -0.10337296 -0.03244032 0.10125646 0.07638204 0.033106714
-0.013953939 -0.07741207 -0.098849714 0.099018306 -0.06392418 -0.049740896 0.07111281 0.019556955
0.063357815 0.083638564 -0.0020303875 0.078321904 0.10200183 0.11182882 -0.0813109 -0.08868986
-0.048352852 -0.08259681 -0.07258046 -0.122329935 0.08099876 -0.014184475 -0.102022424 0.021222308
0.06234008 -0.073896915 0.07161479 0.07248153 0.111671 0.03875847 -0.07392612 -0.041331097
0.054392666 0.050465032 -0.08876264 0.08001207 -0.071240306 -0.093332425 0.04251632 0.046741456
-0.08998218 0.10113457 -0.022502422 0.07867427 -0.058232665 -0.043557048 -0.017173886 -0.066926956
-0.030867964 -0.03536658 -0.09292047 0.08197987 -0.05715573 -0.034170866 -0.091281295 0.0025814325
0.032685757 -0.056512177 -0.01997213 0.07857011 -0.00975576 0.05272281 -0.09087314 0.06517847
-0.09229067 0.032031626 -0.108290136 0.060853764 -0.12364559 0.09601706 -0.10144058 -0.11427219
