Python_Agent_Hub/ml_pipeline/models/direction_gru_v2.pt (torch, 173921 bytes, 12 tensors)

gru.weight_ih_l0 f4 [192, 13]
000000 16 96 f3 3c 40 6c ed bc bd dc ea 3c 59 7e be bc
       0.029734652 -0.028982282 0.02866971 -0.023253607
000010 8d c3 99 3d 7a d4 89 3d f0 b4 eb 3d 5a 05 93 bd
       0.075080015 0.0672998 0.115091205 -0.07178755
000020 b4 2a 10 be 67 02 b2 3d 9f 92 86 bd 84 56 e7 bd
       -0.1407879 0.086918645 -0.065709345 -0.112957984
000030 5c 7d 02 be e1 9a e1 b9 9d 13 b0 3d f2 57 8c bd
       -0.12743133 -0.00043030738 0.08597491 -0.06852712
000040 16 ab 13 3d 53 f5 ea 3d 12 08 ca bd 69 35 09 be
       0.036051832 0.11472573 -0.098648205 -0.1339928
000050 0d eb a9 3d 85 fd db 3d de 07 dd 3d d4 07 c2 3d
       0.082967855 0.107417144 0.10792516 0.09474149
000060 60 d6 b0 bd bc 3c cc bd 27 15 ef bc 5e 0d 80 3d
       -0.08634639 -0.09972522 -0.02918489 0.062525496
000070 58 d8 9e 3d 59 3b de bd e1 6f 0b bc 4f 74 00 bd
       0.07756108 -0.108511634 -0.008510561 -0.03136092
000080 14 f5 96 bd e9 c4 90 3d 54 dc 85 bd 22 4f 96 bd
       -0.07370964 0.07068808 -0.06536165 -0.07339312
000090 72 08 fc 3d 46 7a 57 bd 60 26 66 bd 28 3e a9 bd
       0.12306298 -0.052606843 -0.05618894 -0.082638085
0000a0 da 3c 37 3d 6e 62 1b be 5c 3a 43 bd b4 aa 28 bb
       0.044735767 -0.15174267 -0.047663078 -0.0025736513
0000b0 09 90 6c bd 27 30 a7 bd 97 ab b6 3d 4c 0e ad 3d
       -0.05775455 -0.08163481 0.08919447 0.084499925
0000c0 67 15 45 3d 39 86 ce 3d 0b ab b3 3c 4e e6 12 bd
       0.048116114 0.10084195 0.021932146 -0.035864167
0000d0 4a 4c e7 3d 71 50 68 bd 41 5c a6 bc de 4e 9f bd
       0.11293848 -0.05671734 -0.020307662 -0.077787146
0000e0 e3 9c 19 be 04 85 90 3d ae 65 e7 bd 0c ca 51 3c
       -0.15001254 0.07056621 -0.11298691 0.012804519
0000f0 bd 89 a5 bd 50 ff ae 3d fd d4 b6 3d 69 29 ab bd
       -0.08082912 0.08544791 0.08927343 -0.08357508
000100 e9 37 96 3c 47 40 0e bc 63 60 a3 bd 6b 08 a9 3d
       0.018337207 -0.008682317 -0.07977369 0.08253559
000110 37 70 4c bd 00 af 1e bd aa df a1 bd a8 77 5f bc
       -0.049911704 -0.03874111 -0.07903989 -0.013639368
000120 d5 5d 08 bd 62 a8 32 bd a3 e5 d5 bc ab 6d 14 3e
       -0.03329261 -0.043617614 -0.026110476 0.1449496
000130 cd 3a 8f 3d dc 85 e8 bd 97 d3 00 be b4 0f e0 bd
       0.06993637 -0.11353657 -0.12580715 -0.10940495
000140 89 35 55 bd b7 18 9b bd 25 9a 51 bd 08 87 de bd
       -0.05205301 -0.07573073 -0.051172394 -0.10865599
000150 fe b8 f7 3d e8 08 f9 3b 96 f2 e7 bd 69 bb b7 bb
       0.12095831 0.0075999387 -0.113255665 -0.005607058
000160 07 f7 bc bd 65 48 c0 3d 74 f4 b7 3d 39 5d bd bd
       -0.09226804 0.09388808 0.089821726 -0.092462964
000170 2e 98 3b 3d 63 7f ae bd f1 64 b4 bd e2 2a cf bd
       0.045799427 -0.08520391 -0.088083155 -0.10115601
000180 30 97 72 bc 7f 24 43 3c 11 8a 88 3d bf 8c c8 3d
       -0.014806554 0.011910557 0.06666959 0.0979247
000190 72 20 37 bd 4f b9 fd 3d ac 11 e2 bd a6 98 c5 3a
       -0.044708677 0.123888604 -0.11038527 0.00150754
0001a0 64 29 d4 3d 00 aa c0 bc 7b 1a cd bc b7 9b 01 bd
       0.10359457 -0.023518562 -0.025037041 -0.031642642
0001b0 31 8f c4 3d e3 d7 95 bd 5c bc 94 bc da 09 82 bd
       0.09597624 -0.07316568 -0.018156223 -0.06349535
0001c0 fb c9 9d bd a0 6b 09 be d1 36 f9 bd 58 48 e3 3d
       -0.0770454 -0.13419962 -0.121686585 0.11097783
0001d0 59 bb bf bc 9c 95 e4 3c 56 10 e2 bc 9a 65 aa bd
       -0.023404764 0.02790337 -0.02759568 -0.0832016
0001e0 64 9c 29 3d 17 80 f1 bd 51 a6 aa 3c 68 db 5c bd
       0.04140891 -0.11792009 0.020831259 -0.05392018
0001f0 d5 b6 c4 ba df b9 0d bc 8c 6f 77 bd 18 b7 0d 3d
       -0.0015008101 -0.008650272 -0.060409114 0.03459844
000200 36 6a 84 bd 4e 8f 49 bd f6 fa eb bd 5b 2b b5 bd
       -0.06465571 -0.04920893 -0.115224764 -0.0884616
000210 87 eb c3 bc 23 96 04 3d 2c 34 80 3c de 9b 98 bd
       -0.02391602 0.032369744 0.015649877 -0.07451604
000220 e4 1c 3d bd 94 46 07 39 83 b8 c4 bb bb 24 61 bc
       -0.04617013 0.00012900896 -0.006003441 -0.013741667
000230 57 e6 85 bc a4 35 27 3d a9 38 25 bd f1 f1 5d 3d
       -0.016345186 0.04082264 -0.04033724 0.05418581
000240 ec 53 41 bd bb a3 8c 3d 49 04 e5 bd ee 24 dc 3d
       -0.047199175 0.068671666 -0.11182458 0.10749231
000250 45 d9 0f 3d e4 3e dd bb 37 40 ae bd c1 49 c5 3c
       0.035119314 -0.006751882 -0.08508342 0.02408302
000260 4c 50 02 be ae 4c 36 bc 05 31 d2 3d fe 82 ea 3d
       -0.12725943 -0.01112668 0.10263256 0.11450766
000270 da 67 9a bd d6 a4 13 3d 6f ca 74 3c 60 2f 34 bc
       -0.07539339 0.03604587 0.014940842 -0.010997623
000280 9f f5 c1 bd 81 04 75 3d d9 6b cc bd 9b c0 25 39
       -0.09470677 0.05981875 -0.09981508 0.00015807377
000290 bb cf ab 3d 1f 56 ad bb 74 ec b7 bd 0b 34 9c bd
       0.08389231 -0.0052898075 -0.08980647 -0.07627114
0002a0 39 f0 c8 3d a2 b6 fa 3d bc bf 06 bb 9f fd db 3c
       0.09811444 0.12241866 -0.002056106 0.026854334
0002b0 13 34 cf bd 1d 43 90 bd 36 40 70 bd 3a 49 02 3e
       -0.10117354 -0.07044051 -0.058654986 0.12723246
0002c0 ed d1 ce bd ae 81 80 3c d1 e3 fd bc d6 c8 ec 3d
       -0.10098634 0.015686836 -0.03099242 0.11561744
0002d0 b9 1a 3d bb ac 73 c0 3d 1c 1c 6f bd 6d 16 96 bd
       -0.002885504 0.09397063 -0.058376417 -0.07328496
0002e0 f7 e5 84 3d b9 d2 89 bc 9c 32 b8 bd 90 f9 2d bd
       0.06489175 -0.016824113 -0.08994028 -0.04247433
0002f0 15 f7 8a bd 6d 67 3c 3d 3d b3 77 bd 2e a8 c7 bd
       -0.067854084 0.045997072 -0.06047367 -0.097488746
000300 c2 6a 8a 3d fe d4 ff bd 08 66 8a bd 1b ca 49 3d
       0.06758644 -0.12491797 -0.06757742 0.04926501
000310 bd 5c d7 3d 27 33 29 be b7 07 d0 bd 77 6c be bd
       0.10515735 -0.1652342 -0.101577215 -0.09298032
000320 34 49 23 bd e4 99 46 3d ae 63 78 bc 74 cc f2 bd
       -0.039864734 0.048486605 -0.015160484 -0.118554026
000330 4c 41 a3 3d d7 a1 e1 3b 62 c1 36 bd e4 9f 7a bc
       0.07971439 0.006885748 -0.044618018 -0.01529691
000340 d8 39 ac 3d ae 61 ee 3d 57 43 67 3d 56 f2 99 bc
       0.0840947 0.11639725 0.056460705 -0.018792313
000350 5e ce 91 3d 63 29 66 bd d4 11 bb 3d 4c 91 09 3d
       0.071194395 -0.056191813 0.0913426 0.03358583
000360 aa 19 cf bd 9d 24 0c be a8 ab 37 3d 3f a7 ad 3d
       -0.10112317 -0.13685842 0.04484144 0.08479165
000370 7b 97 b9 bc 0e c2 7a bd 14 df 6e bd 52 60 94 bd
       -0.02265524 -0.06122022 -0.058318213 -0.07244934
000380 98 64 1b 3d 52 30 b5 bd 14 a8 b7 bd d3 0d 74 3c
       0.03793773 -0.08847107 -0.08967605 0.014895874
000390 84 49 e1 bd 27 0f 06 3d ea 3b 63 bd 74 a2 70 3d
       -0.1100035 0.032729294 -0.05547706 0.058748677
0003a0 3f 80 be bd c9 a7 e2 bd b9 cd e0 3d b0 46 f4 3d
       -0.09301805 -0.11067159 0.109767385 0.11927545
0003b0 bf 2a 73 bd 76 00 b5 3d 0d 12 f7 bd f6 a1 ad 3d
       -0.059366938 0.088379785 -0.1206399 0.08478157
0003c0 9d e7 d9 bc e0 08 dd bd 6e 78 da bc 71 a3 f7 3d
       -0.0265997 -0.107927084 -0.026668753 0.12091721
0003d0 b6 10 69 3c 33 73 8e 3d 4e b8 58 bd cf 14 e8 3c
       0.014225176 0.06955566 -0.05291014 0.028330235
0003e0 5c eb 5f 3d a1 a4 9b 3d 5d e8 fb bc ca e7 a9 ba
       0.054667816 0.0759976 -0.030750448 -0.0012962755
0003f0 10 cf 2b bd 2a ab a6 3c 85 82 41 3d 58 9d 65 bd
       -0.041945517 0.02034529 0.047243614 -0.056058258

gru.weight_hh_l0 f4 [192, 64]
000000 e1 b6 42 bd 7b 80 22 bd eb cb b6 3d cf d0 0e bb
       -0.04753769 -0.03967331 0.08925613 -0.002179194
000010 cf 1e 14 be f1 c2 c8 bc a0 87 51 bd 31 42 4f 3c
       -0.14464878 -0.024507018 -0.051154733 0.012650059
000020 c8 ac ce bd 0f bc 87 3d 7a e0 a8 bd ef 32 74 bd
       -0.10091549 0.06627666 -0.082459405 -0.059618887
000030 48 da 9d 3d a2 ff 64 bd 3c 6c 95 3d fc 89 cc 3d
       0.077076495 -0.055907853 0.07296035 0.09987256
000040 cb ba 9d 3d f0 1e 85 bc 84 57 d5 3d e3 04 16 be
       0.077016436 -0.016250104 0.10417083 -0.14650302
000050 a7 01 e1 3d 83 c8 d9 3c c1 76 b1 bc 59 3d 31 bd
       0.10986643 0.02658487 -0.021663072 -0.043271396
000060 1d c4 01 bd 1e 3b b3 bd 26 58 01 3e 13 d7 a9 3b
       -0.03168117 -0.0875151 0.12631282 0.0051831095
000070 f9 e9 ef 3d af c5 af 3b ba fa eb bd bf 88 db bc
       0.117145486 0.005364142 -0.11522432 -0.026798604
000080 93 34 7a 3d 84 50 bc 3c 06 9b dc bd 1f 3e 97 3d
       0.061085295 0.022987612 -0.10771756 0.073848955
000090 b0 e0 d0 3d 97 b5 91 3d ff 25 bd bd 23 60 a7 bd
       0.10199106 0.07114714 -0.09235763 -0.081726335
0000a0 fc a8 04 bd 8f 20 c8 3d 83 d8 03 3e d9 cc 9d bd
       -0.03238772 0.09771835 0.12875561 -0.07705087
0000b0 f7 b4 ed bd a7 a6 87 3d 3e 46 94 3b a7 e1 34 3d
       -0.11606782 0.06623583 0.004524975 0.04416051
0000c0 c2 54 16 3e 77 d3 95 3b ef bf 7b bd 38 0c 82 3d
       0.1468077 0.0045723277 -0.06146234 0.06349987
0000d0 60 db e0 3c f0 6b b5 3d 39 74 da bd f7 f4 85 bd
       0.027448356 0.08858478 -0.10666699 -0.06540864
0000e0 15 11 cd 3d ca 7c f5 bd 64 42 ab bd 76 dc f1 bd
       0.10013024 -0.11986692 -0.083622724 -0.11809628
0000f0 88 29 d8 3c 66 1d 89 bd f3 ac aa 3d 07 bb 0a 3e
       0.026386991 -0.066950604 0.08333769 0.13547908
000100 1a fc e8 3d 09 3f 94 bd 0b 5c c4 bd e2 9e cf 3d
       0.113762096 -0.072385855 -0.09587868 0.10137726
000110 78 ca b3 3d d9 29 ca bd f3 f3 b4 bc 62 82 c5 bd
       0.08778852 -0.09871263 -0.02208898 -0.09644009
000120 ba e9 db bb 98 8f ad bd 7f fc 9c 3d bd 96 fb 3c
       -0.006711212 -0.08474654 0.07665347 0.030711526
000130 65 37 a2 3d 83 17 39 3b ef fb a6 bd 7e 67 07 3e
       0.07920722 0.0028242774 -0.08153521 0.13223073
000140 85 9b 94 3d 3a 9b c1 3d f6 23 b4 3b 60 04 68 bd
       0.072562255 0.09453435 0.005497451 -0.056644797
000150 ab 2e 48 bd 58 24 e9 bd 5f f1 2f 3d 07 17 ef 3c
       -0.04887263 -0.11383885 0.0429548 0.029185785
000160 69 37 c1 bc d5 a7 e2 3d 19 0e 62 bd 7d cb 0b 3e
       -0.023585992 0.11067168 -0.055189226 0.13651843
000170 70 2d 6e bd ac 5f a1 3c 02 ea 1c 3c 22 a9 41 3d
       -0.0581488 0.01969894 0.009577276 0.04728044
000180 e7 08 c9 3a 7d 1b b1 3d 25 77 48 3b fd 2c 28 bd
       0.0015337736 0.08647821 0.0030588594 -0.04105853
000190 70 ce 3a bd 1f 68 df 3d 9a 4b 83 3d 00 f8 44 ba
       -0.04560703 0.109085314 0.06410904 -0.00075137615
0001a0 57 97 07 3d 5e 07 91 3d df 1c fc 3c a8 e0 c4 bd
       0.033103313 0.07081483 0.030775486 -0.09613162
0001b0 c6 64 05 bb 95 77 a2 bc 0a 16 8f bc 90 5b a2 3d
       -0.0020354255 -0.019832412 -0.017466564 0.079276204
0001c0 d0 d3 ef bd 6d 7a 42 3d 9f f0 08 3d f4 02 ba bc
       -0.11710322 0.047480036 0.0334326 -0.022706486
0001d0 be 58 d1 bd 65 32 74 3d de 03 a5 3d 90 ae e2 bd
       -0.10222004 0.059618372 0.08057378 -0.110684514
0001e0 20 2a 01 3d 27 b0 bd bd 17 96 99 3b 51 b5 42 3c
       0.031534314 -0.09262114 0.0046870816 0.0118840495
0001f0 72 f2 92 bd 37 84 9b 3d 85 90 0f bc ca 4c 65 3d
       -0.07175149 0.07593577 -0.0087624835 0.055981435
000200 a1 f5 af bc 86 d5 de bd ec 1d e4 3d f9 10 52 bd
       -0.02147943 -0.1088057 0.1113852 -0.051285718
000210 0f c9 e2 bc dc 91 e5 3d a4 5c b0 3d 45 e7 ef bd
       -0.027683763 0.11209461 0.0861142 -0.11714033
000220 45 85 87 bb be a6 cc bb 36 aa 33 3c 20 d1 ba 3d
       -0.00413576 -0.006245463 0.010965874 0.09121919
000230 cb 49 9a bd 2f 8a eb 3d aa 7e 84 bd 22 e8 3f 3c
       -0.07533606 0.11500966 -0.06469472 0.01171306
000240 19 e6 9e 3d d2 50 b0 3c 17 85 b9 bd d8 a2 10 bd
       0.077587314 0.021522913 -0.09058588 -0.03531155
000250 93 78 e6 bd b5 e4 74 bd 02 53 d2 3c 6d f2 c9 bc
       -0.112534665 -0.059788425 0.025674347 -0.02465173
000260 32 81 67 bc e7 9c fe bc 15 57 c6 bd 98 88 71 3c
       -0.014129924 -0.031080676 -0.09684578 0.014742039
000270 b6 e1 eb bd 0b b4 90 bc 6c 9a 12 39 d2 9c be 3d
       -0.1151766 -0.017663976 0.00013981172 0.09307255
000280 65 90 ee bd 92 55 a3 bb ae 19 64 3d 82 97 12 3d
       -0.11648635 -0.004984566 0.055688553 0.03578902
000290 9c 41 87 3d 37 52 95 3d f5 ec fd 3d cf ac a5 bd
       0.06604311 0.07291072 0.123987116 -0.08089601
0002a0 63 cb c6 3d 93 0b 28 bd 04 ec a8 bd d4 05 84 bd
       0.09706762 -0.041026663 -0.082481414 -0.06446424
0002b0 dd 5b c2 3d 09 a1 6d bd a8 1c c9 3d ac a7 a8 bd
       0.09490178 -0.058014903 0.09819919 -0.08235106
0002c0 02 c5 f9 3d 53 1e f3 3d db 78 fe bd 17 33 92 3d
       0.121957794 0.11871018 -0.12425395 0.07138651
0002d0 b2 ee 81 3c 30 75 08 bd 4f c5 a4 3d 32 33 3e bd
       0.01586089 -0.033314884 0.08045446 -0.046435542
0002e0 f9 49 33 3d e2 d2 7d bd d8 8d a2 bc 72 e1 31 bc
       0.043771718 -0.06196869 -0.019843027 -0.010856973
0002f0 49 b8 b8 bc f9 76 33 bc 7c d0 4b bb 45 27 b0 3d
       -0.022548812 -0.010953658 -0.0031099608 0.0860124
000300 d3 a8 e3 3d 8f b9 bc 3d f9 1a 53 bd bc cf 0d be
       0.11116185 0.0921508 -0.051539395 -0.13848776
000310 6c 39 19 be ba 36 0f 3e 75 67 eb bd f6 7c 1f 3e
       -0.14963311 0.1398572 -0.11494342 0.15575013
000320 43 fa 03 be 0f 1f 83 bd f4 c1 0e 3d 1b 72 82 3d
       -0.12888436 -0.06402408 0.034852937 0.0636942
000330 7f 51 fe bc 89 a3 11 be 9d a7 f2 3d 94 80 f8 39
       -0.03104472 -0.1422254 0.11848376 0.00047398044
000340 ce 92 ac 3d 9b 96 19 be 18 12 8c bd ef b7 ac bb
       0.08426438 -0.14998858 -0.068393886 -0.00527095
000350 52 d1 a8 3d 58 c8 c9 bd af f1 b4 3d 98 dc 0b 3e
       0.0824305 -0.09852666 0.0883516 0.13658369
000360 98 99 cb bd 0c 58 1b be af 44 97 3d b1 8a 0c 3e
       -0.09941405 -0.15170306 0.07386147 0.13724782
000370 7b 29 e3 3c ab 92 f9 3c 92 65 48 bd e2 cd 22 3d
       0.02772974 0.030465445 -0.04892499 0.039747126
000380 4b fc 1c 3d 30 a5 2d bd 1e 28 53 bd 90 eb 1c bd
       0.038326543 -0.042393863 -0.05155193 -0.038310587
000390 d2 50 af bd 3a 51 a9 bd fb 8a 4b bd ec c4 9c bc
       -0.08560337 -0.08267446 -0.04969309 -0.019136868
0003a0 2d ab d8 bc a7 9f b4 bc 3b 28 8d 3c ad 03 49 bb
       -0.02644881 -0.022048784 0.017231097 -0.0030672357
0003b0 71 4c fa bd e0 98 26 3d 8a 33 59 3b 76 f9 fa 3d
       -0.12221611 0.040673137 0.0033142292 0.12254612
0003c0 24 7b d6 3d 2b 2f 4e 3d 72 b5 19 be a0 6e f5 3c
       0.10472706 0.05033795 -0.15010622 0.029959977
0003d0 98 eb 17 ba 97 0b 72 3d ac 8d a4 bc 94 f1 3b 3d
       -0.0005795299 0.059093084 -0.020087086 0.045884684
0003e0 9a df 27 3d 07 89 0a be ab f2 72 bc d1 ca c8 bd
       0.040984727 -0.13528834 -0.014828364 -0.09804309
0003f0 28 02 fe 3d af b2 3f bd 78 13 8c bd c8 f0 04 bd
       0.12402755 -0.046801265 -0.06839651 -0.03245619

gru.bias_ih_l0 f4 [192]
000000 65 f1 ee 3d f8 05 a4 3c 3e 2f 40 3d f1 77 7c 3d
       0.11667136 0.020022377 0.046920054 0.061637823
000010 f7 0a d4 3d 13 3e a5 bd a2 45 03 be f7 10 d2 3d
       0.10353654 -0.0806848 -0.12819532 0.10257142
000020 13 c4 be bd de 47 4e 3d e1 c2 44 bd 0a 89 7b bd
       -0.09314742 0.050361507 -0.048037414 -0.061409988
000030 2a 0c ed 3d 97 54 ae 3d 34 29 a6 bd 58 27 49 3d
       0.11574586 0.08512228 -0.081133276 0.049109787
000040 2a e1 1d bd af 7f af bd 4a 48 5a bd f3 49 c6 bd
       -0.03854481 -0.085692756 -0.053291596 -0.096820734
000050 21 6e 2d 3d d1 b4 74 3d 15 31 05 3e c9 f2 cb 3d
       0.042341355 0.059742752 0.13007005 0.09958417
000060 bd d9 b0 bd b2 83 0f 3e ae da a4 bd 8c 2f 66 bd
       -0.0863528 0.14015082 -0.08049522 -0.056197688
000070 18 5e a2 bd d8 0c c1 bd 6a b9 7d 3c 6f fe bb bc
       -0.07928103 -0.09426278 0.015486101 -0.022948472
000080 6e 1e 14 3e 2c d2 bb bd 83 6b c1 bd 0f 61 9e bd
       0.14464733 -0.091709465 -0.09444334 -0.07733356
000090 0c 13 c4 bc fe 42 9a 3c f0 42 1d bd 42 97 6b 3d
       -0.023934864 0.018830772 -0.038393915 0.057517298
0000a0 2e 10 1c bd a4 1b 8b bd 7b fe 9f 3d 53 e4 bd 3c
       -0.038101368 -0.067923814 0.0781221 0.023180163
0000b0 47 9c 00 3e 61 5b 00 3d e1 6f 23 3d 9a 4f 2a 3c
       0.12559615 0.031337146 0.039901618 0.010394955
0000c0 84 c7 b5 3c 95 64 3c bd bb 2d b0 3d 1d dd a1 bd
       0.022189863 -0.04599436 0.086024724 -0.07903502
0000d0 d8 58 c2 3d b0 dd 93 3b cc ae 08 be db 8e 9f 3d
       0.09489602 0.004512511 -0.1334793 0.077909194
0000e0 8e 6e 11 bd 2c 15 f8 3d 39 ad 6e bd f6 4f a7 bc
       -0.035505824 0.12113413 -0.058270667 -0.02042387
0000f0 01 4c 9e 3c 7c 38 ba bd 5c 75 ad bc 78 48 fb 3c
       0.01932335 -0.09092805 -0.021174125 0.030674204
000100 26 a9 ad 3d 6b 1f db bd ee 99 77 bd ed 8a 80 bd
       0.08479528 -0.10699352 -0.060449533 -0.06276498
000110 bf d5 49 3d 85 18 e9 bd 25 46 8f bc 25 31 5f bd
       0.04927611 -0.1138163 -0.017489502 -0.054490227
000120 42 dc b3 bc 21 42 28 3a 25 75 a3 3d 05 95 ec bd
       -0.021955613 0.00064185454 0.07981328 -0.11551861
000130 db b8 ae 3d 38 76 cd 3d f8 71 b0 bd 64 5a ef 3b
       0.08531352 0.10032314 -0.08615488 0.0073044766
000140 81 b8 39 bd 90 12 8d bc 78 0a 16 bb 34 2e 42 3c
       -0.045341972 -0.017220765 -0.0022894423 0.011851836
000150 5d 7d 6c bd 37 a1 82 bb 7c 2a 68 bd ae 9f 0d bd
       -0.057736743 -0.0039865035 -0.05668114 -0.03457611
000160 38 b6 bd bd e2 40 7b bb 04 42 d6 3d 80 c3 c2 bb
       -0.09263271 -0.0038338234 0.1046181 -0.0059437156
000170 b9 06 8f bd a8 ba bf bc e5 b4 81 3b 3f de 00 3e
       -0.06983704 -0.023404434 0.003958332 0.1258478
000180 14 f6 8a 3d 27 68 8e bd 79 b9 d0 3d 75 f8 69 3d
       0.06785217 -0.06953459 0.10191626 0.057121713
000190 4a 32 c5 bc e8 57 86 bd 3d d5 b9 bd cc 6d 0b bc
       -0.024071831 -0.065597355 -0.09073875 -0.008510064
0001a0 a4 25 3a bd 0f 5c f5 bd 63 37 a6 bc 32 21 8b bd
       -0.045446053 -0.119804494 -0.020290082 -0.06793441
0001b0 b8 15 7e 3c 23 18 a6 bd ed 14 26 3d ac 07 f0 3d
       0.015508108 -0.081100725 0.0405473 0.11720213
0001c0 a1 03 05 be 94 ef 29 bc 3b 85 60 3d 91 e2 31 bc
       -0.12989666 -0.010372061 0.05481456 -0.01085724
0001d0 5a 71 f0 bd ed 23 b3 3d 06 90 6c 3b 23 64 c7 bd
       -0.1174037 0.08747087 0.0036096587 -0.097358964
0001e0 f5 4e 03 3e 78 de 9c 3c 16 0f 68 3d ea 73 51 bc
       0.12823088 0.01914905 0.056655012 -0.012783984
0001f0 f1 ea 62 3d 20 61 2c 3d a2 67 db bd cb 9d 1b bd
       0.05539984 0.042084813 -0.10713126 -0.03799228
000200 bf 7c 00 3e 44 9e 2a bd 48 a7 95 3d 7b ce 6d bd
       0.12547587 -0.04165484 0.07307297 -0.058058243
000210 ca 17 21 bd f5 79 c8 3d 16 56 01 3e 28 59 8b 3d
       -0.039329328 0.097888865 0.12630495 0.068041146
000220 89 27 14 3e d5 26 f3 3d 51 f0 d1 bd 9a 20 d6 3d
       0.14468206 0.11872641 -0.10250915 0.10455437
000230 f7 ac a5 bc 34 8f a1 bc c8 49 e8 bc 02 20 5e bd
       -0.020224078 -0.019721605 -0.028355494 -0.054229744
000240 7c cf 25 bd 45 ac 34 bc 3b 84 9c bd 0b 76 a8 3c
       -0.040481076 -0.0110274 -0.076424085 0.0205641
000250 7e 82 8d bb 87 24 5b bd 98 66 d7 bd 07 37 07 3e
       -0.0043185344 -0.053501632 -0.10517615 0.13204585
000260 d2 3b ba bd 51 72 da bd 8b 04 fb 3d be be 51 bd
       -0.09093441 -0.106663354 0.12256726 -0.051207297
000270 10 24 a0 3c 26 d1 b5 3c bb ac 93 bd 73 e6 78 bd
       0.019548446 0.022194456 -0.0721068 -0.06076665
000280 a4 7b cd 3d 55 24 4a bd d9 90 a1 bd f5 a2 0c 3e
       0.10033348 -0.049351055 -0.078889556 0.13734038
000290 bf 34 d8 3c d6 7d a1 3a 2b 0f 34 3d 2d 35 94 bd
       0.026392339 0.0012320827 0.043959778 -0.07236705
0002a0 2c 6c 12 bc 2f 30 cc 3c ad 63 c0 3d 2a 72 29 bd
       -0.008936923 0.02492532 0.09394012 -0.04136864
0002b0 6f 71 f8 bd 98 ee 28 bd 2e ba d3 bd 53 c3 b9 3b
       -0.12131011 -0.041243166 -0.10338245 0.0056690364
0002c0 28 c8 9c 3d b7 5a 1f 3d b8 c7 27 bd 70 28 49 3d
       0.07655364 0.03890487 -0.04096195 0.04911083
0002d0 11 2f be bc 0f 76 16 be 6c 43 1c bd f9 b3 d1 bd
       -0.023215802 -0.14693473 -0.038150236 -0.10239405
0002e0 8b 6a 60 bc 62 3d 09 be 17 a2 96 3d df c1 89 bc
       -0.013697277 -0.13402322 0.07355135 -0.016816078
0002f0 ac 41 fe 3d 64 0a bd bd ed 92 96 bc 63 5e 5a bd
       0.1241487 -0.092304975 -0.018380607 -0.05331267

gru.bias_hh_l0 f4 [192]
000000 33 c6 a2 3c 56 0a e3 bc 87 46 b0 bd 24 fe 90 bd
       0.0198699 -0.02771489 -0.08607202 -0.070797235
000010 5e de 32 3d e0 bc be bd 9e 34 a0 bc 64 d0 57 bd
       0.043669097 -0.09313369 -0.01955634 -0.05268897
000020 45 28 3c bc 01 b6 96 bd 4d 8e b3 3d 06 3d 82 bd
       -0.01148421 -0.07358933 0.08767376 -0.063592955
000030 fe 10 df bc fd 09 ed 3d d8 e5 a8 bd a6 1c 09 bd
       -0.027229782 0.11574171 -0.08246964 -0.033474587
000040 35 2d 94 3d be 05 4b bd 14 50 ac bc 6b cf 57 bd
       0.07235185 -0.049566023 -0.021034278 -0.052688044
000050 de 07 0d bd b9 c8 39 bd 7f c7 ee 3c ba 37 5c 3d
       -0.03443133 -0.04535744 0.029147862 0.053764082
000060 f1 cc d8 3c a2 45 25 bd ed 88 79 bd df 46 8c 3d
       0.026464911 -0.04034961 -0.0609216 0.06849455
000070 72 4b 04 3e d5 03 3a 3d d2 ec da bc 4b 07 92 3d
       0.12919405 0.04541381 -0.026724253 0.07130297
000080 65 bd fe 3d 1e 5b 43 bd 93 b9 84 bd ec ea f0 3d
       0.12438468 -0.047694318 -0.06480708 0.11763558
000090 3e af 01 3e 4e 63 cf 3c df 61 29 3d 0e 15 3f bd
       0.12664506 0.025315907 0.041353103 -0.04665094
0000a0 b1 b6 ab bb 17 03 c6 3c 25 99 17 3c 9d d6 a8 bd
       -0.0052402844 0.024171395 0.009252821 -0.08244059
0000b0 80 8d 01 bc 38 5a be bd 6e 88 39 bd e0 c5 36 bc
       -0.007907271 -0.092945516 -0.045296125 -0.0111555755
0000c0 2a 5a e3 3d c4 65 b7 3d 6c 64 35 bd d3 eb e3 3d
       0.11101182 0.08954957 -0.044285223 0.11128964
0000d0 d9 a2 4e 3d f6 1c 99 bd 22 14 0a be c3 87 db bd
       0.050448272 -0.07476227 -0.13484243 -0.10719254
0000e0 93 43 ac bd 73 35 bd 3d 3f fa 26 bd c8 69 25 bd
       -0.08411326 0.0923871 -0.040765997 -0.040384084
0000f0 64 31 d7 3d c4 9f 3a 3d 71 49 ce 3d bb 23 20 bd
       0.105074674 0.04556252 0.100726016 -0.039096575
000100 63 a1 30 bd d7 bc 03 3e fd a3 e8 3d 8d 98 95 3d
       -0.04312266 0.12865005 0.11359403 0.073044874
000110 89 36 ff 3d 03 00 a5 bd 5c 4c 8c bd 03 97 c5 3c
       0.12461574 -0.08056643 -0.06850502 0.02411986
000120 1b 70 17 bd 3e 54 df 3d 43 d9 eb bd 04 97 94 bd
       -0.036972146 0.1090474 -0.11516049 -0.072553664
000130 e6 ad 7e 3d c1 28 af 3d 39 64 bf 3c df a4 2a bd
       0.06217756 0.08552695 0.02336322 -0.04166114
000140 68 89 17 3d b6 82 b3 3d 9f e8 95 bd 20 4e a6 3d
       0.036996275 0.087651655 -0.073197596 0.0812037
000150 2d 84 1c 3d ba 2f bf bd 58 ef e4 3d 43 cc 5d 3d
       0.03821199 -0.09335275 0.11178464 0.054149877
000160 74 33 a6 3d da 01 0d 3e df 00 c4 3d c5 d0 3e bd
       0.08115283 0.13770238 0.09570479 -0.046585817
000170 26 20 55 bd 4e 0a cc 3c 88 86 20 be 9b 2f 56 3d
       -0.052032612 0.024907257 -0.1567632 0.052291494
000180 59 0c b2 bd b6 7b b1 bb b0 d2 d7 bd 12 9f 2e 3d
       -0.086937614 -0.005416359 -0.10538232 0.04263217
000190 84 d4 93 3d 5b 63 e3 bd 11 11 88 3d 85 ef 93 3c
       0.072182685 -0.11102935 0.0664388 0.018058548
0001a0 9f 09 ee 3d 4d c2 bc 3d 8b af d4 bd da c2 03 3e
       0.11622929 0.092167474 -0.10385045 0.12867299
0001b0 10 f9 cb bc 33 19 8d bc 7d 66 2f bd 39 67 e8 bd
       -0.024899036 -0.01722393 -0.04282235 -0.11347813
0001c0 5b 05 12 bd f6 f9 56 bc b9 a7 4b 3d 81 68 9e bd
       -0.03564964 -0.013121119 0.0497205 -0.07734776
0001d0 2c 7e cd 3c f6 ff 17 be 6d 4b fb bd aa b6 99 3d
       0.025084578 -0.14843735 -0.12270246 0.075055435
0001e0 d8 b9 13 bd 97 ed 5e 3d f4 22 bf 3d 89 e2 40 bd
       -0.036065906 0.054425802 0.09332839 -0.04709104
0001f0 30 8b ce 3d 32 4e 3c bd 5f 4c 9f bd 58 fa 9d 3d
       0.10085142 -0.04597301 -0.077782385 0.07713765
000200 16 6d e0 3d 8c 6f d3 3d 8e e5 5b 3d f5 40 83 bd
       0.109583065 0.1032401 0.053685717 -0.06408874
000210 69 de 8e 3d 89 01 98 3d 8e 1d 90 bc 2b 0d c1 3d
       0.06976015 0.07422168 -0.017592218 0.0942634
000220 ba b3 f6 3c 16 ed bf 3d 4f ee 6e bd 32 33 de bd
       0.030114997 0.093713924 -0.058332738 -0.108496085
000230 10 5e f2 bd 73 ce 27 bd 6b ce 66 3d 1e 35 8e 3d
       -0.11834347 -0.04096837 0.0563492 0.06943725
000240 b5 7a d2 bd a5 d4 10 be ac d3 e6 bd 4e e0 a6 bd
       -0.10277311 -0.14143617 -0.11270842 -0.081482515
000250 68 c5 1e bd 20 13 ea bd af 91 d7 bd 86 77 0e 3e
       -0.03876248 -0.11429429 -0.10525834 0.13912782
000260 ee 66 74 bd c3 fa dc 3c 87 84 be 3d 82 1d d2 3d
       -0.059668474 0.026975041 0.09302621 0.102595344
000270 41 09 ac bb 40 be 65 3c 3f 55 76 3d b5 d7 2b 3d
       -0.0052501266 0.01402241 0.06013989 0.04195376
000280 9a b5 b5 3d 0a bb 56 3c b4 19 e6 bd ba d0 d4 3d
       0.088725284 0.013106117 -0.11235371 0.10391374
000290 fd f1 28 bd af 71 2d bd bc a3 49 3c 0b 2d e1 3d
       -0.041246403 -0.042344745 0.012307104 0.109949194
0002a0 ca 0a cc 3d ec 06 d6 bd 8c c7 da 3d c0 c9 60 3d
       0.09962995 -0.10450539 0.10682592 0.054879904
0002b0 56 97 b4 3d 8e a6 cb 3c 3e 79 10 be 22 cd 00 3e
       0.088179275 0.024859693 -0.1410875 0.12578252
0002c0 93 6d b2 3c 49 22 61 bd 58 45 92 3a 0c 1e 5a bd
       0.021780765 -0.054964337 0.0011159582 -0.05325131
0002d0 48 79 8a bd b3 3f f6 3a f6 02 80 3d 78 fd 5f 3c
       -0.06761414 0.0018787294 0.06250565 0.0136712715
0002e0 ca 74 c7 bd bb 92 27 3d 87 ae 82 3d ce 62 03 be
       -0.097390726 0.040911417 0.06380945 -0.1283066
0002f0 8d 93 73 3d 4b cc c6 3d b6 af a3 3d 65 6d 6a bb
       0.059466887 0.097069345 0.079924986 -0.003577077

gru.weight_ih_l1 f4 [192, 64]
000000 2a be 9a bd 21 dd 59 bd 07 35 a7 3d b6 bc 90 bd
       -0.07555802 -0.0531894 0.08164411 -0.07067244
000010 0c 61 1f 3d 30 59 73 bd 8f 0c 46 3d c3 c9 5e 3d
       0.03891091 -0.059411228 0.04835182 0.054391634
000020 29 a6 97 bc a1 e4 7b bc e5 5b d7 3c 04 f4 7e bd
       -0.018511849 -0.015374334 0.026288936 -0.06224443
000030 7b 86 06 3d b9 62 e4 bd f7 35 d4 3d 8d 9e a8 bd
       0.032843094 -0.11151642 0.103618555 -0.08233366
000040 c4 5b 07 3c 54 f7 b4 3d c6 85 f5 bc 64 46 2f 3d
       0.008261625 0.088362366 -0.029971015 0.04279174
000050 0c 79 0c 3e df 6a 16 be cc 70 be bc 97 90 42 bc
       0.1371805 -0.14689206 -0.023247145 -0.011875293
000060 57 29 d3 3d 04 d4 aa bd 4e ec 1b 3d c6 a6 bd 3b
       0.10310619 -0.0834122 0.038067155 0.005787703
000070 d9 f6 c3 3d c0 98 f3 bd 71 50 79 bd a2 5b c8 bd
       0.09568567 -0.11894369 -0.06086773 -0.097831026
000080 92 81 8b bd a6 57 2d bd d5 ec db bd d5 eb 46 bc
       -0.06811823 -0.042319916 -0.107385315 -0.012141188
000090 dc d3 a6 3d c4 30 de bd 49 fd a9 3c a7 e6 60 bd
       0.08145878 -0.10849145 0.020750659 -0.054907467
0000a0 a5 07 f8 b9 87 a8 ad 3d 8e 59 80 bd 88 6d ac 3d
       -0.00047307942 0.0847941 -0.06267081 0.08419329
0000b0 9b b1 94 3d 21 77 80 bd 71 3d 22 3d 66 b8 64 bc
       0.07260438 -0.06272722 0.039609376 -0.01395998
0000c0 18 db ab 3d 39 2a d3 3d 05 d6 59 bd e9 b4 c5 3d
       0.08391398 0.10310788 -0.05318262 0.096536465
0000d0 5a 06 1e 3c 35 94 9d bd ac 37 47 3d e3 98 e2 bd
       0.009645069 -0.07694284 0.048637077 -0.11064317
0000e0 81 5d 20 3c 09 00 85 bd 47 64 af 3d 6f 7d b6 bd
       0.009787918 -0.06494147 0.08564048 -0.08910643
0000f0 09 cb 39 3d e2 8d 1c be ec 2f fb bc fe 29 a1 3c
       0.045359645 -0.15288499 -0.0306625 0.019673344
000100 38 dc a7 3d 37 62 c6 bd 93 5d 39 3d be 70 d2 3d
       0.081963 -0.09686702 0.045255255 0.1027541
000110 5c 8e b6 3d 1d cd 1f 3d 96 0e f4 bc 44 9b 0d 3c
       0.08913872 0.03901397 -0.029792111 0.008642975
000120 2c f2 00 3e f3 f0 0b 3e 74 0b 8e 3d a6 32 ad bd
       0.12592381 0.13666134 0.06935778 -0.08456926
000130 6d af 9a 3d 7b 57 03 be c7 b4 ce 3d 61 52 c0 bd
       0.07552991 -0.1282634 0.10093074 -0.093907125
000140 2e 79 0f be bb 79 4c bd 0f 66 4c bd cb 98 19 3d
       -0.1401107 -0.04992078 -0.04990202 0.03749923
000150 d7 85 98 3d a9 7a 0d bd 81 2d 8d 3d c2 4e 16 3d
       0.07447403 -0.034540806 0.06893445 0.036696203
000160 1a b1 8e 3d 13 64 06 bd d1 a9 92 3d e7 9d 00 3e
       0.06967373 -0.032810282 0.07161296 0.12560235
000170 cc 9f e0 3c 74 1e 09 bd 39 e1 32 bd c9 dc ad 3d
       0.027419947 -0.033476308 -0.04367182 0.08489377
000180 63 2e 99 3d 4f 09 9f 3c ca 20 c6 bd 4f ef 3d 3d
       0.07479551 0.019413618 -0.09674223 0.0463708
000190 8d 85 e4 3d b1 c3 ca bc 34 b5 bf bc b2 9d 80 bd
       0.11158285 -0.024751516 -0.023401834 -0.06280078
0001a0 35 4f 35 3d 85 8a 58 3c f3 4d ef 3c 97 5d de bd
       0.04426499 0.013216619 0.029211974 -0.108576946
0001b0 15 e6 fe bd a0 90 f4 3d bc a2 1b 3d 91 28 f8 3d
       -0.124462284 0.119416475 0.037996992 0.121171124
0001c0 c1 3c a6 3d c2 6b a8 3c 18 83 88 bd d3 86 94 bd
       0.08117057 0.020559195 -0.06665629 -0.07252278
0001d0 b9 54 b0 bd 7d f0 36 bd 98 66 23 bc 54 95 0f bd
       -0.086099096 -0.04466294 -0.009973191 -0.03505452
0001e0 7c 2e 12 be f0 dc 3f 3c b1 8e 32 3d ef f9 22 3d
       -0.14275545 0.01171039 0.043593112 0.039789136
0001f0 d2 b5 8a 3d a6 e8 d3 bd 90 53 ac 3d 11 fc f4 3d
       0.06772961 -0.103471085 0.08414376 0.1196214
000200 09 37 98 bd bb c8 5e 3d fb af 0b 3e 8b 51 93 bd
       -0.07432372 0.05439065 0.1364135 -0.071932875
000210 36 06 7e bc cd 63 af bd da 12 d3 bd 1e 4f 21 3e
       -0.0155044105 -0.08563957 -0.1030633 0.15752837
000220 64 99 ef bd 71 a1 ba ba b4 75 25 bb 9e 99 9e bd
       -0.11699179 -0.0014238787 -0.0025247158 -0.07744144
000230 43 0b 88 3d f1 9d 97 3c e1 8b ac 3d a5 09 25 3d
       0.06642773 0.01850793 0.08425117 0.0402924
000240 22 69 62 bd f9 3f 80 bb 78 9d 2e bd 27 3c 3c 3d
       -0.055276044 -0.003913876 -0.042630643 0.045955803
000250 97 53 e9 3d 53 e9 0f be 75 10 9e 3d 09 24 db 3d
       0.113928966 -0.1405385 0.07717983 0.107002325
000260 6e 1d 14 be 1f d3 11 bd ea 88 19 3e 1a 64 81 bd
       -0.14464352 -0.03560173 0.14993635 -0.06317921
000270 be f4 81 3d 26 ac 96 bc 86 9a 5f bc 36 c4 26 3d
       0.06345509 -0.018392634 -0.013647681 0.040714465
000280 98 b4 8f 3d 00 7c e5 bd 12 7c 04 3d c6 43 bb bd
       0.070168674 -0.11205292 0.032344885 -0.09143786
000290 88 d3 99 bc 37 ad a1 bd 93 c5 92 3d 0f 12 08 3e
       -0.018777624 -0.07894366 0.071665905 0.13288139
0002a0 7b 45 39 bd 21 59 57 3d 8f 72 b0 bc d4 91 f0 3c
       -0.045232277 0.052575234 -0.021539 0.029366411
0002b0 03 50 ec bd f3 6a 53 3d 77 a5 92 bd 6f 59 8f bc
       -0.115386985 0.051615667 -0.07160466 -0.0174987
0002c0 79 a6 b7 bd b1 69 fc 3d 3f 78 9f 3d 1e ce 20 3c
       -0.08967299 0.123248465 0.07786607 0.009814767
0002d0 7f 1e 73 3d 79 6f 11 be f5 7f 92 3d 20 0f a9 bd
       0.059355255 -0.1420268 0.07153312 -0.08254838
0002e0 cf 2c 20 3d c6 ac 94 3d 57 d8 b5 3d 08 91 71 3d
       0.039105233 0.072595164 0.08879154 0.058976203
0002f0 cf 8e ae 3d 03 1b 8c bd df 95 97 3c 5f b1 73 3d
       0.08523332 -0.068410896 0.018504081 0.059495326
000300 d3 cf db 3d 02 cb 75 bd 79 bf 08 3e 40 08 5a bd
       0.10732999 -0.060008056 0.13354291 -0.053230524
000310 3c b6 0f bc b0 d4 a4 3d c2 3b 56 3d a5 b8 ad bd
       -0.008771475 0.080483794 0.052303083 -0.08482484
000320 5b 3f 17 bc a2 60 8a bc cf b7 b2 bd bb 05 b3 bd
       -0.009231414 -0.016891781 -0.08726465 -0.087413274
000330 10 5a 38 bd 42 61 6d bd 29 24 0d 3e 6a 8c e4 3a
       -0.045007765 -0.05795408 0.13783325 0.0017436866
000340 99 d7 b1 3d da 47 fb bd 84 19 cf bc 91 97 a4 3d
       0.086837 -0.12269564 -0.025280721 0.080367215
000350 6d 18 e8 3d 0d 59 cd bc cd e5 cf 3c 28 00 75 bc
       0.11332784 -0.025066877 0.025378132 -0.0149536505
000360 de 8c c1 3d 91 b9 83 bd fe f0 b1 bd 84 16 a5 bd
       0.094506964 -0.06431878 -0.08688544 -0.08060935
000370 bc af 42 bc c1 9b 83 3d 98 77 ae 3d 38 2f 33 bc
       -0.011882719 0.06426192 0.085189044 -0.010936551
000380 ab 24 20 3d 55 87 8f 3d 11 0b f8 bd 91 36 a2 3d
       0.03909747 0.070082344 -0.12111486 0.07920564
000390 95 4b 4b 3d 3b 9d cb 3c 1d b7 17 3d 33 01 cc 3d
       0.049632628 0.024855247 0.037039865 0.09961166
0003a0 82 a7 13 be c5 cc 85 3d ad dc a2 3d 7b ea c7 3d
       -0.14419368 0.06533197 0.07952247 0.097615205
0003b0 43 98 00 bd ba 20 fd bc d1 9b 81 3a 37 2d 2e 3d
       -0.031395208 -0.030899394 0.0009888356 0.04252359
0003c0 c2 8d 00 3e d6 b5 c5 bc 39 36 0d 3b 0d 22 f1 bd
       0.12554076 -0.024134558 0.0021547212 -0.11774073
0003d0 a1 d5 10 3d 7e 51 c0 3c 54 6d 80 3c d8 9e 12 be
       0.035359982 0.023476359 0.015677132 -0.14318407
0003e0 c2 07 0e be 74 d0 98 bd 25 c2 3e 3d 57 28 ce 3d
       -0.13870147 -0.07461634 0.04657187 0.10066288
0003f0 3b 72 7b 3d 1a 7c cb 3d e9 26 cf 3d 44 c4 ac 3b
       0.061388236 0.0993578 0.101148434 0.00527242

gru.weight_hh_l1 f4 [192, 64]
000000 f2 c7 c1 bd 66 00 7a 3d 28 b0 06 3e fb 1d 95 bc
       -0.09461965 0.061035536 0.13153136 -0.018202772
000010 ac 0b 12 3e 23 6c 9a bd 25 a4 6f 3d 44 4e dd bd
       0.14262265 -0.07540157 0.05850615 -0.108059436
000020 f5 31 89 3d 1a 67 ff 3c 92 8f a7 bd 1d de d7 3d
       0.06698982 0.031177092 -0.08181681 0.105404116
000030 f8 55 39 3d e4 ed 8d 39 0c d5 e8 bd fc 39 fe 3d
       0.045248 0.00027070858 -0.113687605 0.124134034
000040 cb b6 dd 3c 47 48 8f 3d 99 8f c3 3d 8a ec 04 3d
       0.027064702 0.06996208 0.095488735 0.032452144
000050 26 eb 93 bd 34 5f d8 3d 06 3b 53 3c 10 ec db 3c
       -0.072225854 0.105650336 0.01289249 0.026845962
000060 56 e9 d5 bd 5c f2 92 3d 2c 3f a6 3d e0 24 d3 3d
       -0.10444896 0.07175133 0.08117518 0.10309768
000070 16 37 b1 3d 46 24 ae bc 53 fc 7f 3d b1 27 12 bd
       0.08653085 -0.02125753 0.062496495 -0.035682384
000080 0c d6 b0 3c 07 d9 07 be 94 e6 17 bd 83 4e f4 3c
       0.02158644 -0.13266383 -0.03708513 0.029822594
000090 d5 ca c5 3d b7 9b 65 3c 5f 5e ad 3d 62 42 5b 3d
       0.09657828 0.014014176 0.084652655 0.053530104
0000a0 48 25 f2 bc 62 c6 c5 bd c7 ed 17 bc 5f 71 a7 bc
       -0.029558793 -0.09656979 -0.009272999 -0.020439802
0000b0 70 e0 ec bd 2f 09 77 3d 90 5b ed 3d d8 50 4e bd
       -0.115662456 0.060311493 0.1158973 -0.050370067
0000c0 95 0a 1a 3d 9f 8a 80 3d 89 2c 89 3d 50 cb c1 3c
       0.037607748 0.0627644 0.066979475 0.023656517
0000d0 48 d5 9e 3d fd 89 0c 3e d0 7f 7d bd 5c 34 89 3d
       0.07755524 0.13724513 -0.06188947 0.0669944
0000e0 bc 6d 62 bd a8 da a0 bc dc 48 ab 3d bc 49 cd b9
       -0.055280432 -0.019635513 0.08363506 -0.00039155583
0000f0 54 c4 18 3d f3 36 95 3d a8 63 cc 3d f6 53 c8 3d
       0.037296608 0.07285871 0.099799454 0.09781639
000100 58 a8 ee bd 00 df bb 3d 5e 2b 1e bd 95 59 0b 3d
       -0.11653203 0.09173393 -0.038615577 0.03402098
000110 b7 d8 a1 bc 0f cb 61 3c ad f7 5d 3d 37 7d 0e bd
       -0.019756658 0.013781323 0.05419128 -0.034787383
000120 bc 9b d9 bd 86 69 df 3d a8 e6 86 bd 51 08 95 bd
       -0.10625407 0.10908799 -0.06586963 -0.07276977
000130 7c ef e9 39 64 c2 25 bc cb 20 81 bd 8b b8 62 bb
       0.00044619653 -0.010117147 -0.06305083 -0.003459486
000140 77 04 c5 bd dc 90 c1 bd b7 b0 f8 3d 4f 0d 21 3d
       -0.09619992 -0.09451458 0.12143081 0.039319333
000150 70 f9 88 bd 32 ed 99 bd 55 cd 0f 3e 31 67 20 3d
       -0.066882014 -0.075159445 0.14043172 0.03916091
000160 ce 7a 29 3c 60 02 0c 3d 8a 94 c1 bd 21 55 a6 3c
       0.01034422 0.034181952 -0.0945216 0.020304265
000170 d9 24 af bc 48 04 9b 3d 6b 09 d6 bc 93 b8 c2 bd
       -0.021379875 0.07569176 -0.026127538 -0.09507861
000180 c5 91 35 3c 18 6b 21 bd 24 4a 9f ba aa 35 b6 3d
       0.011082117 -0.039408773 -0.0012152833 0.08896954
000190 c9 29 c4 3d b8 cd 05 3e 6b d6 74 3c 78 4a c2 3d
       0.095782824 0.13066757 0.014943699 0.0948686
0001a0 38 18 fd 3c f4 d3 4c bc da 1d f0 bd a2 aa 07 3e
       0.030895337 -0.012501705 -0.11724444 0.13248685
0001b0 c1 a4 84 bd aa 3f 12 3d 91 ce 8e bd 42 33 df 3d
       -0.06476737 0.035705246 -0.06972993 0.108984485
0001c0 53 df bd bd 7b a4 48 bc ae c5 f3 3c bd 83 8a 3d
       -0.09271111 -0.012246246 0.029757347 0.06763408
0001d0 c7 4a d8 bd 09 80 91 3d 21 c5 09 3d 81 57 76 bd
       -0.10561138 0.07104499 0.033635262 -0.060142044
0001e0 d7 a5 15 be c0 16 08 be 93 07 c5 3d 1e 5c db 3c
       -0.14614044 -0.13289928 0.09620585 0.026777323
0001f0 3e 7e d1 3d 62 6e 4e 3d fa 9b ad bd 60 ef 81 3d
       0.10229157 0.050398238 -0.08477016 0.06344485
000200 ce 56 a3 bd 69 d9 ca 3d 0d e2 55 bc 3e 0f 91 3d
       -0.07975541 0.09904749 -0.013054383 0.07082985
000210 46 7c 45 bd 2f 95 18 3c 2f 6c 88 bd 50 bf b6 bd
       -0.04821422 0.009312912 -0.066612594 -0.08923209
000220 31 70 0c 3d 4d 05 2e bd 77 ea 0d 3e c0 06 bc bc
       0.03428668 -0.042485524 0.13858972 -0.022952437
000230 a1 f1 7b bd af 62 01 3e f0 35 31 bd d4 e1 89 3d
       -0.061509732 0.12635301 -0.04326433 0.067325264
000240 fe 45 38 bc 3c c1 97 bd 94 2f e0 3d 31 d0 8a bd
       -0.011247156 -0.074099034 0.10946575 -0.067779906
000250 05 10 ad 3d 68 a2 0f be 9d aa cb 3d 1c bd 3b bd
       0.08450321 -0.14026797 0.09944651 -0.045834646
000260 64 ef 47 bc 98 98 d2 bd 89 54 68 bd 54 2a d8 bc
       -0.012203071 -0.10283011 -0.056721244 -0.026387371
000270 bd 34 79 bd 2b 52 2a 3d ae 81 c1 3d 8d 24 82 bd
       -0.06084131 0.041582268 0.094485626 -0.06354628
000280 b2 b7 e9 bd d3 bb f4 bd 19 b8 12 be 66 51 f8 3d
       -0.1141199 -0.11949887 -0.1432804 0.121249005
000290 bd 9a 1b 3e b9 5a c9 3c d8 92 1b bd 06 a3 74 3d
       0.15195747 0.024579393 -0.037981838 0.059725784
0002a0 96 95 90 bd a0 81 85 3d 4a 9a d6 3d fd 8c 10 3b
       -0.07059781 0.06518865 0.10478647 0.0022056692
0002b0 0a 66 95 bd 98 57 f8 3d 73 fe c6 3c cb c6 cb ba
       -0.07294853 0.12126082 0.024291253 -0.0015546916
0002c0 e8 87 34 3d de 79 f0 bd cd 78 b5 3d 99 5f 38 bb
       0.044074923 -0.11741994 0.088609315 -0.0028133153
0002d0 64 e7 2b bd 12 fc c4 3c bf 95 0b 3d 34 b4 76 3b
       -0.04196872 0.024045978 0.034078356 0.003764403
0002e0 26 76 05 be 14 b8 03 be 4b c4 d0 3d dd 0c c9 bd
       -0.13033351 -0.12863189 0.1019369 -0.098169066
0002f0 ef 49 77 bd 57 f7 5f 3d a8 ad 3c 3d 61 b0 fa bc
       -0.060373243 0.05467924 0.04606405 -0.030601682
000300 33 3e 8e 3d 6c 7f 0c 3d 77 8f 05 3e 39 a8 14 bd
       0.06945457 0.034301206 0.13043009 -0.036293242
000310 88 24 94 ba 58 0b 9c bc 82 ec 94 3d 08 10 62 3d
       -0.0011302391 -0.019048378 0.07271673 0.05519107
000320 f2 f9 bb 3d 93 62 8f bd a5 42 49 3d 70 9f f6 bd
       0.09178533 -0.070012234 0.049135823 -0.12042129
000330 8d 44 84 bd a1 08 fd 3d 18 9f cd bd d5 b6 d5 3d
       -0.064583875 0.123551615 -0.1004011 0.10435263
000340 0c b3 29 3d 7f 3f 7d bd 95 8a 7c bd b1 c3 85 3d
       0.041430518 -0.061828133 -0.0616556 0.06531466
000350 d4 cb fe 3d 12 31 da bd 6f 6a fc 3d 05 1f 92 3b
       0.12441221 -0.10653891 0.12324988 0.004459264
000360 69 69 bf 3d 68 3c 0e be 49 fb 19 3d dd 8b 1e bd
       0.09346277 -0.1389023 0.03759316 -0.038707603
000370 ee 32 fa bd a6 03 6a 3d 4c e1 9f bd f1 b1 79 3c
       -0.12216745 0.057132386 -0.07806644 0.015240178
000380 84 7d c3 3c a3 a6 b2 bb d2 82 48 bb da e5 11 3e
       0.023863561 -0.0054519936 -0.0030595553 0.14247838
000390 84 42 7b bd 00 69 b5 bd a1 3a 88 bd 3a 86 81 3b
       -0.06134273 -0.08857918 -0.066518076 0.0039527686
0003a0 a9 85 e2 bd a2 8c bc 3d aa 08 af 3d 63 ec 17 3e
       -0.1106065 0.09206511 0.085465744 0.14836268
0003b0 13 b0 42 bd cf 65 df 3c 0c bf 10 3d 89 ff fd 3d
       -0.0475312 0.027270226 0.035338446 0.12402255
0003c0 61 6b 1e bc a1 3f 0c bd 15 c5 69 bd e6 5f c8 bd
       -0.009669156 -0.03424037 -0.057072718 -0.09783916
0003d0 1b 51 71 bc 41 08 71 3d 91 a0 87 3d 42 80 c9 bd
       -0.01472881 0.058845762 0.066224225 -0.09838916
0003e0 54 78 a2 3d da 45 28 3d 81 5b dc bd ef 36 fb 3d
       0.07933107 0.04108224 -0.107596405 0.12266337
0003f0 1e 7d cb bd f3 35 b4 bc 7e 3d 73 3d f7 3e 90 3c
       -0.099359736 -0.021998381 0.059384815 0.017608149

gru.bias_ih_l1 f4 [192]
000000 99 b5 b2 bd 6a 10 fd 3d 51 10 d5 3d 8a fc eb bb
       -0.08726043 0.12356646 0.10403503 -0.007201736
000010 14 17 1a bd 09 df cd bd f4 94 42 3d 9d 1d 35 3d
       -0.037619665 -0.10052306 0.047505334 0.044217695
000020 68 5f 86 3a 4c f5 8f 3d 48 61 88 3c 9e b6 3a bd
       0.0010251822 0.070292085 0.01664795 -0.045584314
000030 e0 ec d4 3c 5b bd e4 bc 91 db ef bd cc 40 89 bd
       0.025991857 -0.027922323 -0.11711801 -0.06701812
000040 c4 7c d3 bd d9 40 d8 bd 1d a7 98 3d 18 a1 f1 bd
       -0.103265315 -0.10559244 0.07453749 -0.11798304
000050 c1 2d cd bd f7 a3 a1 bd 2a 24 f7 3c 00 81 e8 3d
       -0.100184925 -0.07892602 0.030168612 0.1135273
000060 2c aa 78 3d 91 a6 fc bc 1a 79 03 3e 55 38 e7 3d
       0.060709164 -0.030841144 0.12839165 0.11290041
000070 11 31 db 3c 5c 21 d0 3d 17 30 12 3e cd 91 4c 3d
       0.026756795 0.10162613 0.14276157 0.049943734
000080 09 28 26 3d fa 8d 18 3d 63 43 f9 3d ea b2 b8 3d
       0.040565524 0.037244774 0.12171056 0.090185
000090 72 67 a5 3c d8 a0 c4 bd fb 19 57 3d ab 4c 71 3b
       0.020190928 -0.09600991 0.05251501 0.003681938
0000a0 4e a3 dc 3d e3 a8 f0 3d a3 93 00 3e a7 9b e1 bd
       0.107733354 0.117509626 0.12556319 -0.110160165
0000b0 b6 a2 81 3d f3 17 e8 3c 9f 19 f6 3d ed 21 4b bd
       0.06329863 0.028331732 0.120166056 -0.0495929
0000c0 f1 79 1e bb 64 09 81 3d 18 f4 19 3d 80 6c eb 3d
       -0.002418157 0.06300619 0.0375863 0.11495304
0000d0 40 79 d9 3d a1 8e df 3d f1 d7 01 3d 1d 3b c8 3d
       0.1061883 0.10915876 0.03170008 0.097769
0000e0 b7 70 39 bd df 61 1b bd 2b b6 f9 bd 28 53 97 3c
       -0.04527351 -0.037935134 -0.12192949 0.01847227
0000f0 46 a6 e1 bd 61 1b 35 bd d2 1b d6 bd 79 d0 77 bd
       -0.11018042 -0.044215564 -0.10454525 -0.06050155
000100 0f 7a 38 bc 69 15 cb bd 0b 59 ac 3c 6e 92 ec bd
       -0.01125957 -0.09916193 0.021038553 -0.11551367
000110 47 9f 9b bc 2c 55 f3 3b 7a da 94 3d c3 37 48 bc
       -0.018996848 0.0074259248 0.072682336 -0.012220326
000120 6a 71 f6 bd 64 28 2b 3d 75 15 4a bd 81 38 f6 bb
       -0.12033351 0.041786566 -0.04933687 -0.00751406
000130 21 ce d4 3d af 45 cc bc 73 b9 c5 bd 9c 9d 60 3d
       0.103908785 -0.024935571 -0.09654512 0.054837808
000140 bb 3b 2d 3d 46 ce 76 3d 8f 12 c0 bd 04 8b a2 bd
       0.04229329 0.06025531 -0.0937854 -0.079366714
000150 4d 58 d7 3d 68 bf ed 3c 29 3c 17 bd 94 f2 08 bd
       0.10514889 0.029021934 -0.036922608 -0.033434466
000160 aa d0 e7 3c d8 c7 42 3c 0e 3b 0d bc 44 ea 8f 3d
       0.028297741 0.011888467 -0.008620037 0.070271045
000170 be 97 d4 3d a0 7b a7 bd b5 a6 9b bd c4 01 c8 3d
       0.10380505 -0.081778765 -0.07600156 0.09765962
000180 c6 30 31 3d 6f 3d bf bd 38 de d1 bd c1 e0 ea 3c
       0.043259405 -0.093378894 -0.10247463 0.028671624
000190 db 7b de bd 59 54 3a bd b1 67 9b 3d d5 53 08 3d
       -0.10863467 -0.045490596 0.07588137 0.033283073
0001a0 6b 7c cd 3b 1f a8 b8 3d 2e e9 bc 3d 82 17 a6 bd
       0.0062709353 0.090164416 0.09224163 -0.081099525
0001b0 1b f8 1f bd 16 c8 9b 3d 46 84 2c bd 14 42 18 3d
       -0.03905497 0.07606523 -0.042118333 0.037172392
0001c0 46 60 5f bd d3 ec 08 3c a2 8a c9 bb 4d 8e 74 bd
       -0.054535173 0.008357245 -0.0061505595 -0.05970602
0001d0 c0 95 50 bc fd d4 d6 3c 7b a0 c4 bd 26 db 5d bd
       -0.012731016 0.026224608 -0.09600922 -0.054164074
0001e0 ef 8f de bd 47 9e dd 3d 51 5b d4 3d da 19 94 bd
       -0.10867297 0.10821205 0.1036898 -0.07231493
0001f0 88 72 d8 bc a7 0f c0 bd 10 4e 63 3d 62 9a e2 3d
       -0.0264218 -0.093779854 0.055494368 0.110646024
000200 c4 60 ad bd fd d1 6c 3d 2a 12 a6 bc 5b f1 99 bd
       -0.08465722 0.057817448 -0.020272333 -0.07516738
000210 ac f4 2d bd 99 90 81 bd 09 4d 85 3c a8 0b f4 bc
       -0.042469665 -0.06326408 0.016272085 -0.029790714
000220 f8 c0 8a bd 1a c6 f8 3d d2 d0 e5 3a 2e db 01 be
       -0.06775087 0.1214716 0.0017533547 -0.12681267
000230 c7 be 46 3c bc 8f a7 bc af 62 0a 3e e7 4f ac 3c
       0.012130446 -0.02045428 0.13514207 0.021034194
000240 9d 57 d6 3c e3 09 f2 3d f1 da b9 bc c5 5b c0 3d
       0.026164824 0.11818292 -0.022687407 0.09392504
000250 45 8d 4d 3d e4 b9 73 bd 6d 2b e8 3b 9d d3 c5 3d
       0.050183553 -0.05950345 0.007085255 0.09659503
000260 93 88 3c 3c 07 40 7f bd a3 46 03 3e dd 12 66 3d
       0.011507171 -0.06231692 0.12819915 0.056170333
000270 ad e3 b2 bd ca b3 11 be ad 27 d8 3d f4 df 09 3d
       -0.08734832 -0.1422874 0.105544426 0.033660844
000280 9f 1d dd bd a3 7e 0d bd 32 d4 54 3d 49 fa 63 bc
       -0.107966654 -0.0345446 0.051960178 -0.013914653
000290 8f df ed 3d 15 1b 3b 3d b8 12 7e 3d 71 65 f4 bd
       0.11614906 0.045680124 0.06202957 -0.11933411
0002a0 ab b7 99 3d 89 50 05 be 96 0e 5a bd 0a c6 06 3d
       0.07505735 -0.13019003 -0.053236566 0.03290371
0002b0 15 0e 33 3c d6 25 a4 3d 1d d8 0f 3e 42 15 b2 3d
       0.01092865 0.08015029 0.14047284 0.08695461
0002c0 04 0d e1 bc c8 42 a9 bd 0c 11 50 3d 73 8f 11 be
       -0.027472027 -0.08264691 0.050797507 -0.14214878
0002d0 81 38 5c bd 30 e3 c5 bd 6d b3 56 bd b5 0f be bd
       -0.053764824 -0.09662473 -0.052417208 -0.0928034
0002e0 b4 d9 00 be 2a 96 95 bd d9 1b 84 bb 66 c6 78 bd
       -0.12583047 -0.07304032 -0.00403164 -0.060736082
0002f0 8a 38 12 3e c5 db ff 3d 5b 33 a0 3d 35 04 5b bd
       0.1427938 0.124930896 0.07822295 -0.05347081

gru.bias_hh_l1 f4 [192]
000000 39 04 bf 3d e8 a9 ef bb b5 24 1a bd 8d 48 be bd
       0.09326977 -0.0073139556 -0.037632663 -0.09291182
000010 9d 69 05 3e 4b 53 95 bc 0f 49 58 3d 33 0a 8d bd
       0.1302857 -0.018228194 0.05280405 -0.06886711
000020 42 e8 96 3b 0c 60 eb 3d be ae 05 3e ab 9c 2b 3c
       0.004605324 0.11492929 0.1305494 0.010474364
000030 cd 64 7c bd e0 e8 ca 3c e3 6a 9a bd c1 36 ab bd
       -0.06161957 0.024769247 -0.07539918 -0.08360053
000040 8a 31 bd 3d fd 3e d7 3d c2 b5 fc 3d 28 fe 90 3d
       0.092379645 0.10510061 0.12339355 0.070797265
000050 fe 50 68 3a 6b 7d c3 3d dd 61 a6 bd 99 6b bc 3d
       0.00088621664 0.09545406 -0.08124135 0.0920021
000060 de 9d 65 3c 48 da 9f 3d 4a 47 9d 3d b9 cd c3 3d
       0.014014689 0.07805306 0.07679613 0.09560723
000070 f7 61 3b 3b f5 2c 47 bd ba 54 f6 3d 6b 84 8e 3b
       0.0028592327 -0.04862686 0.12027879 0.0043492815
000080 17 e4 8c bd 54 d0 f5 3d 45 1b e0 3b b8 5c 85 bd
       -0.06879442 0.12002626 0.0068391883 -0.06511825
000090 32 55 9e bd db 3b b2 bd 6a 25 bc bc ee 42 a1 3c
       -0.077310935 -0.08702823 -0.02296706 0.019685235
0000a0 28 ff d0 3d f5 16 bc 3d e1 73 3c bc 15 2f aa bd
       0.10204917 0.09184066 -0.011502237 -0.083097614
0000b0 e4 c4 0d 3e 28 81 44 bd 89 d5 d2 3d 94 00 37 3d
       0.13844639 -0.047974735 0.10294635 0.044678286
0000c0 f9 23 55 bd 24 1b 68 bd 8d 39 3c 3c 7f 9a dc bd
       -0.05203626 -0.05666651 0.011488331 -0.10771655
0000d0 aa 04 84 3b a9 3d 45 bd e7 fb d0 bd d3 e4 b5 3d
       0.0040288763 -0.048154507 -0.102042966 0.088815354
0000e0 3e 92 13 bd b6 b1 05 3e 7d 79 3d bd e4 d5 1e bd
       -0.03602814 0.13056073 -0.04625844 -0.0387782
0000f0 b0 e5 99 bd b7 45 86 bd fd 7e bd bd 58 8b ba bd
       -0.075145125 -0.06556266 -0.09252737 -0.09108609
000100 48 b6 0f bd 78 94 3f 3c ee 23 9d bd 49 aa c6 3d
       -0.035085946 0.011693113 -0.07672869 0.09700448
000110 35 a7 93 bd 4c d4 52 3d d4 4b ec 3d f0 8e 1d 3d
       -0.072096266 0.051471993 0.115379006 0.038466394
000120 4d 21 ca 3d 36 ee cb bd b3 d7 d4 3d 9a 02 de 3d
       0.09869633 -0.099575445 0.10392704 0.1084034
000130 ce c3 b5 3d d8 af 73 bd fb af 9a 3d 47 d6 be 3d
       0.088752374 -0.05949387 0.07553097 0.09318214
000140 67 72 a4 ba 6d ad d8 bd c4 69 ca 3d c0 df b0 3d
       -0.0012546302 -0.10579953 0.098834544 0.08636427
000150 d9 f1 91 3c 15 a5 6b bc d5 2b fc bd c5 85 be bc
       0.017815517 -0.01438262 -0.12313048 -0.023257146
000160 75 b9 c5 bc 95 59 2e bb d4 11 c2 bc 82 18 72 3d
       -0.024136284 -0.0026603688 -0.023690142 0.059105404
000170 3b b5 14 bc 44 83 03 3d 51 ae a3 3b ac 83 cb bc
       -0.009076412 0.032107607 0.0049951454 -0.02484306
000180 18 ec e8 bd 32 4c e6 bb 42 1a 00 be 94 28 5e bd
       -0.11373156 -0.007028126 -0.12510017 -0.054237917
000190 71 c0 d9 3d 3b 0a 94 3d 92 1c c4 bd d7 af d6 bc
       0.106324084 0.07228514 -0.09575762 -0.026206894
0001a0 cc 31 4d bd 0c 0e 05 be 2e 12 f9 bc 94 11 c7 bd
       -0.050096318 -0.1299364 -0.030404177 -0.0972015
0001b0 85 fa 79 3d 4d a0 45 bd 6d d2 31 3d 3c 11 32 3d
       0.06102993 -0.048248578 0.04341357 0.043473467
0001c0 38 b3 fa bd 81 a6 6e 3d c6 03 83 bc 18 1c 0d be
       -0.122412145 0.05826426 -0.01599301 -0.13780248
0001d0 3e 69 da 3d ca 4a 02 be 83 af a4 bd 48 f2 c7 3d
       0.106646046 -0.12723842 -0.08041289 0.09763008
0001e0 39 81 a8 3b 70 aa da 3d fb 5f 2f bd c5 b3 d9 bd
       0.0051423577 0.106770396 -0.042816143 -0.106299914
0001f0 7c 33 ce bd 16 ea 51 3d d6 97 78 3d 72 c8 84 bd
       -0.100684136 0.051248632 0.060691677 -0.064835444
000200 79 cc 85 bd 67 1d a6 bd f7 93 c0 3c 1a dc 77 bd
       -0.06533141 -0.08111077 0.023508055 -0.06051264
000210 e9 a0 80 bd 4d af f1 bd fe bd 48 bd f1 84 bb 3c
       -0.06280691 -0.11801014 -0.049009316 0.02289054
000220 20 2f 6f 3c 01 a5 50 3d 9f c3 c3 bc 8a e3 ab 3c
       0.014598638 0.05093861 -0.02389699 0.020982523
000230 58 27 aa bd fd 3d 7f 3d b6 57 8e bd 1a 3f 83 bd
       -0.083082855 0.062314976 -0.06950323 -0.0640852
000240 9e 11 83 bd ec 2d 0e bd 67 8f af 3d 81 08 b3 3b
       -0.063998446 -0.034711763 0.08572274 0.00546366
000250 4f a8 ba bd 63 4b f5 bc 9c 04 4b bd f8 44 9c bd
       -0.091141336 -0.029943174 -0.049564943 -0.07630342
000260 94 f1 d3 bc f7 fe 69 bd 54 92 0f 3e 71 e4 97 3d
       -0.02587203 -0.05712792 0.14020663 0.074166186
000270 93 c7 c3 bd 1a 0c c9 3d c6 c9 f5 bd f3 56 bc 3d
       -0.0955955 0.09816761 -0.12001376 0.09196272
000280 3c 23 46 3d 77 1d 45 bd 4f 83 da bc 16 08 9b 3d
       0.048373446 -0.048123803 -0.026673941 0.07569902
000290 85 8f db bd bd 39 09 3d 1d d6 92 3d 21 7e 0a be
       -0.107207336 0.03350233 0.07169745 -0.13524677
0002a0 fb fa 74 bb 2d ae 89 bd 2e cc dc bd 01 ac e5 bc
       -0.0037381041 -0.067226745 -0.10781132 -0.02803612
0002b0 b7 60 61 bd 03 72 06 3e a6 be 0c 3e d3 64 c2 bd
       -0.055023875 0.1312943 0.13744602 -0.09491887
0002c0 d8 26 cd ba 3f e9 09 be 59 49 be 3d af 5f ea bd
       -0.0015651835 -0.13467883 0.09291334 -0.114440314
0002d0 33 4f 09 be e1 db e1 3d 96 7c e0 bd 77 65 d5 3d
       -0.13409118 0.11028267 -0.10961263 0.104197435
0002e0 32 c3 c0 bd db 36 80 bd 25 1a dc bd ad 75 3d bd
       -0.094122306 -0.06260463 -0.10747174 -0.046254802
0002f0 41 71 6a bd 0d e0 6b 3c 93 5e ca bd c8 f2 f8 3d
       -0.057236914 0.01439668 -0.0988132 0.12155682
