Python_Agent_Hub/ml_pipeline/models/direction_13f_20251128_174933.pt (torch, 245483 bytes, 12 tensors)

weight_ih_l0 f4 [256, 13]
00000000: 3e5b bdbd f8af 133d 122e bd3d 9857 debd
00000010: 003a 9ebb 081d 763d 70e6 cebc 34be d6bd
00000020: 48c3 e73c 506f 793d 5ea6 f7bd c0b9 0bbd
00000030: 007a 95bb 5205 efbd 1807 b43d 5acb b7bd
00000040: 4c37 80bd 9c23 5f3d 14f2 9fbd 00c3 be3c
00000050: 369d abbd 18f8 ba3c 7403 933d c24c aabd
00000060: 840c 35bd be5c 93bd 04b3 0b3d 888a 38bd
00000070: 50b4 cd3d a025 94bb 8469 523d 38a4 b8bc
00000080: 78fb 11bd c0ae 49bb 3263 c33d 0e38 933d
00000090: 18aa dfbc c0c4 2bbb a83e 7abd d60b 873d
000000a0: c2c7 c4bd 947f d0bd d828 bbbc 70c3 a13d
000000b0: 96de f0bd 8ad5 d3bd 9ead bbbd 24ae 093d
000000c0: cc72 78bd 70a4 ec3c 1c12 4dbd 7c32 71bd
000000d0: be86 b2bd 5e4b 9d3d 52b8 f4bd 2421 973d
000000e0: 1071 e4bc fc21 aebd 402c 78bc 0012 bfbb
000000f0: 72a6 ca3d 6092 073c a8b1 103d 946d f5bd
00000100: 70d4 21bd 6a60 d33d 00d3 253c 9020 efbd
00000110: dce9 55bd 5042 e2bc 9896 e13c 24fa d73d
00000120: 0c63 563d fea6 9ebd c6ef 9fbd 44db 45bd
00000130: 8020 853d 0437 40bd c81a 933c 4007 8a3c
00000140: b01b d73c da91 9c3d aa5a 993d 805e 8ebb
00000150: 30cd f33d 221f a33d 4054 ffbb 40d4 6fbc
00000160: a61b f73d d09c 5b3d 24cd b6bd 808d 71bc
00000170: 6435 b6bd 22a5 bd3d 3803 ca3d 18cb c63d
00000180: 80d4 debc 16c2 dcbd 00c0 eebb c49b 2b3d
00000190: 0083 e0ba d0fc 0bbc a0b3 9cbd a0bc dabd
000001a0: 7c04 4cbd 40c0 453b 64bd e73d e485 4bbd
000001b0: 2ab3 9fbd 8a2f edbd c6e7 c2bd 8e81 84bd
000001c0: 3c2d 883d 406e cebb 3857 703d 7641 d03d
000001d0: 68ab bfbd 8e9a 9a3d beb7 cdbd f451 f63d
000001e0: d6b3 a7bd 70a7 7e3d 9099 09bc 7aba b2bd
000001f0: bcfb c63d 40c5 353c 86bf ff3d 12c6 c1bd
00000200: de7c 92bd ec80 dfbd b429 b93d 20d0 2abd
00000210: cec1 e6bd b046 e73c c89a 95bc 601e 86bb
00000220: ec32 7bbd 805d 313b 0ad1 e2bd e242 e53d
00000230: f83a 913c f0b4 20bd 267a e9bd dc43 39bd
00000240: b412 84bd 6ea0 96bd 7e14 84bd 90db b43d
00000250: 48e6 98bd 043e 04bd c60c e83d 382d 1a3d
00000260: 00b3 163d d0d7 063c c41f 673d f017 953d
00000270: 60a9 cfbd 00ad e5bb 30f0 f33d 3cca adbd
00000280: f804 e5bd b060 00bd 4040 4cbb 3e99 e33d
00000290: 50ad 85bc 6028 72bc 043b aa3d ba86 d7bd
000002a0: 0ee2 bf3d f8ae 86bc 8060 dd3b e0c4 a9bb
000002b0: 5c4d 443d c6ad eebd 3014 54bd 0c92 0fbd
000002c0: 9420 30bd e433 dbbd 0e89 dfbd 1e2a 90bd
000002d0: 1818 55bd e0f2 d03c 7042 4f3c e807 b6bc
000002e0: 00a1 91bb 80fb bc3a 66fe ca3d 7001 79bd
000002f0: 98da cabd 107a cbbc 74ce 32bd 04da 62bd
00000300: ac6b 573d c2a9 c03d b48d 333d 9808 af3d
00000310: 88e4 c03d 0aa2 b2bd 5a67 f4bd 3460 673d
00000320: 88b7 b43c 4037 f4bc 5841 6a3d c8ab fc3d
00000330: f0a0 dbbc 3453 63bd 06a3 af3d b0af 42bd
00000340: 0c27 173d 1038 1dbd a20c a5bd 208e b1bb
00000350: 6c05 47bd 0063 b0bc dc13 0a3d ac27 a43d
00000360: 602f abbb 2673 d2bd 188b fc3c 0008 f3b9
00000370: e085 9bbb a844 f4bd 44b8 173d 047a e5bd
00000380: 7246 dcbd 64d4 f1bd 6aac 9b3d 3e87 d93d
00000390: 5cf2 c13d 14a7 61bd c470 c0bd c09f d33c
000003a0: b850 ccbd 54b5 353d 70f5 8cbd 4031 863c
000003b0: e089 6f3d 42bc a5bd 183b fe3c a6a8 d0bd
000003c0: 4a2f efbd ac0a c9bd c890 1ebd 3cee 4e3d
000003d0: b026 393d a8d8 e5bd 9438 a73d 4ab9 ebbd
000003e0: e4e9 3ebd 44cd 16bd b8b5 5ebd ac5c 873d
000003f0: 1473 383d 0c46 34bd 942d a03d cc8a c53d
-0.09245919 0.03605649 0.09237303 -0.10856551 -0.0048286915 0.06008628 -0.025256366 -0.10485497
0.02829136 0.06089717 -0.12092279 -0.034112692 -0.0045616627 -0.11670937 0.087904155 -0.08974333
-0.06260547 0.05447732 -0.078098446 0.023286343 -0.08379595 0.022823378 0.07178393 -0.08315422
-0.04420139 -0.071954235 0.03410627 -0.04505399 0.100441575 -0.004521087 0.05137016 -0.022539243
-0.03564021 -0.0030774325 0.095404044 0.07188426 -0.027302787 -0.0026209801 -0.06109491 0.065940544
-0.09608413 -0.101805836 -0.022846624 0.07898605 -0.11761205 -0.10343464 -0.09163974 0.03361334
-0.060656354 0.028887004 -0.0500661 -0.058886036 -0.08717106 0.07680391 -0.11949219 0.07379368
-0.027885944 -0.08502576 -0.015147269 -0.005831003 0.09895028 0.008274645 0.035325676 -0.11983791
-0.039509237 0.10321124 0.010121107 -0.11676133 -0.05222498 -0.02761951 0.027537629 0.105457574
0.052340552 -0.07746695 -0.07809405 -0.04830481 0.065003395 -0.046927467 0.017957106 0.01684916
0.02625832 0.076450065 0.07487996 -0.0043447614 0.11904371 0.079649225 -0.007792026 -0.014638007
0.120658204 0.053616345 -0.08925846 -0.014743209 -0.08896902 0.09260012 0.09863895 0.09706706
-0.027200937 -0.107792065 -0.007286072 0.041896597 -0.0017128885 -0.008544162 -0.07651448 -0.106805086
-0.049808964 0.0030174404 0.1131542 -0.049688235 -0.07797845 -0.11581333 -0.095168635 -0.06470023
0.06649253 -0.006299764 0.05867693 0.10168736 -0.09358865 0.0754901 -0.10044812 0.1202735
-0.08188598 0.0621714 -0.008398429 -0.08726974 0.09715983 0.011094391 0.12487702 -0.09461607
-0.07152723 -0.10913262 0.09041157 -0.04170239 -0.11267434 0.028231949 -0.018262282 -0.0040929765
-0.06132786 0.0027063787 -0.11075027 0.111943975 0.017728314 -0.039235055 -0.11400251 -0.04523073
-0.0644888 -0.07354818 -0.06449221 0.08830941 -0.07465798 -0.032285705 0.11330561 0.03764078
0.0367918 0.008230165 0.05642678 0.07279956 -0.101397276 -0.0070091486 0.119110465 -0.08485839
-0.11182588 -0.03134221 -0.0031166226 0.11113213 -0.016317993 -0.014780134 0.083120376 -0.10523744
0.093692884 -0.016440853 0.0067558885 -0.00518094 0.04792534 -0.116542384 -0.051777065 -0.03505139
-0.04299982 -0.10703257 -0.10914813 -0.07039283 -0.05202493 0.025506437 0.012650117 -0.022220567
-0.0044442415 0.0014418215 0.09911804 -0.060792387 -0.09904975 -0.024838477 -0.04365392 -0.055383697
0.05259292 0.09407379 0.04383631 0.08546561 0.09418589 -0.08722313 -0.11933775 0.05648823
0.02206017 -0.029811502 0.057191223 0.12337452 -0.02681014 -0.05549927 0.08576016 -0.04753083
0.036902472 -0.038383543 -0.0805905 -0.005418554 -0.048589155 -0.021531582 0.033710346 0.08015379
-0.0052241534 -0.10275869 0.030828044 -0.00046354532 -0.0047461838 -0.11927158 0.037040964 -0.11204913
-0.10755624 -0.118080884 0.07601245 0.106214985 0.094700545 -0.05509098 -0.09396508 0.02583301
-0.099763334 0.04436238 -0.06882751 0.016380906 0.058481097 -0.08092548 0.031034037 -0.10188417
-0.116789415 -0.098164886 -0.038712293 0.050520167 0.04520291 -0.112229645 0.08165088 -0.115099505
-0.046609774 -0.03681685 -0.05437252 0.06609473 0.045031622 -0.044012114 0.07821193 0.09645614

weight_hh_l0 f4 [256, 64]
00000000: fe98 db3d 80af 373b fab3 b8bd 581d 9e3d
00000010: 70d8 3ebd 00a3 8d3b d46b 2c3d 00bc d3bd
00000020: 6cd1 1dbd b078 3b3d 5027 54bc 2005 e4bb
00000030: 32d3 f0bd d034 89bd 982b 733d 3663 94bd
00000040: 0099 953d f473 19bd f2cb a83d f005 4abd
00000050: a8c2 b8bd b010 d2bc 0035 ceba 2cf3 0a3d
00000060: 16a1 debd a02d cd3b 389a b3bd a093 12bd
00000070: e465 9f3d 70d3 8e3d 62c5 f43d 78f4 d7bd
00000080: bccc 94bd 7870 67bd 3899 d6bc e8c4 f83c
00000090: e0df 0cbd 2041 e03d a03e 10bc 6473 21bd
000000a0: 8032 c33d c045 dc3c d2bb 843d 3c0b ca3d
000000b0: 7406 dfbd c88f d8bc 90e7 113d 5ed0 98bd
000000c0: 7612 adbd 301f 2fbc c4b7 56bd 804d 1a3d
000000d0: c087 d0bd f226 e4bd 5ed4 9e3d d835 abbd
000000e0: dc77 fdbd 5ae5 90bd 4267 a23d fe6c a8bd
000000f0: 4c9a adbd 58cf c2bd 0e49 d03d 802f 8abb
00000100: 8021 01bd 281e 0abd f081 723c dcaf 5cbd
00000110: 50f6 063d 8490 11bd 0479 75bd 5493 c13d
00000120: f844 a93d d83d c6bc e086 1bbc 0873 43bd
00000130: 568c 8f3d 52e8 afbd 08c7 aa3d e057 33bd
00000140: 0820 06bd c895 de3d c8bb 5b3d 3446 5fbd
00000150: 083a a1bd 006d d6bb d660 db3d 8898 f63d
00000160: 28b4 5fbd f2f8 f1bd 5c4f 7abd 0e4a a33d
00000170: 102f fa3d bcac af3d c4cf 9bbd 72ed c6bd
00000180: f24b f1bd 581d db3d 105d d5bd 8087 97bb
00000190: dab2 fe3d d63a d8bd a01c 123d bc35 38bd
000001a0: ce4c c2bd a45d 1b3d 384b 413d 400a fb3d
000001b0: 5ee3 c53d 9009 cc3c 98b9 debd 7eff e23d
000001c0: 80c9 983a 5886 c43d eaec c83d d006 a93c
000001d0: 169e c9bd c298 9f3d a67c dc3d ec5f 12bd
000001e0: 3c23 403d c63d e63d 8005 d6bc be6c d53d
000001f0: 8c70 f33d 78df cabc d8e5 ca3c 0c8d b73d
00000200: e06f e1bd 4808 a7bc 2048 bd3c 6862 eebc
00000210: ba5b ef3d 8a3a 9d3d 762c f13d 8cdf 41bd
00000220: c47a 4abd 80b6 693c 3218 ff3d 607b ec3b
00000230: 8e5d 9fbd 321b 953d 8028 3abc c8e8 c6bd
00000240: cc18 b9bd fca7 e83d 8c1d 753d 4c94 73bd
00000250: b451 87bd ec1c d73d ba23 ae3d b02e a9bc
00000260: 1046 5d3c 247a 903d ee67 f73d b42b 883d
00000270: 6221 d03d b0a5 043c 5ce5 343d 26fe b0bd
00000280: b2a6 e03d b081 35bd ecf4 0c3d 7867 ea3d
00000290: 8cf3 273d 40dc 793c 4c0f 483d 3059 25bc
000002a0: 3073 babc 12f3 d63d c081 edbc e0a0 eabc
000002b0: 72aa e4bd a050 9cbd 044a 34bd d077 f43c
000002c0: dac6 8cbd 3865 2cbd 409f 46bb a6c1 c43d
000002d0: 88f8 01bd 90a9 b8bd a0f3 bd3c ac07 583d
000002e0: 4473 ffbd b8c4 c8bc e8f3 8d3d 70a6 e8bc
000002f0: b8b3 0e3d b2a2 ccbd 58ee d2bd 30c2 9b3d
00000300: f455 743d c45e 70bd 38ae 6dbd 3c45 003d
00000310: a814 da3c 4ea1 c43d 06c6 f2bd 688f d1bc
00000320: 5cb0 8ebd 688f 023d 6017 a73c acdb 58bd
00000330: c636 a63d e40b 793d 8ca1 0e3d 0a28 bb3d
00000340: 923d 9b3d c84d 8b3d 306b 40bc e02b 86bd
00000350: e017 873d 0474 463d 68b8 6cbd 7020 3e3d
00000360: a622 95bd e0de 58bd 1061 963c 80cf f0bb
00000370: a0db 883c a0be 323c 009c cfbc 74d7 a3bd
00000380: 40a9 2cbb 049a 483d be5f dfbd 721f 84bd
00000390: 18ca e0bd a2de 853d 50ac 3d3c b874 a33d
000003a0: ccc2 4fbd fc24 7f3d 2057 dbbb 70ca 0a3c
000003b0: f8e7 31bd a8d0 5e3d c05d 1dbd 605d a7bb
000003c0: 0683 9a3d 0aec d43d bc63 18bd 8052 c33a
000003d0: 2621 923d c00b ff3c 742c a9bd 406b 1bbc
000003e0: 5c44 9b3d d48c 9b3d 02fc a3bd 8816 163d
000003f0: c835 b23c 7c9b 5d3d 6066 53bd 86a6 b03d
0.1072254 0.002802819 -0.09018703 0.077204406 -0.04659313 0.0043224096 0.04209502 -0.103385925
-0.0385298 0.045769393 -0.012948826 -0.0069586188 -0.11759032 -0.06699526 0.059367746 -0.072454855
0.07304573 -0.037464097 0.082420245 -0.04932207 -0.09021503 -0.025642723 -0.0015732348 0.033923313
-0.108705685 0.0062615424 -0.08769649 -0.035785317 0.07783106 0.06973922 0.1195171 -0.105446756
-0.072656125 -0.056503743 -0.026196107 0.03036733 -0.03439319 0.109499216 -0.008803993 -0.039416686
0.095311165 0.026888728 0.064811364 0.09865424 -0.10889903 -0.026435748 0.035621226 -0.07461618
-0.08450787 -0.010688588 -0.052421346 0.037671566 -0.10182142 -0.11140241 0.077553496 -0.08359879
-0.12376377 -0.07074995 0.07929851 -0.082239136 -0.084766954 -0.09512204 0.10170184 -0.004217088
-0.03152609 -0.033720165 0.014801487 -0.05387865 0.032949746 -0.03553821 -0.059929863 0.09451929
0.08265108 -0.024199411 -0.009492606 -0.047717124 0.07009189 -0.085892335 0.083387434 -0.043784976
-0.03274539 0.10868412 0.05364588 -0.05451031 -0.07872397 -0.0065437555 0.10711829 0.12040812
-0.05461517 -0.11815061 -0.06111084 0.07973109 0.12216008 0.08577868 -0.076079875 -0.09713258
-0.117820635 0.10698956 -0.10418141 -0.004624307 0.12436457 -0.10558097 0.03567183 -0.04497312
-0.094873056 0.0379311 0.047190875 0.122578144 0.096625075 0.024906904 -0.10875243 0.110838875
0.0011656731 0.095959365 0.09810813 0.020633131 -0.098446056 0.07792808 0.10765962 -0.03573601
0.046908602 0.11242251 -0.02612567 0.104211316 0.11886701 -0.024764761 0.024767801 0.089624494
-0.110076666 -0.020389691 0.023105681 -0.029099658 0.11687417 0.07677181 0.117760584 -0.04733233
-0.049433485 0.014264703 0.12455787 0.007216856 -0.07781516 0.07280578 -0.011362195 -0.09712368
-0.09037933 0.113601655 0.05984263 -0.0594676 -0.066073805 0.10503563 0.08502908 -0.020652145
0.013505474 0.070545465 0.1208037 0.06648961 0.10162617 0.008096144 0.044164047 -0.08642225
0.109692946 -0.044313133 0.034413263 0.11445516 0.04100375 0.015250266 0.048842713 -0.010092065
-0.022760004 0.10495581 -0.028992534 -0.028641164 -0.11165322 -0.076325655 -0.0440159 0.029842287
-0.068738654 -0.042088717 -0.0030307323 0.09607248 -0.03173116 -0.090167165 0.023187459 0.05274169
-0.12473157 -0.024507865 0.06931287 -0.028399676 0.034839362 -0.09991969 -0.10299367 0.07605398
0.059652284 -0.058684126 -0.058027476 0.031316027 0.026621178 0.09601079 -0.11854176 -0.025581077
-0.06967232 0.031875044 0.020396888 -0.05294387 0.08115916 0.060802355 0.03482203 0.09138496
0.07580103 0.06801945 -0.0117443055 -0.06551337 0.06596351 0.048450485 -0.05779305 0.046417654
-0.07281999 -0.052946925 0.01835683 -0.0073489547 0.016706288 0.010909706 -0.025342941 -0.08000079
-0.0026345998 0.048975006 -0.10906933 -0.0645131 -0.10976046 0.065366045 0.011576727 0.07981247
-0.050722882 0.06229113 -0.0066937357 0.008471116 -0.043434113 0.05439821 -0.038419485 -0.0051075667
0.07544522 0.103965834 -0.03720449 0.0014901906 0.07135229 0.031133533 -0.08260432 -0.00948602
0.07581398 0.0759522 -0.08007051 0.03664258 0.02175416 0.05410336 -0.051611304 0.08625512

bias_ih_l0 f4 [256]
00000000: 8cf7 bbbd fc75 7dbd 6449 a83d de5e a73d
00000010: 7a43 babd 3410 0e3d 382c fe3c 82c3 e9bd
00000020: 66b3 cd3d b8ee af3c be43 f43d 7498 a73d
00000030: 56c5 ee3d 54ca 5f3d a888 013d 5a56 fa3d
00000040: d053 b33c 880c a7bd 6cba 2bbd c48f dbbd
00000050: 6cd5 11bd a0c7 fa3c 820e a0bd f03b 0dbc
00000060: 6880 b7bd 007c 6cbb 906b 433c cc72 383d
00000070: bee7 883d 6020 923c f291 e63d 1ee0 cebd
00000080: 2c4d f0bd a061 81bb 0ac5 d8bd d4dc 613d
00000090: 388e 5f3d 40d8 983d 8002 793d 9e1b efbd
000000a0: 66f6 d8bd 7a65 923d caab ea3d dcd9 a83d
000000b0: ac4c 863d c81b 18bd 62cd 9b3d baa5 a93d
000000c0: c095 be3d 2e7c d33d 2033 2e3d 2802 d6bd
000000d0: 14ed 83bd d81f 48bd 280b a53d 3082 c03d
000000e0: fc16 0a3d f8f6 f9bc 38c4 50bd c01c bbbc
000000f0: 388a 903c fc7a 0e3d 6667 f33d d417 c3bd
00000100: 6c85 50bd a8cc dfbd 5850 2cbd c2e3 a43d
00000110: 98da 863d 9649 933d 501f ea3c 540d 1b3d
00000120: 2c03 8c3d d873 21bd 7ce0 153d 905e 4abc
00000130: 1807 a6bc 8022 a13c f00f 6a3c a65f b1bd
00000140: 00c8 a5bd 5cf3 7abd ccbf 033d 608c c6bd
00000150: 04c8 21bd 2ec9 f8bd a02f a63b 5a82 af3d
00000160: ce55 813d d8c1 1ebd 00d5 f63b 905e d5bc
00000170: 902d d0bc 96f8 ccbd f063 e83d 0069 eb3a
00000180: 5887 43bd c079 8fbc 9074 f0bd b411 cd3d
00000190: 2045 b03d 6466 8b3d 9c5d 95bd 20e1 d23c
000001a0: fccb 94bd 5492 953d 0c2c 5b3d b03d 403d
000001b0: 7e6e abbd e296 863d 4275 b93d 887a da3c
000001c0: 141b d03d 9092 883d f0c3 70bd 3cc5 57bd
000001d0: 585c c63d b8b4 c43c e26a acbd 6a4a 8f3d
000001e0: 5aab d4bd d835 94bd 6030 703d 8091 e63b
000001f0: 6296 a5bd 80ed 8c3c 0c01 613d b842 aa3d
00000200: 6216 903d 3216 fc3d 4880 98bc 78e8 eabc
00000210: 2869 9a3c 94cc c93d 9c0e 863d d842 e5bd
00000220: 38a9 593d c416 683d 74bb f3bd a063 753c
00000230: d8dd b23c aa88 cbbd aa9a f2bd eab8 81bd
00000240: 1efb b73d 9ad7 cfbd 44ec e13d 5885 b9bc
00000250: b606 dabd 984e c6bd 700c a1bd caf5 f13d
00000260: 765c 81bd 400f 46bb c84b 2a3d fcf0 64bd
00000270: bc0b 483d 9217 8a3d 9c0a 55bd 2e26 ddbd
00000280: 6847 16bd 185b eb3c 4858 a03c 6ab1 ca3d
00000290: 3071 41bc 2070 eb3c b841 513d 8081 ee3c
000002a0: 7467 b73d 00ca 36bb 4c0b 1ebd 34a0 9d3d
000002b0: aa91 813d eca4 12bd cea1 94bd d888 b43d
000002c0: 5c58 4a3d 7006 ef3c 6830 ae3c a8f9 cdbd
000002d0: 12b2 d8bd 00fb 7d3c 1035 d83c 6c3a 8fbd
000002e0: 9cb4 e1bd ae92 abbd 5881 973c d0f3 423d
000002f0: 0433 2cbd 5462 45bd b659 b6bd 02e2 84bd
00000300: da17 db3d d8dc 253d f69b 873d 4e4f fcbd
00000310: 4674 e9bd 5c9d ae3d 0c9e 00bd e09b 14bd
00000320: 24e8 593d 241f f23d 746a 89bd 26e4 de3d
00000330: 366b 82bd 4c50 553d 7823 28bd 6e59 e83d
00000340: b8a3 8dbd 6c17 6e3d 9c1a 11bd 34e9 963d
00000350: acec 443d 5472 883d 146f fcbd 2a66 f2bd
00000360: a4da 6a3d 8063 55bd a6be 82bd 4453 633d
00000370: 288f 893d 2800 a93d 0899 5b3d 166b 89bd
00000380: faf5 f2bd 588c acbd 6c68 77bd 3e9f a6bd
00000390: ec27 f8bd e8a2 0dbd e23e ac3d 0a84 a1bd
000003a0: f800 a0bc e483 c73d 3abf f33d b867 a8bd
000003b0: 2a21 d03d e0d8 9d3d bc08 203d 60d2 abbd
000003c0: 805e c4bd f8a9 ba3c 20e8 0abd 66da 80bd
000003d0: 46a0 ab3d acb0 a53d 38e5 c5bc 907e 283c
000003e0: 3e17 d73d 4048 debb 662a fd3d 5a1e f0bd
000003f0: 80b7 8c3a e621 8dbd c0be cfbc c262 e2bd
-0.09178075 -0.061880097 0.08217123 0.08172391 -0.090949014 0.03468342 0.031026945 -0.11414243
0.10043983 0.021476135 0.11926983 0.08183375 0.116587326 0.054636315 0.031624466 0.122235015
0.02189055 -0.08156687 -0.041925833 -0.107207805 -0.035603926 0.030612767 -0.07815267 -0.008620247
-0.089600384 -0.0036084652 0.0119275 0.045031354 0.06684826 0.017837703 0.112583056 -0.10101341
-0.11733469 -0.0039484054 -0.10584457 0.05514224 0.05457899 0.074631214 0.0607934 -0.116751894
-0.10593872 0.07148261 0.114585474 0.082446784 0.06557593 -0.03713587 0.07607533 0.08283563
0.09305906 0.1032642 0.042529225 -0.1044963 -0.064417034 -0.048858494 0.080587685 0.09399831
0.033713326 -0.030513272 -0.05096838 -0.022840858 0.017644033 0.034785256 0.11884956 -0.09526029
-0.05090849 -0.10927707 -0.04206881 0.08051254 0.06584662 0.0719177 0.028579384 0.037854508
0.068365425 -0.039417118 0.036591038 -0.012351647 -0.020267054 0.019669771 0.014286026 -0.086608216
-0.080947876 -0.06126724 0.032165334 -0.09694743 -0.03949739 -0.12147747 0.0050715953 0.085697845
0.06315194 -0.038759083 0.007532716 -0.026046067 -0.02541235 -0.100083515 0.113471866 0.001796037
-0.047736496 -0.01751411 -0.117409825 0.10013142 0.086069345 0.06806639 -0.07293245 0.025742114
-0.072654694 0.073033005 0.053508803 0.04693383 -0.08370684 0.06571747 0.09055568 0.026669756
0.10161415 0.066685796 -0.05878061 -0.05267833 0.09685582 0.024011955 -0.08418824 0.06996615
-0.10384245 -0.072368324 0.058639884 0.007036388 -0.08085324 0.017203093 0.05493264 0.08313507
0.07035519 0.12308921 -0.018615857 -0.028675303 0.01884897 0.09853473 0.06545755 -0.1119439
0.053139895 0.056662336 -0.11900988 0.014977366 0.021834299 -0.09938176 -0.11845906 -0.06334098
0.08983444 -0.101485446 0.11031392 -0.022646591 -0.10645811 -0.09682959 -0.078637004 0.11814459
-0.06316464 -0.0030221492 0.041576177 -0.055893883 0.048839316 0.06742777 -0.05201207 -0.10798298
-0.036689192 0.02872996 0.019573346 0.0989712 -0.011806771 0.028739989 0.051088065 0.029114485
0.08955279 -0.0027891397 -0.038584992 0.07696572 0.06326611 -0.035801813 -0.07257424 0.088151634
0.049400672 0.029177874 0.021263316 -0.10057384 -0.10580839 0.015501738 0.02639249 -0.06993565
-0.11020777 -0.08377586 0.018494293 0.0475958 -0.04204084 -0.048189476 -0.0890383 -0.0648842
0.10697909 0.040493816 0.06621544 -0.12319814 -0.113991305 0.08526108 -0.031400725 -0.036281466
0.053199902 0.11822346 -0.067097574 0.108833596 -0.06368105 0.05207853 -0.04104945 0.11345182
-0.069159925 0.058127806 -0.035425767 0.07368699 0.04807727 0.06662431 -0.12325874 -0.118358925
0.05733742 -0.052096844 -0.063840196 0.05549933 0.06716758 0.08251983 0.05361274 -0.06709878
-0.118633226 -0.08425206 -0.06040232 -0.08135842 -0.121169895 -0.034579188 0.084104314 -0.078865126
-0.019531712 0.09741953 0.11901708 -0.08222908 0.101625755 0.07707381 0.03907083 -0.08389735
-0.09588337 0.022786126 -0.033912778 -0.06291656 0.08380179 0.08090338 -0.024157152 0.010284081
0.1050248 -0.006783515 0.123616025 -0.11724539 0.001073584 -0.06891231 -0.025359511 -0.11053993

bias_hh_l0 f4 [256]
00000000: 2020 cabc 7cd7 2d3d 5a2a b73d 6e4a b2bd
00000010: f0b1 073c 983a 323d 7e6b e0bd 0a4e 85bd
00000020: 809a 9fbd 66c8 fd3d 965e 80bd c810 c63c
00000030: 5011 4c3d 1ab2 bebd 6c8b 493d 46af d0bd
00000040: c814 d5bd e8ec be3d 407b 9e3d d8e2 cebc
00000050: 40ee 383c 8073 813b 6012 73bd 74cd be3d
00000060: 30f9 f9bd f470 3bbd d83c eebc e401 803d
00000070: fa8d c4bd b0f2 5e3d 181c 39bd 7816 05bd
00000080: f89b f8bc 6021 df3b 64e8 3fbd 6a42 a63d
00000090: 3cd6 213d 6881 9c3d e01b 463d 3c63 3b3d
000000a0: d691 fb3d e80a 60bd fc2f 6dbd 0078 dd3a
000000b0: a283 c0bd 6603 e7bd 52e0 b43d e4f8 303d
000000c0: 7a00 c3bd 1058 7abc 0c99 623d 00d1 bb3b
000000d0: 20d7 c03d e8e3 ddbc 9874 f13c 60e6 9a3d
000000e0: 58c8 5ebd 2846 eebd b082 193d 14ea 523d
000000f0: 48bc 723d 7ec0 cebd 6096 38bd feee edbd
00000100: 2efd b83d 380f b63d f8c5 7dbd b467 ba3d
00000110: aead f7bd e49e fcbd b85a e8bc 7644 da3d
00000120: 8ea3 8fbd 40d3 613c 0021 643d 5c4e 82bd
00000130: e4dd ebbd 60ce c83d e0c2 06bc de81 f63d
00000140: d441 983d f678 dabd 100b bb3c d0a3 1b3d
00000150: 9840 213d fcf6 5d3d 8017 e83c 9455 c8bd
00000160: da08 bebd c273 de3d 9e8d bcbd 68b8 e73c
00000170: 70cf c83d 6017 f93b a05b fa3b b8da 59bd
00000180: acdd 73bd 64e3 37bd 4cdb c6bd c684 dd3d
00000190: ae11 c7bd 64e5 61bd 1042 4fbd dc01 013d
000001a0: 4878 9ebd 84c3 b1bd 0852 e83d d21f db3d
000001b0: 3883 903c 80c8 a03d 6210 99bd c023 35bc
000001c0: c80b 96bc 0870 b3bc ae58 f2bd d846 a9bc
000001d0: b817 b33d 28ea 64bd 34eb 82bd 401a 3a3c
000001e0: 2062 653c 883b 443d 44f6 37bd e08b d43b
000001f0: f0ad 0c3d fe54 b33d 1c05 97bd 4035 983b
00000200: 6aa5 aebd 8217 ae3d 300f cbbd 6805 f83c
00000210: c42f 5fbd ec15 42bd deb9 94bd 20ac da3b
00000220: 6882 be3c 406d 0b3c 28b0 cfbc 7806 d43d
00000230: ac84 30bd 704a cc3c 00d4 0ebc 68ff b7bc
00000240: 08fd 3bbd 12d3 953d 9281 fc3d 66ef b4bd
00000250: 9015 4cbd 02b6 c83d 52db a33d de9b 823d
00000260: 00ef 06bd e09f dfbd 2080 efbb 8877 c7bd
00000270: 70c3 02bc fc01 663d 6a2e 80bd bc01 2c3d
00000280: c8c3 673d e69e 843d c681 c6bd 0001 0e3a
00000290: acd6 cebd 54e0 c6bd 8856 cd3c 2011 88bd
000002a0: 9208 a7bd 0055 ef3c 20da 6e3c 1e2e aabd
000002b0: 70c6 77bd 72cd c03d 94a6 e83d 443e 343d
000002c0: 6aa1 fb3d e0c7 a83c 8095 f83a 84e9 253d
000002d0: e06c df3c 403c 2c3b c054 cdbb 5466 86bd
000002e0: 30ff 4dbd c42e 213d d8f6 923c e0f6 d83c
000002f0: e8c2 ac3c 68a9 59bd 684f ef3c 6070 b6bd
00000300: c89b e5bd 0026 25ba a2e0 8a3d f2da cebd
00000310: 4aa0 a1bd b4a6 3f3d 881b 72bd bcc9 bdbd
00000320: 34eb 7c3d 286e 3f3d 3cb0 bc3d 7c68 e03d
00000330: f881 17bd 5217 863d c858 8ebd 787f c93d
00000340: 1efe b2bd b654 913d 6a14 fc3d 80a4 51bd
00000350: 009a dfbd a0ce 2cbc 103d f8bd fa47 8f3d
00000360: cab2 fabd 2c16 f63d a407 d13d 5c23 853d
00000370: 60fe a33d 48f7 9e3d 5e3e e8bd 6e82 f7bd
00000380: e008 483d 004e fb3a f23f ab3d a42b 62bd
00000390: 48e5 c13d 0023 983a ac68 db3d ca02 9e3d
000003a0: 28ec 11bd 80f3 31bc 84ca c83d c06f 77bb
000003b0: b812 a63d a065 583d 24e3 56bd 4a96 dfbd
000003c0: f8f3 b4bd ec38 26bd 2ac4 b5bd a875 f13d
000003d0: 3461 d03d 520b b7bd 280f 01bd 2c0d b03d
000003e0: 0c32 703d e44e f23d be04 a3bd 3c4c 85bd
000003f0: f4aa 2cbd 9c4a 02bd 0817 fabc f6b1 90bd
-0.024673522 0.04244183 0.08943625 -0.087056026 0.00828217 0.04351291 -0.109580025 -0.065090254
-0.077931404 0.123917386 -0.06268041 0.024177924 0.049821198 -0.09311314 0.04920523 -0.10189681
-0.10404354 0.0932253 0.07738352 -0.025254652 0.011287272 0.0039505363 -0.059343696 0.09316531
-0.12205732 -0.045762017 -0.029081747 0.062503606 -0.095973924 0.054430664 -0.045192808 -0.03249213
-0.03034781 0.0068093985 -0.046852484 0.08118136 0.03951095 0.0764187 0.048366427 0.045748934
0.122836754 -0.0546979 -0.05790709 0.0016896725 -0.09400107 -0.11279945 0.08831848 0.04320611
-0.09521575 -0.015279785 0.055321738 0.005731702 0.09416032 -0.027086213 0.029474542 0.07563472
-0.05439028 -0.11634475 0.03747815 0.051492766 0.05926159 -0.10095309 -0.045065284 -0.1161785
0.09032665 0.088896215 -0.061956376 0.09101811 -0.12093674 -0.123349935 -0.02836357 0.10657589
-0.070136175 0.013783276 0.055695534 -0.06362602 -0.11516932 0.09804988 -0.008225173 0.12036489
0.07434431 -0.10667603 0.022832423 0.03799802 0.039368242 0.05419062 0.028331518 -0.09781948
-0.09279032 0.10861923 -0.09206699 0.028286174 0.098051906 0.0076016635 0.007640317 -0.053187102
-0.059537575 -0.04489459 -0.09709796 0.1081634 -0.09720169 -0.055150405 -0.05060011 0.031495914
-0.077377856 -0.0867987 0.11343771 0.106994286 0.017640695 0.07850742 -0.07473828 -0.011055887
-0.018316165 -0.021904007 -0.118333206 -0.020663664 0.08744758 -0.05588737 -0.06392518 0.011358798
0.014000446 0.047908336 -0.04491259 0.006486401 0.034345567 0.08756445 -0.073740214 0.00464502
-0.08527644 0.085005775 -0.09915006 0.030276015 -0.054488912 -0.047384188 -0.07262014 0.006673351
0.023255542 0.008509934 -0.025352553 0.10352796 -0.043095276 0.024937838 -0.008717537 -0.022460654
-0.045895606 0.07315649 0.12329401 -0.08834724 -0.04982525 0.0980034 0.080008164 0.063773856
-0.032942772 -0.109191656 -0.007308975 -0.09739596 -0.007981166 0.056154236 -0.06258853 0.04199384
0.056583196 0.0647562 -0.09692721 0.0005417019 -0.10099539 -0.09710756 0.025065675 -0.06643891
-0.081559315 0.029215336 0.014578372 -0.083095774 -0.06049198 0.094141856 0.11359897 0.044004694
0.12286647 0.02060312 0.0018965453 0.0405059 0.027273595 0.002628103 -0.0062662065 -0.06562486
-0.050292194 0.03935124 0.01793997 0.026484907 0.021089032 -0.053140074 0.029212669 -0.089081526
-0.112113535 -0.0006299913 0.067811266 -0.10100354 -0.07891901 0.04678984 -0.059108287 -0.092669934
0.061747745 0.046735913 0.092133015 0.10957429 -0.036989182 0.06547417 -0.069505274 0.09838766
-0.08739875 0.070962355 0.12308581 -0.05118227 -0.10918045 -0.01054731 -0.12121022 0.0699615
-0.122411326 0.12015948 0.102065355 0.06500885 0.080075026 0.07762009 -0.113400206 -0.12085424
0.04883659 0.0019173026 0.08361806 -0.0552174 0.0946756 0.001160711 0.10713324 0.07715376
-0.035625607 -0.010861278 0.09804252 -0.0037755817 0.08109039 0.052831292 -0.052462712 -0.10917337
-0.08835596 -0.04058163 -0.08875306 0.11790019 0.1017479 -0.08937706 -0.031508595 0.08596262
0.05864148 0.118314534 -0.07959889 -0.06508681 -0.04215522 -0.031809434 -0.03052856 -0.07065193

weight_ih_l1 f4 [256, 64]
00000000: f06a a0bd 482d 6fbd 50bf cd3c dec2 ce3d
00000010: 92a9 c1bd 0ca4 db3d 9221 d9bd 12d8 b7bd
00000020: 6088 6b3c a899 02bd 8834 af3d eefb d5bd
00000030: 98c6 903c beb2 a1bd 141d a9bd a8fc eebc
00000040: 687a b9bc 0256 c13d 784a f83d 8826 ffbc
00000050: 60b3 99bc 06df d53d 508d e73d 204a cdbb
00000060: 20a2 f63b 0c97 01bd 48eb 8dbc 182e b83d
00000070: 18b9 c2bd 9030 49bc c8f0 cdbd 2ea6 cabd
00000080: e41e e63d f840 f8bd 0c9d 60bd 2875 283d
00000090: 1870 ca3c c0fa ab3d b6c9 95bd 24a5 2d3d
000000a0: f07d 0bbc 0241 c5bd 44eb 63bd a067 8fbb
000000b0: c8c4 ffbc 7ced febd 8054 603b 444a 6c3d
000000c0: 46eb e23d 9c5f 353d 0061 fcbc a0c5 98bc
000000d0: 640f d33d 6c8c 19bd d871 c43d ca50 afbd
000000e0: 8417 76bd 2e03 8dbd fce0 b0bd 4c38 64bd
000000f0: befd e03d 56ba b03d e096 0f3d 30ce c2bc
00000100: 00a7 52ba fa34 edbd 32ee cbbd a805 923d
00000110: a07c b9bb 0021 4cbb dafd bebd bc90 96bd
00000120: d0cc 2abc 9096 e0bc e05b 61bd 1054 10bd
00000130: 4a04 f6bd 4239 9f3d 00bd 833d 50b6 c7bc
00000140: 4417 b13d 64bb 18bd 682a 7dbd 84cb 093d
00000150: 947d 763d 08ef 89bc 42bf 96bd 744b d6bd
00000160: 3c12 f5bd 04ab a0bd b476 cfbd 7e0a abbd
00000170: 8293 cbbd 4874 f83c d0a3 c43c 8697 a1bd
00000180: bcfe 083d a03a fb3b 6c66 fbbd c0d4 d3bd
00000190: dc08 7b3d 1244 f03d 1a4f f2bd 2ce7 a63d
000001a0: 448e 81bd e088 de3b 98c6 b93d fc1b 423d
000001b0: 8079 b13b 28bc bbbc c812 db3d b08f 693c
000001c0: 262e dfbd 1a98 983d ac92 65bd 9c47 083d
000001d0: 84ec 013d f438 b3bd 5284 debd 2adc b03d
000001e0: aa71 ea3d 0076 983c 7838 46bd 903b 87bc
000001f0: 2a8a a03d 8817 02bd 8a3a b6bd 8a8c f73d
00000200: b868 fa3d 0cbb c9bd 2657 dc3d e21c eb3d
00000210: a004 66bc 20cc 893b c081 c83b 2c72 93bd
00000220: 0023 18bd 4821 073d e8b6 35bd 00a2 783a
00000230: dc1f a23d 80ff a2bc 1813 4ebd 14d7 583d
00000240: 8c2d c23d 2059 bb3c 4021 513c 481e b33d
00000250: c6a6 debd 6e83 d4bd 68c7 3abd d8c7 afbd
00000260: e07e ae3b 780b ea3c 9023 d43c c491 59bd
00000270: 4e01 c5bd c655 e2bd 009a d2bb f0eb 843c
00000280: e257 dcbd 9e97 afbd 8095 9f3b 4050 873b
00000290: 403e fcbc f82a df3c 5e1a ba3d d451 6c3d
000002a0: d856 4e3d 8ab1 dd3d 9ebe e63d 60a7 303d
000002b0: 2050 3a3d ac6c 513d 8045 dabb 369c aebd
000002c0: f050 6fbc 0075 07bc a6bf eebd 00e0 86b9
000002d0: f439 083d 0086 e13a 3226 a4bd 5e81 80bd
000002e0: 28c8 b8bd bcc2 f7bd 7880 93bd 3093 41bc
000002f0: a811 e03c 80e1 233b 8860 5fbd 0008 1a3a
00000300: 668c c73d e037 fd3b 20b8 2abc 3c2a 79bd
00000310: f0b0 ffbd 309f e0bd e4d3 95bd e8b6 61bd
00000320: 7024 ffbd 3c98 a3bd 8c51 623d 80fc 443c
00000330: b40d 073d a013 703c 5080 50bc 90d2 b8bc
00000340: ee68 de3d d81d e43d c0e4 d03b 80c7 2e3b
00000350: 00af 6cbd c68e f13d e403 cb3d 2c03 4e3d
00000360: 423e 9a3d 8ea4 8f3d 003f 1f3d 7acc ed3d
00000370: 7044 91bd 30b1 e93c 52e4 bbbd ea44 d6bd
00000380: 207d e9bd 7c24 983d 96c6 da3d 68ea a6bc
00000390: 407c cd3c 94fe 383d 1e92 9bbd 164f 853d
000003a0: 5241 893d e43c 84bd b0f6 34bc badd ddbd
000003b0: a487 3c3d 5868 ab3c f89c c3bc 9a5e 98bd
000003c0: 9ea4 f2bd 04b5 383d e2f0 b23d fa8a a9bd
000003d0: 8cb4 3abd f029 62bd 60a5 653c 7c63 16bd
000003e0: 58f6 d13d 5a87 93bd dec3 9fbd 0a7e dcbd
000003f0: 405f a83d cc01 aabd b8a5 d5bc 6c71 853d
-0.07832897 -0.058392793 0.025115639 0.10095762 -0.09456171 0.10724649 -0.10602106 -0.08976759
0.014375776 -0.03188482 0.085549414 -0.104484424 0.017672822 -0.078954205 -0.08257499 -0.02917321
-0.022641376 0.09440233 0.12123579 -0.031146303 -0.01876229 0.10442929 0.1130625 -0.00626494
0.007526651 -0.03163819 -0.017324105 0.08993167 -0.0950796 -0.012279645 -0.10055691 -0.098949775
0.11236361 -0.12121767 -0.05483727 0.041127354 0.024711654 0.08397436 -0.07313864 0.04239382
-0.008513913 -0.0963154 -0.05564429 -0.0043763667 -0.031221762 -0.1244764 0.0034230053 0.057688013
0.11080031 0.044280633 -0.030807972 -0.018648922 0.1030567 -0.037487432 0.095920265 -0.08560331
-0.06008102 -0.06885372 -0.08636662 -0.05571775 0.109858975 0.08629291 0.035055995 -0.023779958
-0.0008035749 -0.1158237 -0.099575415 0.07129985 -0.0056606084 -0.00311476 -0.09325762 -0.07351825
-0.010424808 -0.027415544 -0.05501926 -0.03523642 -0.12012537 0.07774593 0.06432533 -0.024378926
0.08647016 -0.037288085 -0.06180802 0.033641353 0.060178354 -0.016837612 -0.07360698 -0.1046361
-0.119663686 -0.07845119 -0.10130063 -0.083516106 -0.09940244 0.030328885 0.024003893 -0.07890229
0.03344606 0.0076669008 -0.12275395 -0.10343313 0.061287746 0.117317334 -0.11831494 0.08149561
-0.06325963 0.006791219 0.09071082 0.04738997 0.0054160953 -0.022916868 0.106969416 0.014255449
-0.10897474 0.07450886 -0.05604808 0.033271417 0.0317197 -0.08751097 -0.10865082 0.08635743
0.11447461 0.018610954 -0.048393697 -0.016507894 0.07838853 -0.031760722 -0.08897884 0.120873526
0.12227005 -0.098501295 0.1075881 0.11480118 -0.014039189 0.004205242 0.006118983 -0.07199511
-0.037142754 0.032990724 -0.044363886 0.0009484589 0.07916233 -0.019897223 -0.050311178 0.05293949
0.094813436 0.022869647 0.012764275 0.0874601 -0.10871653 -0.10376631 -0.045600325 -0.08583039
0.0053251833 0.028569922 0.025895864 -0.05311753 -0.096193895 -0.11051516 -0.0064270496 0.016225785
-0.1075895 -0.085738406 0.0048701167 0.0041294396 -0.030791402 0.027242169 0.090870604 0.057695225
0.05037579 0.108248785 0.11266826 0.04312837 0.04548657 0.05112903 -0.006661117 -0.085258886
-0.014606699 -0.008267641 -0.11657648 -0.00025725365 0.033258393 0.0017206073 -0.08015098 -0.06274675
-0.09022552 -0.120976895 -0.07202238 -0.011814877 0.02735217 0.0025006235 -0.05453542 0.0005875826
0.09743576 0.007727608 -0.010419875 -0.060831293 -0.1248492 -0.109678626 -0.073158056 -0.055106074
-0.12458122 -0.07988021 0.05525355 0.012023091 0.032972053 0.014653116 -0.012725905 -0.022561342
0.108598575 0.11138505 0.0063749254 0.0026669204 -0.05778408 0.1179481 0.099128515 0.050295994
0.07531406 0.07013808 0.03887844 0.116112664 -0.070931315 0.028526872 -0.09174408 -0.10462363
-0.11400819 0.07428834 0.106824085 -0.020375445 0.025083661 0.04516466 -0.07596229 0.06509225
0.06701912 -0.064569265 -0.011045143 -0.108333066 0.046027794 0.020923778 -0.02387856 -0.07439919
-0.118478045 0.045094505 0.08737351 -0.08278461 -0.04558234 -0.055215776 0.014016479 -0.03671597
0.102520645 -0.07203551 -0.078010306 -0.107662275 0.082212925 -0.08301124 -0.026079997 0.06515774

weight_hh_l1 f4 [256, 64]
00000000: a0a1 81bd d0da 4ebc bcb3 58bd 3802 ce3c
00000010: 6899 d0bd 7046 873c b4cd 733d 745a 93bd
00000020: 4026 6fbd e4d8 183d f881 d5bc 5039 69bc
00000030: 901a e9bd 80a9 b4bb 0066 7bbc bc98 5b3d
00000040: 089f b83c 9cb6 713d 6016 593c 8099 48bd
00000050: 949e 97bd 92bc f1bd a05c 5cbc 6059 fe3d
00000060: f8c3 b13c 902f 7d3d 7aac 80bd e0fd 48bc
00000070: 98bc c0bd dc57 043d d0b1 723c 8691 b13d
00000080: 401d 733d 182b cdbd b86f cebc 04ef 233d
00000090: da59 973d 0845 d03c 143f f1bd 206b 42bc
000000a0: 840f f03d e2c5 a03d c8ff c13c 0895 5e3d
000000b0: d865 85bd d83a cdbd fa1d 85bd ea61 cfbd
000000c0: 4053 fc3d 6840 a9bc c46e 0ebd 1062 c8bc
000000d0: a6dd ec3d 06d8 e63d d4ac 6e3d 5004 0c3c
000000e0: 72a2 943d 305b af3d 1afe adbd d064 6dbc
000000f0: 9425 57bd 8058 103d 3cc7 4fbd 1835 8cbc
00000100: 048f edbd 40f9 f63d f2c6 d53d 3266 923d
00000110: aa25 81bd 80b6 ce3b 96f8 973d 7aa3 dfbd
00000120: 6880 ef3c 101d a03c 16df c7bd 4a37 993d
00000130: 447d 623d 9eed bc3d 66a1 ee3d a433 e8bd
00000140: e8a6 163d e2b5 b23d 38cf 00bd 1c1b 2dbd
00000150: faaf d3bd 5231 d63d e81e 42bd 9cb0 3b3d
00000160: 90d7 5abd 20db 573d 1aa0 8ebd 80f3 7cbb
00000170: 4031 bd3b 2854 963d c09b 80bd e041 1fbd
00000180: 9059 72bd 9833 e4bc ba5f af3d fc5f 29bd
00000190: 68f5 db3c ae4a e13d d0bc b2bc 88a7 90bc
000001a0: 54fa 173d 38b3 7e3d 9e2b 983d ac77 043d
000001b0: 40f7 5abd fe8a febd c003 ebbd b825 b73d
000001c0: 8c14 733d d4a3 a63d dc87 fa3d fed5 803d
000001d0: 144f 793d 4633 84bd 80dc 3d3d 7c91 cf3d
000001e0: 66c3 83bd 7232 fd3d be51 87bd 1827 c13d
000001f0: 1c88 e53d 00f3 f2bd 18fe b3bc d016 67bc
00000200: 2c02 723d 2004 803c 1c81 423d 2844 a93c
00000210: d4c8 fdbd 10c7 17bd 84e7 183d f271 fdbd
00000220: bcf8 57bd 48f3 f4bd d01c 413d 3a8c e9bd
00000230: fcfb cf3d 9439 79bd 0ca0 8b3d d0aa 8cbc
00000240: 5c5c 273d 6c94 46bd ac2b 063d 6c26 e53d
00000250: 405b febd 5c65 eebd 6e9a 8b3d 905f 673d
00000260: 8000 13bb 88b8 35bd 90d0 ddbc 9028 9dbc
00000270: aafd e0bd 40ba 2b3c 3214 d43d 686a ea3d
00000280: 1633 ac3d 7408 0d3d 28bd 283d 4e4e f63d
00000290: 2850 743d 4803 103d 684e 0abd 2029 efbd
000002a0: 7808 7e3d dea1 fd3d 00f2 423d a0dd d63b
000002b0: 5031 52bd f4d4 2bbd c420 0c3d f2d5 bd3d
000002c0: 44e7 303d f019 eabc 9ca7 65bd b4a9 553d
000002d0: 1291 adbd 002e 5b3c ce8f eabd 18af e73d
000002e0: c85f 563d bcc4 e6bd c8bf 0bbd e02c 773d
000002f0: 4cca 743d 100b 22bc 56bd f03d 8cc6 073d
00000300: ca89 a83d ea90 aa3d f6d1 a2bd 688d 263d
00000310: 802a 3d3b 302a 813d 20bc 013c 0849 16bd
00000320: 980c 193d 8069 fb3b 287a b43d 2875 4d3d
00000330: dc1b 7cbd 20f2 76bc b892 183d ec6f 513d
00000340: c893 c8bc 301e 483d da8f aebd bcfc 81bd
00000350: 642a 933d 34ee 483d 30fe 99bd 3a0e a4bd
00000360: aa97 f4bd 2cf8 ddbd 60b6 803c e005 17bc
00000370: 7008 953c 8046 5f3d 6a3e 9b3d 2a7b d43d
00000380: 4ca0 98bd c896 94bd b02d a73d 70fd 083d
00000390: 18a2 bfbd d8c2 debd 066b ee3d 6c3c 0b3d
000003a0: de6b f23d 0683 c2bd 6e64 af3d d0bf a1bc
000003b0: ee4a b5bd e098 7e3d 463c 96bd a869 f3bc
000003c0: 1e8c a0bd 32af c73d 5a7c aebd e0ba eabb
000003d0: e099 a53d 42a0 c73d 1863 acbd 40ab 253b
000003e0: 400c 973b 00de f53b a64d 9f3d 5014 f03d
000003f0: 68c6 bcbc 7cf3 b63d 50de 03bd a0c5 16bc
-0.06329656 -0.012625411 -0.052905783 0.025147542 -0.1018551 0.01651308 0.059522346 -0.07194987
-0.058386087 0.037316218 -0.02606295 -0.014234856 -0.113820195 -0.00551337 -0.015344143 0.053612456
0.02253677 0.05901204 0.0132499635 -0.048974514 -0.07403293 -0.11803545 -0.013449818 0.12419391
0.02169989 0.061812937 -0.06282897 -0.01226756 -0.094109714 0.03231035 0.014812902 0.086703345
0.059354067 -0.10017985 -0.025199756 0.040022865 0.07390185 0.025423542 -0.11779609 -0.011866361
0.11721709 0.07850243 0.023681536 0.054341346 -0.06513566 -0.10020989 -0.06499858 -0.101260975
0.12320566 -0.020660594 -0.034773603 -0.024460822 0.115657136 0.11271672 0.05827029 0.00854595
0.072575465 0.085623145 -0.08495732 -0.014489368 -0.05252607 0.03524065 -0.050727114 -0.01711516
-0.11599544 0.120592594 0.104383364 0.071483985 -0.06306012 0.006308377 0.07420461 -0.109198526
0.029236034 0.019545108 -0.09759347 0.07481249 0.055295244 0.092250094 0.11651878 -0.11337975
0.036780268 0.08726098 -0.03144762 -0.04226218 -0.10336299 0.10458626 -0.047392756 0.045822725
-0.053428233 0.05269921 -0.06964131 -0.0038597286 0.0057736933 0.0734027 -0.06279707 -0.038881183
-0.059167445 -0.027856633 0.0856318 -0.041351303 0.026850417 0.11000572 -0.021818548 -0.01765801
0.037103966 0.062182635 0.07430194 0.03234069 -0.053458452 -0.124288544 -0.11475325 0.08942741
0.059345767 0.081367165 0.12232944 0.06290816 0.06086643 -0.06455092 0.046352863 0.10135171
-0.06433754 0.12363137 -0.06607388 0.09431285 0.112076014 -0.11862755 -0.021971747 -0.01410456
0.059084103 0.015626967 0.04748641 0.020662382 -0.123918205 -0.037055075 0.037330166 -0.12375249
-0.052727446 -0.11960465 0.04714662 -0.11403699 0.10155484 -0.060845926 0.06817636 -0.017171293
0.040859565 -0.04848139 0.032756492 0.11188969 -0.12419748 -0.116404265 0.068165645 0.05648762
-0.0022430718 -0.044365436 -0.02707699 -0.01918438 -0.109858826 0.010481417 0.103554145 0.11446077
0.08408181 0.03443189 0.04119602 0.12026654 0.059646755 0.03515938 -0.03376618 -0.11677766
0.062019795 0.12384389 0.04759407 0.0065571815 -0.05131656 -0.041951135 0.034210935 0.092693225
0.043189302 -0.028576821 -0.056068048 0.052163795 -0.084749356 0.0133776665 -0.1145321 0.11312693
0.052337438 -0.11267993 -0.034118444 0.06034553 0.059763238 -0.009890333 0.11754863 0.033148333
0.08229406 0.083284214 -0.07950203 0.0406622 0.0028864443 0.06306875 0.007918388 -0.03669074
0.037365526 0.0076724887 0.08812362 0.050160557 -0.061550006 -0.015072376 0.037249297 0.051132128
-0.02448453 0.048856914 -0.08523531 -0.063470334 0.0718582 0.049055293 -0.075191855 -0.08010526
-0.1194299 -0.10838351 0.015711963 -0.009217709 0.0181925 0.054510593 0.07580264 0.10375054
-0.07452449 -0.07255322 0.08163011 0.03344482 -0.09357089 -0.10877007 0.11641507 0.03399317
0.1183698 -0.09497647 0.08564077 -0.019744784 -0.08852182 0.06215751 -0.07335715 -0.029713467
-0.07839225 0.09750213 -0.08519812 -0.0071633905 0.0808599 0.097473636 -0.08417338 0.0025279075
0.0046096146 0.007503271 0.07778482 0.11722624 -0.023043826 0.0893316 -0.032194436 -0.009202391

bias_ih_l1 f4 [256]
00000000: 9e4f f5bd 20f7 82bc e864 77bd f0ef 1abd
00000010: b8d4 8c3d aa33 ef3d d02c 363c a811 9b3d
00000020: 68e5 d1bd 7034 84bc 9422 d9bd 7cb7 aa3d
00000030: 623e 983d 403c b93b 98a7 9e3d 84cb e9bd
00000040: ac8a 473d d24a e5bd 0016 d7b9 2057 9b3b
00000050: 30ad 39bd a035 f53c 1c70 91bd 9cb0 43bd
00000060: 7081 ee3c 204d b3bd d011 103c 90b6 cc3c
00000070: f82b b2bc c6b1 a43d 021c 90bd 5439 9cbd
00000080: a813 dd3c 60f9 ec3c 3cbc 2cbd 70bc 773c
00000090: aec3 9c3d 341d d53d c07a 9c3c 1836 f23d
000000a0: 80b0 c4bb b298 f2bd 5ec0 cfbd 3052 d53c
000000b0: 6203 d5bd d02c 3a3d f049 c6bd 340f 8fbd
000000c0: e07d d03d 2ab3 8f3d 287f 813c e29b f3bd
000000d0: 4846 dc3c c0dd 643b 5042 8cbd 685d 873c
000000e0: 4031 623d 70d8 61bd 8cf3 323d 002f 51bd
000000f0: f215 d7bd 78b7 dd3d 88c4 9cbd 2e44 9fbd
00000100: 1c18 35bd f8db ddbd e81a 483d 9809 c73c
00000110: 50f9 5c3d 789e 74bd c026 78bd 3aea fabd
00000120: 0a6f df3d 181a aa3d b0a1 73bc 80dd a23c
00000130: f0f9 8e3c 5cbb 8d3d 6415 f3bd 8287 9abd
00000140: dc08 e03d b0cf 8abc d888 36bd 7e50 8f3d
00000150: 548a ffbd 3087 34bd 2841 163d da0b fe3d
00000160: 3efd babd 0024 84b9 a43a 59bd c8cb bebc
00000170: 8c38 c7bd 480d 9cbc 0051 883d 266a e93d
00000180: 5227 bfbd fca6 6abd 5caf ebbd 18d5 f5bc
00000190: 90c3 683d 38ea adbd c8a3 e9bd 1827 79bd
000001a0: 8688 80bd ece9 aabd 18cb 07bd 60eb a1bc
000001b0: f486 333d e466 c2bd 748f 1b3d 4cb2 1b3d
000001c0: 9c69 c0bd d690 9cbd ca38 95bd 94d5 e43d
000001d0: e0e9 ae3d 4238 a8bd a82a 4cbd d44a 2cbd
000001e0: 06ad dd3d 22e6 acbd 18e9 e03c 5c6d 5d3d
000001f0: 90f5 e1bc 4065 a7bb a022 383c 8004 133d
00000200: e821 f13d 60d6 88bc 004d e9bc 2618 e6bd
00000210: a06e e33c 004d 8cbb 00a6 a5ba 2892 8e3d
00000220: e86f b33c 94aa ec3d a26c a2bd 8682 9c3d
00000230: bc85 87bd 2004 1abc d0a1 b7bc d619 e03d
00000240: 6093 793d 303a 24bd 56ae 86bd e09c 1cbc
00000250: dc47 f4bd debb f8bd 94e3 23bd 88ee 8a3c
00000260: 0c98 abbd 4c6d 52bd d0bb 54bd 1cda 003d
00000270: 409d 63bb b675 823d e44d 9bbd da4a 973d
00000280: 606d cbbd 1c4b 13bd 80a4 a93b caab a73d
00000290: 846c b7bd 0a0f f93d f62f a0bd 604b cc3b
000002a0: 2ccc 51bd 7ee1 80bd 905c e53d 28b5 fb3c
000002b0: bea1 a6bd 4403 923d b080 94bc c0c9 913c
000002c0: 0628 873d 98d6 b93c a02b d1bc 9c8c b0bd
000002d0: 9c3c c8bd 284e b9bd 30c1 763c 3c42 a1bd
000002e0: 28b1 9bbc 7e0e 87bd ea00 bd3d 6008 573c
000002f0: a447 5cbd c02b c93b c4a0 993d e891 e6bd
00000300: 2036 ef3c ca77 ce3d 5877 67bd f00e b63c
00000310: c4d8 443d 6cb0 2c3d 0026 dd3d c81d f23d
00000320: 241c 31bd e485 963d 0003 02ba 6051 00bc
00000330: e859 053d 387a 743d d470 083d 80e2 c2bb
00000340: 6c74 0ebd 187f e63c 3065 b4bc a021 a73b
00000350: 72e7 c8bd 1ebc f53d 28d9 c4bc f072 34bd
00000360: c410 d8bd b86b 983c b455 9b3d 14eb c23d
00000370: 8049 18bc 3007 81bd d031 b4bd f0ef 8ebd
00000380: bed0 d8bd 0cd1 b83d 78c6 e1bd 4c31 873d
00000390: 803b d33c 2017 ebbb c4ec 63bd 4066 1e3b
000003a0: 10dd 8c3d 0e64 cc3d 127d cf3d 6433 c8bd
000003b0: ae99 fcbd 301a 2cbd f0fc 96bc c64e edbd
000003c0: 2002 c4bd a6b7 b4bd 40af 70bc 4282 d3bd
000003d0: caa7 b63d 7e90 ff3d aa7a 9e3d e833 b13c
000003e0: 425f 863d f039 413c 0809 193d f09f 9cbd
000003f0: a0c1 a2bb 902c 983c 047b 4b3d 0066 9ab9
-0.119780764 -0.015986979 -0.060398966 -0.03782648 0.068765104 0.11679776 0.011119083 0.07571727
-0.10248834 -0.016138285 -0.106022984 0.08335778 0.074337736 0.0056529343 0.0774681 -0.11415771
0.048716232 -0.111959115 -0.00041024387 0.0047406107 -0.04533118 0.029932797 -0.07101461 -0.04777585
0.029114455 -0.08754945 0.008793309 0.024989396 -0.021749482 0.0804172 -0.07036592 -0.07628122
0.026986912 0.028927505 -0.0421717 0.015120611 0.076545104 0.10405961 0.0191015 0.11826724
-0.0060024858 -0.118455306 -0.10144113 0.026040167 -0.10401036 0.045452893 -0.09682071 -0.06985322
0.10180259 0.07016595 0.015807703 -0.11894967 0.026888981 0.0034922212 -0.068485856 0.016524032
0.05522275 -0.05513805 0.043689296 -0.051070213 -0.105022326 0.108260095 -0.07654673 -0.07776676
-0.044212446 -0.10832971 0.048853785 0.024296567 0.0539487 -0.05972144 -0.06058383 -0.122517064
0.10909851 0.08305758 -0.014870092 0.01988101 0.017453164 0.069205016 -0.11869314 -0.07545377
0.1093919 -0.016944736 -0.044564098 0.069977745 -0.12477556 -0.044074237 0.03668323 0.12404604
-0.09130333 -0.00025203824 -0.05303444 -0.02329053 -0.09727582 -0.019049302 0.066560745 0.11397199
-0.09333672 -0.057288155 -0.115080565 -0.030008838 0.056827128 -0.08491939 -0.11408192 -0.0608283
-0.0627604 -0.08345398 -0.03315267 -0.019765556 0.043829873 -0.09492281 0.037978604 0.038011834
-0.093951434 -0.07644813 -0.07286222 0.11173549 0.08540702 -0.08213855 -0.049845368 -0.04206355
0.10824017 -0.08442332 0.027454898 0.05405937 -0.027582914 -0.0051085055 0.011238724 0.035892963
0.11774045 -0.016703784 -0.0284791 -0.11235075 0.027762711 -0.00428164 -0.0012637973 0.06961471
0.021903947 0.11555973 -0.07930876 0.07642083 -0.06617305 -0.009400398 -0.022416025 0.10942428
0.060931563 -0.040094554 -0.06576221 -0.009558886 -0.119277686 -0.12145208 -0.040011957 0.016959444
-0.0837861 -0.051373765 -0.051936924 0.031458005 -0.003473118 0.06370108 -0.07583216 0.07387324
-0.09932971 -0.0359603 0.0051770806 0.08187063 -0.089562446 0.121610716 -0.07821648 0.0062345713
-0.051220104 -0.06293009 0.111992955 0.03072603 -0.081363186 0.07129529 -0.01812777 0.017796397
0.06599431 0.022685334 -0.025533497 -0.08620569 -0.09777185 -0.0904811 0.015060708 -0.07873961
-0.019005373 -0.06594561 0.0922869 0.013124555 -0.05377926 0.0061392486 0.07501367 -0.11258298
0.029200613 0.10081442 -0.0565103 0.02222392 0.048058286 0.042160437 0.107982635 0.118220866
-0.043239728 0.07349756 -0.00049595535 -0.007831901 0.032556444 0.05968687 0.033310726 -0.005947411
-0.034778997 0.028136775 -0.022020906 0.005100444 -0.0980977 0.11998771 -0.02402933 -0.044054925
-0.10550073 0.018606052 0.07584706 0.09517494 -0.0092948675 -0.06300199 -0.087985635 -0.06979358
-0.105866894 0.090242475 -0.11024183 0.066011995 0.025785208 -0.0071743876 -0.05564572 0.0024169832
0.06878102 0.099800214 0.10131277 -0.09775427 -0.123339996 -0.04201716 -0.018431157 -0.115872905
-0.09570718 -0.08824091 -0.01469022 -0.10327579 0.08918722 0.124787316 0.0773824 0.021631196
0.06561138 0.0117935985 0.03736213 -0.07647693 -0.0049669296 0.018575937 0.049677864 -0.00029449165
