MQL5/Models/direction_v2.onnx (onnx, 173210 bytes, 10 tensors)

fc.0.weight f4 [32, 64]
0	0xbd3d2ea6	-0.046187066
1	0x3ce40557	0.027834577
2	0x3d3be7ff	0.045875546
3	0xbccc4f42	-0.024940137
4	0x3d790e4f	0.06080466
5	0xbdbc7bce	-0.09203301
6	0x3d9388f8	0.07203859
7	0xbc75b37c	-0.014996406
8	0x3d5068ba	0.050881125
9	0xbd50ee00	-0.051008224
10	0xbde819e7	-0.113330655
11	0xbda88c3a	-0.08229871
12	0x3ded7371	0.11594284
13	0xbd8f7563	-0.070048116
14	0x3d8ad5d5	0.067790665
15	0xbd881609	-0.06644828
16	0xbde3d4f1	-0.111246
17	0xbdd2b2f2	-0.10288037
18	0xbdd9cca7	-0.106347375
19	0xbdd73fb2	-0.10510196
20	0xbd574d4d	-0.052563954
21	0x3be3d57b	0.006952939
22	0xbd4d0498	-0.05005321
23	0x3dc99ee3	0.09844758
24	0xbc52cb1c	-0.012865808
25	0xbd84eb11	-0.06490148
26	0x3d9d70dc	0.07687542
27	0xbd8e89aa	-0.06959851
28	0xbdc1ac50	-0.09456694
29	0xbde6eaeb	-0.11275276
30	0xbd0dd310	-0.034625113
31	0xbdb5038a	-0.08838566
32	0xbd81c5c5	-0.0633655
33	0xbde48db0	-0.11159837
34	0xbd73e239	-0.059541915
35	0xbd1e1c67	-0.038601305
36	0xbdc7390f	-0.0972768
37	0xbd8abceb	-0.067743145
38	0xbd14d8a7	-0.03633943
39	0x3d6068e1	0.05478752
40	0x3dc25037	0.09487956
41	0x3b74df27	0.0037364454
42	0xbc77ba5a	-0.015120113
43	0xbda2d9e2	-0.07951714
44	0xbbbaa4c3	-0.0056959107
45	0xbda0b49d	-0.07846949
46	0xbe0745c6	-0.1321021
47	0xbd81c716	-0.06336801
48	0xbd95eccb	-0.07320555
49	0x3d27ea52	0.04099495
50	0xbd8175ee	-0.063213214
51	0xbdc1fda8	-0.09472209
52	0x3dbd420f	0.09241115
53	0x3cbbd5d4	0.02292911
54	0xbd41b807	-0.047294643
55	0xbc3ca579	-0.011514061
56	0xbd26d29b	-0.040728193
57	0x3dc74df1	0.09731663
58	0xbdbf7b4c	-0.09349689
59	0x3e008a29	0.12552704
60	0xbd94c301	-0.072637565
61	0x3cdd5c81	0.027021648
62	0xbde56372	-0.11200608
63	0x3cee1309	0.029061811
64	0xbd84759c	-0.06467745
65	0x3bbb8b94	0.005723426
66	0x3d6ccc5b	0.057812076
67	0xbd9a54da	-0.075357154
68	0xbd90632c	-0.070501655
69	0x3d86e9c9	0.0658756
70	0x3d8c3eb6	0.06847899
71	0xbd9a30df	-0.07528853
72	0xbe047256	-0.1293424
73	0x3d06620e	0.032808356
74	0x3c8600ce	0.016357806
75	0xbd1f2055	-0.038849194
76	0x3cd16897	0.025562568
77	0xbddd5df8	-0.10808939
78	0x3db3e9c8	0.087848246
79	0x3d82a07a	0.06378265
80	0xbb6f1777	-0.0036482492
81	0x3bbb3c84	0.005714001
82	0xbd1f8c1a	-0.03895197
83	0xbd949c6c	-0.072563976
84	0xbdcbff81	-0.09960843
85	0x3de2c570	0.110728145
86	0xbd8a69f8	-0.06758493
87	0x3d577bb4	0.052608207
88	0xbddb6aea	-0.107137516
89	0xbd64f0f9	-0.055893872
90	0xbdb24ed5	-0.08706442
91	0x3dcadc18	0.09905261
92	0x3d2436f2	0.040091462
93	0x3cca83a4	0.024720974
94	0x3cd3fc80	0.025877237
95	0x3db4c09b	0.08825799
96	0x3c5da1f1	0.013527379
97	0xbd967ea3	-0.07348373
98	0x3dd0f87a	0.10203643
99	0xbd8a5b41	-0.067556866
100	0x3d2608b2	0.040535636
101	0xbe01f1a4	-0.12689835
102	0x3d38c2a6	0.045107506
103	0x3d8e1c5c	0.06939003
104	0x3db111fa	0.08646007
105	0x3c21d209	0.009876736
106	0x3df18198	0.11792296
107	0x3dd8ca42	0.105854526
108	0xbdf718cf	-0.12065279
109	0xbd635ffd	-0.055511463
110	0xbc8f0269	-0.017457204
111	0xbdf071d2	-0.117404595
112	0x3a9e0adc	0.001205768
113	0xbd82c3cc	-0.063850015
114	0x3d375e86	0.04476788
115	0xbd0ddc4f	-0.03463393
116	0x3d0ba63e	0.034094088
117	0xbc98a03b	-0.018631091
118	0xbd7100d8	-0.058838695
119	0x3df8b214	0.12143341
120	0x3d38c785	0.04511215
121	0xbd13899f	-0.036019918
122	0xbcfe699c	-0.031056218
123	0x3d1fa062	0.038971312
124	0x3c0c97d6	0.008581122
125	0x3d3e983e	0.04653191
126	0x3c4fabbf	0.012675225
127	0xbdb96874	-0.09053126
128	0xbdbc53dc	-0.091956824
129	0xbdb9439f	-0.09046101
130	0xbd3ef520	-0.04662049
131	0xbd608528	-0.054814488
132	0x3d5e1d0d	0.054226924
133	0x3d906c45	0.07051901
134	0xbc542b35	-0.0129497545
135	0x3e1b3e77	0.15160547
136	0x3d3b102d	0.045669723
137	0x3d3c47a9	0.045966778
138	0x3d8cbfbd	0.06872509
139	0x3d052bbd	0.032512415
140	0x3c51bf68	0.012801982
141	0x3e0d8708	0.13821042
142	0xbc8230e1	-0.015892448
143	0xbd827740	-0.063704014
144	0xbd2e3b8a	-0.04253725
145	0x3d9bc43c	0.07605788
146	0x3dbef07e	0.09323214
147	0xbdf45a08	-0.119312346
148	0x3e19f918	0.15036428
149	0x3d4d267c	0.05008553
150	0x39e828fb	0.0004428102
151	0xbd3c1970	-0.045922697
152	0xbdcbe5a0	-0.09955907
153	0xbd0fd419	-0.03511438
154	0xbce116f9	-0.027476775
155	0xbd1104af	-0.035404857
156	0x3dc0aedc	0.09408352
157	0xbc24dd8b	-0.010062586
158	0xbdfaedb5	-0.1225237
159	0x3dd6e371	0.104926
160	0x3b2db1a9	0.0026503599
161	0x3daf0780	0.085463524
162	0xbe0a2dee	-0.13494083
163	0x3cbb31b6	0.022850852
164	0x3dd95087	0.106110625
165	0x3def177b	0.116744004
166	0x3db91980	0.09038067
167	0xbd31a008	-0.04336551
168	0xbe103a49	-0.14084734
169	0xbe10711a	-0.14105645
170	0xbdd93547	-0.10605865
171	0x3dbae969	0.09126551
172	0xbd94c125	-0.07263402
173	0xbd84bfae	-0.064818725
174	0x3dddc414	0.108284146
175	0x3df96d22	0.121790186
176	0xbd4ecb92	-0.05048711
177	0xbd44c300	-0.04803753
178	0xbd61ead8	-0.055155605
179	0x3d8691e1	0.06570793
180	0x3db9ad57	0.09066265
181	0xbdab1ef6	-0.08355515
182	0xbd30132a	-0.042987026
183	0xbe12532b	-0.14289539
184	0x3d874a51	0.066059716
185	0xbdc4e688	-0.09614283
186	0xbe0b0629	-0.13576569
187	0xbd7ae854	-0.06125672
188	0x3d3e7dbb	0.046506625
189	0x3d30e5ee	0.043188028
190	0x3e167df1	0.1469648
191	0x3d575696	0.05257281
192	0x3ce57ddb	0.028014114
193	0xbe0c6cf0	-0.13713431
194	0x3dd77e4a	0.105221346
195	0xbe199848	-0.14999497
196	0xbd4b276e	-0.04959815
197	0xbc09b19f	-0.008404165
198	0xbd2d3202	-0.04228402
199	0x3d459890	0.048241198
200	0x3c9aa536	0.018877607
201	0x3cead2c3	0.028664952
202	0x3cd3375c	0.025783233
203	0xbda32c31	-0.07967413
204	0x3dcccf3b	0.100004636
205	0x3e0faf61	0.14031745
206	0xbc7e8c71	-0.0155364135
207	0x3d5ba1ac	0.05362098
208	0xbe23f3b8	-0.1601094
209	0x3e19c8a5	0.15017946
210	0x3e021b03	0.12705617
211	0xbd91c9cd	-0.071185686
212	0x3dd5abb5	0.10433141
213	0xbdf92a4d	-0.12166271
214	0x3e188555	0.14894612
215	0x3dd96498	0.1061489
216	0xbe022af4	-0.12711698
217	0xbde50e3b	-0.11184355
218	0x3d75b7a0	0.05998957
219	0xbda7aabc	-0.08186862
220	0xbd0fe2a7	-0.035128262
221	0xbbf1b91d	-0.0073768036
222	0xbdba0d2d	-0.09084544
223	0x3de2fe8e	0.11083709
224	0xbd0d9367	-0.034564402
225	0x38514697	4.9895225e-05
226	0x3db5714e	0.08859502
227	0xbd368ed8	-0.04456982
228	0xbd5fb741	-0.054618124
229	0x3e0ff117	0.14056812
230	0x3c1e05b1	0.009644912
231	0xbdd33dac	-0.10314497
232	0x3cbd7c05	0.023130426
233	0xbcf02fd8	-0.029319689
234	0xbddb51a8	-0.10708934
235	0x3dbd2496	0.09235494
236	0xbda43bcb	-0.08019217
237	0x3dd20783	0.10255339
238	0x3d083c97	0.033260908
239	0xbd4e1590	-0.050313532
240	0x3d929b08	0.07158476
241	0xbdf1b297	-0.118016414
242	0x3cc226ec	0.0237002
243	0xbd89f372	-0.06735887
244	0xbb250364	-0.0025179023
245	0xbd8be3d4	-0.06830564
246	0x3a4cffdd	0.0007820109
247	0xbd45d03a	-0.048294283
248	0xbdfd3ebf	-0.123654835
249	0xbcb2f0e7	-0.021843387
250	0xbd739f31	-0.05947799
251	0x3c64bf46	0.013961619
252	0x3d949b82	0.07256223
253	0x3d36e073	0.044647645
254	0xbd360cd1	-0.044445816
255	0xbbc18145	-0.0059053027

fc.0.bias f4 [32]
0	0x3dd8a1f2	0.105777636
1	0xbd997e52	-0.07494797
2	0x3dd3cc6e	0.10341726
3	0x3de65a6e	0.11247717
4	0xbd46e383	-0.048556816
5	0x3db8def9	0.09026904
6	0x3defd435	0.11710397
7	0xbcaddad6	-0.021222513
8	0xbdcd2153	-0.10016122
9	0x3d12d730	0.03584975
10	0x3d0ca1e1	0.034334067
11	0xbd169449	-0.03676251
12	0xbb89df9e	-0.0042075654
13	0x3c9753a5	0.018472502
14	0x3c9b596f	0.018963544
15	0x3d8ea09a	0.06964226
16	0xbd5376ab	-0.051626842
17	0x3e0c4e7b	0.13701813
18	0xbd686804	-0.056739822
19	0x3dc4807d	0.0959482
20	0xbd8ea415	-0.0696489
21	0x3db3752e	0.087625846
22	0x3dc1ad8f	0.09456932
23	0xbd6b2f79	-0.05741832
24	0x3d878c4f	0.066185586
25	0x3cd78031	0.026306244
26	0xbdcae874	-0.09907618
27	0xbd51e905	-0.051247615
28	0x3d958e56	0.07302539
29	0x3dbb922a	0.09158738
30	0xbc63298a	-0.013864884
31	0xbca07e5d	-0.019591505

fc.3.weight f4 [2, 32]
0	0xbc8d62e3	-0.017259067
1	0x3dfc16ed	0.1230906
2	0x3d208967	0.039193537
3	0x3da71fb4	0.08160344
4	0x3e60d83c	0.21957487
5	0x3cda040c	0.026613258
6	0x3d5c2f0a	0.053755797
7	0x3e598f3f	0.2124605
8	0x3e074317	0.13209186
9	0xbe02c39e	-0.12769935
10	0x3e0eeb1e	0.13956878
11	0x3d8de663	0.069287084
12	0x3d9186b2	0.07105769
13	0x3df47889	0.11937053
14	0x3e220e17	0.15825687
15	0x3ca2a446	0.019853722
16	0x3ded04e3	0.11573198
17	0xbdbf4b80	-0.09340572
18	0x3e097aa2	0.13425687
19	0x3e213ff9	0.1574706
20	0x3d8db018	0.06918353
21	0xbd970b44	-0.073751956
22	0xbd732f37	-0.0593712
23	0x3e099ba0	0.13438272
24	0x3e3ca2bf	0.18421458
25	0xbe24296d	-0.16031428
26	0xbbb1a5c6	-0.005421373
27	0xbdff9f2a	-0.1248153
28	0x3d904b40	0.07045603
29	0xbd0a9ec0	-0.033842802
30	0xbdfd07f0	-0.123550296
31	0xbe1aa197	-0.15100704
32	0x3e056110	0.13025308
33	0xba4cb176	-0.0007808426
34	0xbe5c9df9	-0.21544637
35	0xbe3463ea	-0.17616239
36	0xbcfae83a	-0.030628312
37	0xbdea6968	-0.11445886
38	0xbd6fb0c2	-0.05851818
39	0x3dac20c1	0.08404685
40	0x3e1c9a5f	0.15293263
41	0x3d453a44	0.04815127
42	0xbe00974b	-0.12557714
43	0xbe393b43	-0.18089013
44	0x3dcd7e32	0.100338355
45	0x3ce00339	0.027345287
46	0xbc70b45f	-0.014691441
47	0xbdccef5f	-0.10006594
48	0x3e292380	0.16517448
49	0xbe4f5875	-0.20248587
50	0xbdae7459	-0.08518285
51	0xbd81cf06	-0.06338315
52	0xbd2e9937	-0.042626586
53	0x3dd8da18	0.10588473
54	0x3dd83909	0.105577536
55	0x3e055173	0.13019352
56	0xbd9da15f	-0.07696795
57	0x3de1cfa5	0.11025933
58	0x3d239f7c	0.039947018
59	0x3c813f0f	0.015777139
60	0xbdfccd3e	-0.12343834
61	0xbe5310bc	-0.20611852
62	0xbd9fd1f1	-0.07803715
63	0x3c6a0058	0.0142823085

fc.3.bias f4 [2]
0	0xbca592b1	-0.02021155
1	0x3dc0c471	0.09412468

onnx::GRU_196 f4 [1, 192, 13]
0	0xbe055244	-0.13019663
1	0xbd1ba1ad	-0.037995983
2	0x3b884423	0.004158513
3	0xbd4d7516	-0.05016049
4	0x3c55dc3b	0.013052995
5	0x3c839fdf	0.016067443
6	0xbdf107f8	-0.11769098
7	0xbd8dc350	-0.069220185
8	0xbda5b942	-0.08091976
9	0xbd4f092c	-0.050545856
10	0xbcfbc072	-0.030731414
11	0x3db842b4	0.089970976
12	0x3dd00044	0.10156301
13	0x3d87d854	0.06633058
14	0x3bf31259	0.0074179587
15	0xbde6d927	-0.11271887
16	0xbdc54201	-0.0963173
17	0x3dd1fd1d	0.10253356
18	0x3cce704b	0.02520003
19	0x3dd9c87b	0.10633942
20	0x3c691658	0.014226519
21	0xbdc11f50	-0.094298005
22	0xbddfa4dc	-0.10920116
23	0x3d01b8d2	0.0316704
24	0xbd802381	-0.06256772
25	0x3d8f581b	0.06999227
26	0xbdcdce3a	-0.100491
27	0x3dd1bdc9	0.10241277
28	0xbd96389c	-0.07335016
29	0xbdcf247a	-0.10114379
30	0xbc150d39	-0.009097391
31	0x3cbbe457	0.02293603
32	0xbcd8591e	-0.026409682
33	0x3d8e19b0	0.06938493
34	0xbd8770d5	-0.06613318
35	0x3c9a69d4	0.01884929
36	0xbd04e586	-0.032445453
37	0x3def5340	0.116858006
38	0xbcc702a4	-0.024293251
39	0x3d3fccd1	0.046826188
40	0xbc75aa5f	-0.014994233
41	0xb93694c0	-0.00017412286
42	0x3c370c1a	0.011172319
43	0x3dc83003	0.097747825
44	0xbd83d01d	-0.06436179
45	0x3d3c5e8a	0.045988597
46	0xbc0c7473	-0.0085726855
47	0xbb8b82bf	-0.0042575295
48	0x3ce24dd3	0.027625
49	0x3e049ee2	0.12951234
50	0xbbfb73ff	-0.00767374
51	0xbd0be5b6	-0.034154616
52	0x3d634c84	0.055492893
53	0x3d20f794	0.03929861
54	0x3dc7918a	0.09744556
55	0xbdb4eb96	-0.08833997
56	0x3e10b463	0.14131312
57	0x3d53ae1c	0.051679716
58	0x3dad69fe	0.08467482
59	0xbcbb89aa	-0.022892792
60	0xbd262819	-0.040565584
61	0x3d2768a0	0.040871263
62	0xbde7cf67	-0.11318856
63	0xbe02d5f7	-0.12776934
64	0x3daa8a80	0.08327198
65	0xbe158583	-0.14601712
66	0xbd1a49f5	-0.037668187
67	0x3c548bcd	0.012972784
68	0xbda4088f	-0.08009445
69	0xbe0006d6	-0.12502608
70	0x3db3fedc	0.08788845
71	0x3d7e78fa	0.06212709
72	0xbb7ae574	-0.0038283737
73	0xbcfd7f53	-0.030944502
74	0xbdfb1b22	-0.122610345
75	0x3e01c66a	0.12673345
76	0xbdee5a39	-0.11638302
77	0x3e072f3e	0.13201615
78	0x3c803651	0.0156509
79	0x3ccfddbf	0.025374291
80	0x3de35658	0.11100453
81	0xbd766401	-0.060153965
82	0x3cbe358b	0.02321889
83	0xbe056b10	-0.13029122
84	0xbb00e0a9	-0.0019665158
85	0xbd1394fc	-0.036030754
86	0xbc82329a	-0.01589327
87	0xbd2627e7	-0.040565398
88	0x3dbfdc57	0.09368198
89	0x3cb35323	0.021890229
90	0xbc9f2bff	-0.019430159
91	0x3dbc83b9	0.092048116
92	0x3d000e56	0.03126367
93	0x3dcbe4ef	0.09955775
94	0x3ad54911	0.0016272386
95	0xbdde03a8	-0.10840541
96	0x3d176aab	0.03696696
97	0x3d1a1107	0.037613895
98	0x3d5e5937	0.0542843
99	0x3da77471	0.08176506
100	0x3d35cc07	0.04438403
101	0xbdc975b9	-0.09836907
102	0xbbc8947a	-0.0061212154
103	0x3dad3de1	0.08459068
104	0x3d4a3f5d	0.049376834
105	0xbda5a850	-0.08088744
106	0xbc4f97d5	-0.012670477
107	0xbce366cc	-0.027758978
108	0x3d8719bd	0.06596706
109	0x3bb8364c	0.005621707
110	0x3e03b46e	0.12861797
111	0xbdecb158	-0.11557263
112	0x3d4d40f2	0.050110765
113	0xbe1f4fa4	-0.15557724
114	0x3d702f5b	0.05863891
115	0x3e1ce848	0.15322983
116	0xbd5dfed4	-0.0541981
117	0xbd720bce	-0.05909329
118	0xbce10f20	-0.027473032
119	0x3d870129	0.06592018
120	0xbd16a9da	-0.036783077
121	0x3d268ee1	0.040663604
122	0x3d16eb56	0.036845528
123	0x3ca8f7c7	0.020625962
124	0x3dea905e	0.11453317
125	0xbdbc755e	-0.092020735
126	0x3d217be1	0.03942478
127	0xbdf57590	-0.11985314
128	0x3dcfac06	0.10140233
129	0x3d3a3f3b	0.045470458
130	0x3c812e81	0.015769245
131	0xbdb6ec21	-0.08931757
132	0x3d8d3b7e	0.06896113
133	0xbda41678	-0.08012098
134	0xb9abd101	-0.00032771382
135	0x3c7ad115	0.015308638
136	0x3d35ca30	0.044382274
137	0x3d89ef89	0.06735141
138	0x3dd30929	0.103044815
139	0xbd14d8dd	-0.03633963
140	0x3d981a40	0.07426882
141	0xbd232689	-0.039831672
142	0x3d541759	0.05178008
143	0xbdab2135	-0.08355943
144	0x3ce9b041	0.028526427
145	0xbdad8df2	-0.084743395
146	0xbdcd059d	-0.10010836
147	0x3d504f60	0.050856948
148	0x3dd793f7	0.10526269
149	0x3dbfe2fe	0.09369467
150	0xbbe81950	-0.0070830956
151	0x3cfb6bfa	0.030691136
152	0x3d37154b	0.04469804
153	0xbd3debff	-0.04636764
154	0x3b33421b	0.0027352634
155	0x3db09d1c	0.08623716
156	0x3ce6422b	0.028107723
157	0xbdef6dde	-0.116908774
158	0xbd1279bd	-0.03576063
159	0xbdff31ca	-0.124606684
160	0x3daa701f	0.08322167
161	0x3dc5cafa	0.09657855
162	0x3dc98f50	0.09841788
163	0x3dda0878	0.106461465
164	0x3db1ecb0	0.08687723
165	0x3dbfc3c7	0.093635134
166	0xbda2384c	-0.07920894
167	0xbca6f6cb	-0.020381352
168	0x3dc9ff88	0.09863192
169	0xbd690383	-0.056888115
170	0xbc78ccc7	-0.0151855415
171	0x3d2d35a4	0.042287484
172	0x3b54324b	0.003237861
173	0x3c840f0c	0.016120456
174	0x3dccdd4a	0.10003145
175	0x3d832422	0.06403376
176	0x3d38dc41	0.045131925
177	0x3d12ba68	0.035822302
178	0x3d3d2090	0.046173632
179	0xbcba0a76	-0.022710066
180	0x3d888764	0.06666449
181	0xbd08b3fa	-0.033374764
182	0xbc52974a	-0.012853453
183	0xbcb4437b	-0.022004833
184	0xbc410be8	-0.011782624
185	0xbc999690	-0.018748552
186	0xbd925e0d	-0.07146845
187	0x3cc7907d	0.02436089
188	0xbce4231f	-0.027848778
189	0xbdbd275e	-0.09236024
190	0xbd9a4bdd	-0.07534001
191	0x3dce1126	0.100618646
192	0xbd4c67a3	-0.049903523
193	0x3cd9d225	0.026589463
194	0x3dc8a389	0.09796817
195	0xbd7ab084	-0.061203495
196	0xbd803b67	-0.0626133
197	0x3d84f292	0.06491579
198	0x3c934a1e	0.017979678
199	0xbd44aefd	-0.048018444
200	0x3c9bb1c4	0.019005664
201	0xbbeaf675	-0.0071704932
202	0xbe11810c	-0.14209384
203	0xbc594e51	-0.013263301
204	0x3dfbc535	0.12293474
205	0xbd9a2480	-0.07526493
206	0xbd80306f	-0.06259238
207	0xbdb64bf1	-0.089012034
208	0xbd91e9a6	-0.07124643
209	0xbd854362	-0.06506993
210	0x3dac8802	0.08424379
211	0x3c3bf3cc	0.0114717
212	0xbd83e740	-0.06440592
213	0x3acd1d8e	0.0015649067
214	0xbd15ccee	-0.03657239
215	0xbd27885c	-0.040901527
216	0x3c45746a	0.012051681
217	0xbcfe67ca	-0.03105535
218	0xbdc45354	-0.09586206
219	0x3be1b8ec	0.0068884995
220	0x3c48b450	0.012250021
221	0xbe0b65e2	-0.13613084
222	0x3d11f3f0	0.035633028
223	0x3d04ba01	0.03240395
224	0xbdfa02c2	-0.12207557
225	0xbda55559	-0.080729194
226	0xbd325f59	-0.04354796
227	0x3dd95ee1	0.106138
228	0x3d1b27ff	0.03787994
229	0x3df484c2	0.11939384
230	0x3d9e2a0b	0.07722863
231	0xbddbe9e3	-0.1073797
232	0x3d82fb83	0.06395628
233	0x3b78a204	0.0037938366
234	0x3db2d1f2	0.0873145
235	0x3e04ee32	0.1298149
236	0xbda61232	-0.08108939
237	0x3d6a9faa	0.057281174
238	0x3de729e5	0.112872876
239	0x3dba3816	0.09092729
240	0xbd136c6d	-0.035992075
241	0xbe145bd4	-0.14488155
242	0xbb8bb229	-0.0042631817
243	0xbcd99c13	-0.02656368
244	0x3d865e9a	0.065610126
245	0x3c62a407	0.0138330525
246	0x3d2de901	0.042458538
247	0x3dadda19	0.084888645
248	0x3dbd9406	0.09256749
249	0xbccb031d	-0.024781758
250	0xbcc04704	-0.023471363
251	0x3d435a9a	0.047693826
252	0xbd83b860	-0.06431651
253	0x3da8a2bf	0.08234166
254	0xbd704bdf	-0.058666106
255	0xbd17a054	-0.037018135

onnx::GRU_197 f4 [1, 192, 64]
0	0xbd0fa5ff	-0.035070416
1	0x3d374433	0.044742774
2	0xbd23668f	-0.03989273
3	0x3e057c2c	0.13035649
4	0xbc27cc3b	-0.010241563
5	0xbd3acdfb	-0.045606595
6	0xbcaaffbf	-0.020873902
7	0x3d501a30	0.050806224
8	0x3d8860d2	0.06659092
9	0xbdc7972d	-0.09745631
10	0x3de721e9	0.11285765
11	0xbdb462bd	-0.08807895
12	0xbd9353b8	-0.071937025
13	0x3b0f15b9	0.0021833016
14	0x3d9b08d6	0.07570045
15	0xbdb01ac5	-0.08598856
16	0xbc0bbf5b	-0.008529509
17	0xbd9b8257	-0.0759322
18	0x3c76cc12	0.015063303
19	0x3d544e31	0.05183238
20	0x3d36c889	0.04462484
21	0xbe025393	-0.12727194
22	0xbde17fc0	-0.110106945
23	0xbe071d96	-0.1319488
24	0xbc00d1d8	-0.007862531
25	0xbd9c5744	-0.07633832
26	0xbcd31b1a	-0.025769759
27	0x3c811b15	0.015759984
28	0x3d99b00f	0.07504284
29	0x3d0b81c9	0.03405932
30	0xbd51a97b	-0.05118702
31	0x3d5fc3c4	0.054630056
32	0xbd8a85a8	-0.06763774
33	0x3cdfe3dd	0.027330333
34	0xbc327fd0	-0.010894731
35	0x3bcf530a	0.0063270377
36	0xbdd2a76f	-0.10285842
37	0xbdc2f541	-0.09519435
38	0xbd6c731b	-0.05772696
39	0xbd303d99	-0.043027494
40	0x3da5cb82	0.08095457
41	0x3df3ec05	0.119102515
42	0x3d5a5348	0.05330208
43	0xbd8b5b62	-0.06804539
44	0x3db422be	0.08795689
45	0xbcf514bd	-0.029917115
46	0x3d308558	0.043095917
47	0xbdc52be0	-0.09627509
48	0x3d9c80d4	0.076417595
49	0x3da47831	0.08030737
50	0x3d7480b2	0.059693046
51	0x3d34a0eb	0.044098776
52	0xbe0fec3e	-0.14054963
53	0xbd31469f	-0.04328024
54	0xbd3dd447	-0.04634502
55	0xbda849e0	-0.082172155
56	0x3d0fe3d6	0.03512939
57	0xbd65acf8	-0.05607316
58	0x3dafcc13	0.08583846
59	0xbdcfea7a	-0.10152145
60	0xbb7bfb69	-0.0038449413
61	0x3de031cd	0.10946999
62	0x3d1f0a96	0.038828455
63	0x3d18724c	0.037218377
64	0x3dd2c4d9	0.10291452
65	0x3d697dc7	0.057004716
66	0xbcb5c782	-0.02218986
67	0x3cc8bbec	0.02450367
68	0x3d48cb1f	0.049021836
69	0x3d555a02	0.05208779
70	0x3db3065f	0.087414496
71	0x3d1fe331	0.039035026
72	0xbdfa4bb4	-0.122214705
73	0x3dcbbe10	0.09948361
74	0xbc3b0d5d	-0.01141676
75	0xbd21c990	-0.039498866
76	0xbcde760b	-0.027155897
77	0xbd05f570	-0.03270477
78	0xbb8bf074	-0.0042706076
79	0xbd01dcb5	-0.031704623
80	0xbde7f061	-0.113251455
81	0x3de9bf30	0.11413419
82	0x3baa2348	0.005192194
83	0xbda9ef74	-0.08297625
84	0x3d203f9a	0.039123155
85	0xbdbbed89	-0.091761656
86	0x3dc25575	0.09488956
87	0xbd7e3aa6	-0.06206765
88	0xbb36638d	-0.0027830333
89	0x3bf86810	0.0075807646
90	0x3e0083cc	0.12550277
91	0x3de7cd79	0.11318488
92	0x3dc5606e	0.09637533
93	0xbd80cc15	-0.062889256
94	0xbc6b35ef	-0.0143561205
95	0xbdc5a4f1	-0.09650601
96	0x3db46cc4	0.08809808
97	0xbd545cf3	-0.051846456
98	0xbded7fe3	-0.11596658
99	0xbd8b58d3	-0.06804051
100	0x3d5aaa7b	0.05338524
101	0x3d1a2ffd	0.03764342
102	0x3da83bd2	0.08214535
103	0x3d801dae	0.06255661
104	0x3dd5f7f2	0.104476824
105	0x3de47ece	0.111569986
106	0xbd12b3d4	-0.03581603
107	0x3e097ab8	0.1342572
108	0xbdaf21c3	-0.085513614
109	0xbe07aab7	-0.13248716
110	0xbbc42ce0	-0.005986795
111	0xbd85f249	-0.06540353
112	0x3df3f90e	0.11912738
113	0x3d5991dd	0.05311762
114	0xbd99a108	-0.075014174
115	0x3d2005ed	0.03906815
116	0x3d84e6ae	0.06489311
117	0x3d87530a	0.06607635
118	0xbda56949	-0.08076722
119	0x3d22c287	0.039736297
120	0xbdb0734a	-0.0861574
121	0xbcd7223f	-0.026261447
122	0xbda1e4c3	-0.07904961
123	0xbdcdd856	-0.100510284
124	0xbace6dfa	-0.0015749328
125	0xbcc9a8bf	-0.024616597
126	0x3dead30d	0.11466036
127	0xbd45096f	-0.0481047
128	0xbd934347	-0.071905665
129	0x3ddc50d0	0.10757601
130	0x3dde64f7	0.10859101
131	0x3cff06fd	0.031131262
132	0x3cfefba0	0.031125844
133	0x3d9ea88d	0.07746992
134	0xbce60f54	-0.02808348
135	0xbdc879ed	-0.097888805
136	0x3db21013	0.08694472
137	0xbd295310	-0.04133898
138	0xbd1ce459	-0.038303707
139	0x3dae027a	0.08496566
140	0xbdac51fb	-0.08414074
141	0xbdee5986	-0.11638169
142	0x3d21e1a0	0.039521813
143	0xbc5ed982	-0.013601663
144	0xbd890039	-0.066894956
145	0xbc766544	-0.015038792
146	0x3dba5aea	0.09099372
147	0x3de4d582	0.11173536
148	0xbd8b4ff4	-0.06802359
149	0x3de8865e	0.113537535
150	0xbd5629b5	-0.05228587
151	0x3d959039	0.07302899
152	0xbdcd32a5	-0.10019425
153	0x3dd2458a	0.1026717
154	0x3dfd064d	0.123547174
155	0x3d0a7beb	0.033809584
156	0xbd637b99	-0.055537794
157	0x3de0769b	0.10960122
158	0xbd8262f4	-0.0636653
159	0x3df1af46	0.11801009
160	0xbe0660eb	-0.13122909
161	0xbd7e8594	-0.06213911
162	0x3d9c236a	0.07623942
163	0xbda5ff98	-0.08105391
164	0xbe0336bd	-0.1281385
165	0x3dc70b36	0.09718935
166	0xbddb3885	-0.107041396
167	0x3d37196a	0.04470197
168	0x3d773cab	0.06036059
169	0x3d3341f7	0.04376408
170	0xbd147ec7	-0.036253717
171	0x3dd8a8e3	0.105790876
172	0xbdb1feec	-0.086912006
173	0xbd7bbba6	-0.061458252
174	0xbd9b2958	-0.07576245
175	0x3df303ef	0.11865985
176	0x3d369ef1	0.044585172
177	0xbd10da4e	-0.03536444
178	0x3d5b5f45	0.053557653
179	0x3df71f63	0.120665334
180	0xbd972ab2	-0.0738119
181	0x3d569499	0.052387808
182	0x3d7fb13c	0.062424883
183	0xbd3de83f	-0.046364065
184	0x3d0254ab	0.031819027
185	0xbca39831	-0.019970031
186	0xbcbe5d91	-0.023237975
187	0xbc974cef	-0.018469302
188	0x3ba045b2	0.004891121
189	0xbd34054e	-0.04395037
190	0xbde7689e	-0.11299251
191	0x3cf3747e	0.029718634
192	0x3d7a2fef	0.06108087
193	0xbdcecd56	-0.100977585
194	0xbdbf0ccd	-0.093286134
195	0xbdd6a349	-0.10480363
196	0xbd953ef8	-0.07287401
197	0xbdde0dd6	-0.10842483
198	0xbe0e1a4c	-0.13877219
199	0xbb24e304	-0.0025159726
200	0x3d990a4c	0.07472667
201	0x3dd58ccf	0.10427248
202	0xbd01f193	-0.031724524
203	0xbd5ec79d	-0.054389585
204	0x3c150c33	0.009097147
205	0xbd7798bf	-0.060448404
206	0x3ddd2329	0.10797722
207	0x3cb99b42	0.02265704
208	0xbdd909cd	-0.105975725
209	0xbd68306f	-0.056686815
210	0x3dd910a3	0.10598876
211	0x3caa43b5	0.020784238
212	0xbdabbf57	-0.083861046
213	0x3da4089e	0.08009456
214	0xbdc9b5b7	-0.098491125
215	0xbc1db74c	-0.009626221
216	0x3d7bdac8	0.061487943
217	0xbdd59346	-0.10428481
218	0x3d5a1888	0.05324605
219	0x3c04ccd4	0.008105475
220	0xbc9d2f64	-0.019187637
221	0x3dd7c917	0.10536402
222	0x3d1de33b	0.038546782
223	0x3d9ca166	0.07647972
224	0xbd7367b9	-0.05942509
225	0xbd7f252a	-0.0622913
226	0xbe001fd8	-0.12512147
227	0xbdadc785	-0.08485321
228	0x3ce73466	0.028223228
229	0x3de3fb1b	0.11131879
230	0x3ba9f984	0.0051872153
231	0xbd9f85eb	-0.07789215
232	0xbde4fe69	-0.111813374
233	0xbdd9ca62	-0.106343046
234	0xbd1b9f71	-0.037993852
235	0xbd8c3ec6	-0.068479106
236	0xbbbe5b54	-0.005809227
237	0xbdce99f5	-0.10087959
238	0x3d0b36b0	0.0339877
239	0xbd6ece11	-0.05830199
240	0xbd7dcaaf	-0.061960872
241	0xbce72a76	-0.02821849
242	0xbd84e657	-0.06489246
243	0x3b3dc19f	0.0028954518
244	0x3cc19d94	0.02363471
245	0x3d8b489f	0.06800961
246	0x3d585eb9	0.05282471
247	0xbdcf1953	-0.10112252
248	0x3dc09eef	0.09405314
249	0x3d6697b5	0.056297023
250	0x3bbd27e3	0.005772577
251	0x3d9f681f	0.077835314
252	0x3cbd9174	0.023140647
253	0xbd88138a	-0.06644352
254	0x3dd5d642	0.10441257
255	0xbd2d3278	-0.04228446

onnx::GRU_198 f4 [1, 384]
0	0x3dada926	0.08479528
1	0xbddb1f6b	-0.10699352
2	0xbd7799ee	-0.060449533
3	0xbd808aed	-0.06276498
4	0x3d49d5bf	0.04927611
5	0xbde91885	-0.1138163
6	0xbc8f4625	-0.017489502
7	0xbd5f3125	-0.054490227
8	0xbcb3dc42	-0.021955613
9	0x3a284221	0.00064185454
10	0x3da37525	0.07981328
11	0xbdec9505	-0.11551861
12	0x3daeb8db	0.08531352
13	0x3dcd7638	0.10032314
14	0xbdb071f8	-0.08615488
15	0x3bef5a64	0.0073044766
16	0xbd39b881	-0.045341972
17	0xbc8d1290	-0.017220765
18	0xbb160a78	-0.0022894423
19	0x3c422e34	0.011851836
20	0xbd6c7d5d	-0.057736743
21	0xbb82a137	-0.0039865035
22	0xbd682a7c	-0.05668114
23	0xbd0d9fae	-0.03457611
24	0xbdbdb638	-0.09263271
25	0xbb7b40e2	-0.0038338234
26	0x3dd64204	0.1046181
27	0xbbc2c380	-0.0059437156
28	0xbd8f06b9	-0.06983704
29	0xbcbfbaa8	-0.023404434
30	0x3b81b4e5	0.003958332
31	0x3e00de3f	0.1258478
32	0x3d8af614	0.06785217
33	0xbd8e6827	-0.06953459
34	0x3dd0b979	0.10191626
35	0x3d69f875	0.057121713
36	0xbcc5324a	-0.024071831
37	0xbd8657e8	-0.065597355
38	0xbdb9d53d	-0.09073875
39	0xbc0b6dcc	-0.008510064
40	0xbd3a25a4	-0.045446053
41	0xbdf55c0f	-0.119804494
42	0xbca63763	-0.020290082
43	0xbd8b2132	-0.06793441
44	0x3c7e15b8	0.015508108
45	0xbda61823	-0.081100725
46	0x3d2614ed	0.0405473
47	0x3df007ac	0.11720213
48	0xbe0503a1	-0.12989666
49	0xbc29ef94	-0.010372061
50	0x3d60853b	0.05481456
51	0xbc31e291	-0.01085724
52	0xbdf0715a	-0.1174037
53	0x3db323ed	0.08747087
54	0x3b6c9006	0.0036096587
55	0xbdc76423	-0.097358964
56	0x3e034ef5	0.12823088
57	0x3c9cde78	0.01914905
58	0x3d680f16	0.056655012
59	0xbc5173ea	-0.012783984
60	0x3d62eaf1	0.05539984
61	0x3d2c6120	0.042084813
62	0xbddb67a2	-0.10713126
63	0xbd1b9dcb	-0.03799228
64	0x3deef165	0.11667136
65	0x3ca405f8	0.020022377
66	0x3d402f3e	0.046920054
67	0x3d7c77f1	0.061637823
68	0x3dd40af7	0.10353654
69	0xbda53e13	-0.0806848
70	0xbe0345a2	-0.12819532
71	0x3dd210f7	0.10257142
72	0xbdbec413	-0.09314742
73	0x3d4e47de	0.050361507
74	0xbd44c2e1	-0.048037414
75	0xbd7b890a	-0.061409988
76	0x3ded0c2a	0.11574586
77	0x3dae5497	0.08512228
78	0xbda62934	-0.081133276
79	0x3d492758	0.049109787
80	0xbd1de12a	-0.03854481
81	0xbdaf7faf	-0.085692756
82	0xbd5a484a	-0.053291596
83	0xbdc649f3	-0.096820734
84	0x3d2d6e21	0.042341355
85	0x3d74b4d1	0.059742752
86	0x3e053115	0.13007005
87	0x3dcbf2c9	0.09958417
88	0xbdb0d9bd	-0.0863528
89	0x3e0f83b2	0.14015082
90	0xbda4daae	-0.08049522
91	0xbd662f8c	-0.056197688
92	0xbda25e18	-0.07928103
93	0xbdc10cd8	-0.09426278
94	0x3c7db96a	0.015486101
95	0xbcbbfe6f	-0.022948472
96	0x3e141e6e	0.14464733
97	0xbdbbd22c	-0.091709465
98	0xbdc16b83	-0.09444334
99	0xbd9e610f	-0.07733356
100	0xbcc4130c	-0.023934864
101	0x3c9a42fe	0.018830772
102	0xbd1d42f0	-0.038393915
103	0x3d6b9742	0.057517298
104	0xbd1c102e	-0.038101368
105	0xbd8b1ba4	-0.067923814
106	0x3d9ffe7b	0.0781221
107	0x3cbde453	0.023180163
108	0x3e009c47	0.12559615
109	0x3d005b61	0.031337146
110	0x3d236fe1	0.039901618
111	0x3c2a4f9a	0.010394955
112	0x3cb5c784	0.022189863
113	0xbd3c6495	-0.04599436
114	0x3db02dbb	0.086024724
115	0xbda1dd1d	-0.07903502
116	0x3dc258d8	0.09489602
117	0x3b93ddb0	0.004512511
118	0xbe08aecc	-0.1334793
119	0x3d9f8edb	0.077909194
120	0xbd116e8e	-0.035505824
121	0x3df8152c	0.12113413
122	0xbd6ead39	-0.058270667
123	0xbca74ff6	-0.02042387
124	0x3c9e4c01	0.01932335
125	0xbdba387c	-0.09092805
126	0xbcad755c	-0.021174125
127	0x3cfb4878	0.030674204
128	0x3e007cbf	0.12547587
129	0xbd2a9e44	-0.04165484
130	0x3d95a748	0.07307297
131	0xbd6dce7b	-0.058058243
132	0xbd2117ca	-0.039329328
133	0x3dc879f5	0.097888865
134	0x3e015616	0.12630495
135	0x3d8b5928	0.068041146
136	0x3e142789	0.14468206
137	0x3df326d5	0.11872641
138	0xbdd1f051	-0.10250915
139	0x3dd6209a	0.10455437
140	0xbca5acf7	-0.020224078
141	0xbca18f34	-0.019721605
142	0xbce849c8	-0.028355494
143	0xbd5e2002	-0.054229744
144	0xbd25cf7c	-0.040481076
145	0xbc34ac45	-0.0110274
146	0xbd9c843b	-0.076424085
147	0x3ca8760b	0.0205641
148	0xbb8d827e	-0.0043185344
149	0xbd5b2487	-0.053501632
150	0xbdd76698	-0.10517615
151	0x3e073707	0.13204585
152	0xbdba3bd2	-0.09093441
153	0xbdda7251	-0.106663354
154	0x3dfb048b	0.12256726
155	0xbd51bebe	-0.051207297
156	0x3ca02410	0.019548446
157	0x3cb5d126	0.022194456
158	0xbd93acbb	-0.0721068
159	0xbd78e673	-0.06076665
160	0x3dcd7ba4	0.10033348
161	0xbd4a2455	-0.049351055
162	0xbda190d9	-0.078889556
163	0x3e0ca2f5	0.13734038
164	0x3cd834bf	0.026392339
165	0x3aa17dd6	0.0012320827
166	0x3d340f2b	0.043959778
167	0xbd94352d	-0.07236705
168	0xbc126c2c	-0.008936923
169	0x3ccc302f	0.02492532
170	0x3dc063ad	0.09394012
171	0xbd29722a	-0.04136864
172	0xbdf8716f	-0.12131011
173	0xbd28ee98	-0.041243166
174	0xbdd3ba2e	-0.10338245
175	0x3bb9c353	0.0056690364
176	0x3d9cc828	0.07655364
177	0x3d1f5ab7	0.03890487
178	0xbd27c7b8	-0.04096195
179	0x3d492870	0.04911083
180	0xbcbe2f11	-0.023215802
181	0xbe16760f	-0.14693473
182	0xbd1c436c	-0.038150236
183	0xbdd1b3f9	-0.10239405
184	0xbc606a8b	-0.013697277
185	0xbe093d62	-0.13402322
186	0x3d96a217	0.07355135
187	0xbc89c1df	-0.016816078
188	0x3dfe41ac	0.1241487
189	0xbdbd0a64	-0.092304975
190	0xbc9692ed	-0.018380607
191	0xbd5a5e63	-0.05331267
192	0xbd30a163	-0.04312266
193	0x3e03bcd7	0.12865005
194	0x3de8a3fd	0.11359403
195	0x3d95988d	0.073044874
196	0x3dff3689	0.12461574
197	0xbda50003	-0.08056643
198	0xbd8c4c5c	-0.06850502
199	0x3cc59703	0.02411986
200	0xbd17701b	-0.036972146
201	0x3ddf543e	0.1090474
202	0xbdebd943	-0.11516049
203	0xbd949704	-0.072553664
204	0x3d7eade6	0.06217756
205	0x3daf28c1	0.08552695
206	0x3cbf6439	0.02336322
207	0xbd2aa4df	-0.04166114
208	0x3d178968	0.036996275
209	0x3db382b6	0.087651655
210	0xbd95e89f	-0.073197596
211	0x3da64e20	0.0812037
212	0x3d1c842d	0.03821199
213	0xbdbf2fba	-0.09335275
214	0x3de4ef58	0.11178464
215	0x3d5dcc43	0.054149877
216	0x3da63374	0.08115283
217	0x3e0d01da	0.13770238
218	0x3dc400df	0.09570479
219	0xbd3ed0c5	-0.046585817
220	0xbd552026	-0.052032612
221	0x3ccc0a4e	0.024907257
222	0xbe208688	-0.1567632
223	0x3d562f9b	0.052291494
224	0xbdb20c59	-0.086937614
225	0xbbb17bb6	-0.005416359
226	0xbdd7d2b0	-0.10538232
227	0x3d2e9f12	0.04263217
228	0x3d93d484	0.072182685
229	0xbde3635b	-0.11102935
230	0x3d881111	0.0664388
231	0x3c93ef85	0.018058548
232	0x3dee099f	0.11622929
233	0x3dbcc24d	0.092167474
234	0xbdd4af8b	-0.10385045
235	0x3e03c2da	0.12867299
236	0xbccbf910	-0.024899036
237	0xbc8d1933	-0.01722393
238	0xbd2f667d	-0.04282235
239	0xbde86739	-0.11347813
240	0xbd12055b	-0.03564964
241	0xbc56f9f6	-0.013121119
242	0x3d4ba7b9	0.0497205
243	0xbd9e6881	-0.07734776
244	0x3ccd7e2c	0.025084578
245	0xbe17fff6	-0.14843735
246	0xbdfb4b6d	-0.12270246
247	0x3d99b6aa	0.075055435
248	0xbd13b9d8	-0.036065906
249	0x3d5eed97	0.054425802
250	0x3dbf22f4	0.09332839
251	0xbd40e289	-0.04709104
252	0x3dce8b30	0.10085142
253	0xbd3c4e32	-0.04597301
254	0xbd9f4c5f	-0.077782385
255	0x3d9dfa58	0.07713765

onnx::GRU_218 f4 [1, 192, 64]
0	0x3da85be6	0.08220653
1	0xbd3d20e3	-0.04617394
2	0x3cc2f263	0.02379722
3	0x3dbc4a3f	0.09193849
4	0xbdcaedbe	-0.09908627
5	0xbde0fd4b	-0.10985812
6	0xbdebc38f	-0.11511909
7	0x3db4b0e8	0.08822805
8	0x3de72b19	0.11287517
9	0x3d881e7b	0.06646439
10	0xbd78b2c3	-0.060717355
11	0xbd456155	-0.048188526
12	0xbe09919f	-0.13434456
13	0x3d8ae395	0.06781689
14	0x3dcb5632	0.0992855
15	0xbdbc4a58	-0.091938674
16	0xbdc39c97	-0.095513515
17	0xbdae7132	-0.08517684
18	0xbd2983a6	-0.041385315
19	0xbdba8d99	-0.09109039
20	0xbd88fdf0	-0.0668906
21	0x3ce3925b	0.027779749
22	0x3dc8c167	0.098025136
23	0x3da278b1	0.07933176
24	0xbe094fda	-0.13409367
25	0x3cbeed92	0.023306642
26	0x3e04cf49	0.12969698
27	0x3c19ab31	0.009379194
28	0x3dc4b290	0.096043706
29	0xbbc96a04	-0.0061466713
30	0x3bf11568	0.007357288
31	0xbdfacc3e	-0.12245987
32	0xbd3367f7	-0.04380032
33	0xbda60832	-0.08107032
34	0xbcfea893	-0.031086242
35	0x3d95aa95	0.073079266
36	0xbc1241c3	-0.008926812
37	0xbcd16d9a	-0.025564957
38	0x3d2c3e8a	0.04205183
39	0x3db241c2	0.087039486
40	0x3d55f046	0.052231096
41	0xbd919628	-0.07108718
42	0xbd18a4be	-0.037266485
43	0x38ad24b9	8.256123e-05
44	0xbddbea17	-0.107380085
45	0xbcf7ab62	-0.030233089
46	0xbd314036	-0.043274127
47	0xbbeb9229	-0.0071890545
48	0xbd80c375	-0.062872805
49	0xbdba4a47	-0.090961985
50	0x3d847b70	0.06468856
51	0x3c9e2648	0.019305363
52	0x3d9b3f97	0.07580488
53	0xbd2cd6b9	-0.042196963
54	0xbd0dc7ce	-0.034614377
55	0xbdaa0233	-0.08301201
56	0x3da04966	0.078265
57	0xbd42bafd	-0.047541607
58	0x3a255e43	0.00063082966
59	0xbcfe006f	-0.031006066
60	0x3dc84aeb	0.097799145
61	0xbdae4a23	-0.08510234
62	0x3ccbab4e	0.024861958
63	0xbde5ff37	-0.11230319
64	0xbd40f81e	-0.047111623
65	0x3d2fcbcf	0.042918976
66	0xbc815ffc	-0.01579284
67	0xbc217d2c	-0.009856503
68	0x3d020cf3	0.03175063
69	0xbda23118	-0.0791952
70	0x3c3cc806	0.011522299
71	0xbc11a296	-0.008888861
72	0x3d82b639	0.063824125
73	0xbb8db1f8	-0.004324194
74	0x3cbce5a6	0.023058724
75	0x3ddaef30	0.10690153
76	0xbd8f80d7	-0.07006996
77	0x3df293ca	0.11844595
78	0xbe0f7e7a	-0.1401309
79	0x3cb8f75f	0.022578893
80	0x3ced29f4	0.028950669
81	0x3d0d6b38	0.03452608
82	0x3de0dd37	0.109796934
83	0x3daf91af	0.08572709
84	0x3dd7f1d1	0.1054417
85	0xbd9699ee	-0.073535785
86	0x3d78e262	0.06076277
87	0xbd9e761f	-0.077373736
88	0x3c6c9ac3	0.014441195
89	0xbd2ce370	-0.04220909
90	0x3d8e96cc	0.06962356
91	0xbd07fcaa	-0.033199944
92	0x3d9f6092	0.07782091
93	0xbe055793	-0.13021688
94	0xbd3439f2	-0.044000573
95	0x3ddc50f6	0.107576296
96	0x3d347c2c	0.044063732
97	0x3da31801	0.07963563
98	0xbdc30032	-0.09521522
99	0x3dce0a35	0.100605406
100	0xbdce01e4	-0.10058954
101	0x3d5da6f5	0.0541143
102	0x3de8abf6	0.11360924
103	0x3dd4b51d	0.10386107
104	0x3c268f8a	0.010166058
105	0xbd6999f2	-0.05703158
106	0x3dcfa5ab	0.101390205
107	0xbd2a79ed	-0.041620184
108	0xbd1c7e7f	-0.038206574
109	0x3b5900d2	0.0033112061
110	0x3dbd9d0a	0.092584684
111	0x3d635b44	0.05550696
112	0xbc6b8bad	-0.014376563
113	0x3e030717	0.12795673
114	0x3d7ffa36	0.06249448
115	0x3d05cb1f	0.032664414
116	0xbdb55829	-0.08854706
117	0x3cd66c91	0.026174815
118	0xbdb0e99a	-0.08638306
119	0x3dcb5fb6	0.09930365
120	0x3d4b6366	0.04965534
121	0x3c93e21a	0.01805215
122	0xbd161677	-0.036642518
123	0xbdb53571	-0.08848084
124	0x3d8606e2	0.065442815
125	0x3c014c54	0.007891733
126	0xbd74ee1b	-0.059797388
127	0x3df0c359	0.117560096
128	0x3dbf7dcb	0.09350165
129	0xbe048f2b	-0.12945239
130	0x3ccd9abe	0.0250982
131	0xbd35c95b	-0.04438148
132	0xbd2dab88	-0.042399913
133	0xbd676972	-0.056497045
134	0xbdd814c0	-0.10550833
135	0xbd18e686	-0.03732922
136	0x3d80615e	0.06268571
137	0xbdb2008e	-0.08691512
138	0x3e088c91	0.13334872
139	0xbccc76be	-0.024958964
140	0x3d555d3d	0.052090872
141	0x3df8ad2c	0.12142405
142	0xbd42ac8a	-0.047527827
143	0xbd95b8e6	-0.07310657
144	0x3c8ed7a7	0.017436815
145	0xbddd4915	-0.10804955
146	0xbd537836	-0.051628314
147	0x3cce93b0	0.025216907
148	0x3cf011ce	0.029305365
149	0x3c29b220	0.01035741
150	0x3df872e0	0.12131286
151	0x3e02678a	0.1273481
152	0xbdcc5b5f	-0.09978365
153	0x3d0287ed	0.03186791
154	0x3d88e16e	0.06683622
155	0x3cbaaec5	0.022788415
156	0x3c81892f	0.015812485
157	0x3da1c300	0.078985214
158	0x3dd8c26a	0.105839565
159	0xbcab2b33	-0.020894622
160	0xbcb93a14	-0.022610702
161	0xbdd1a487	-0.10236459
162	0xbdb8d2cc	-0.09024581
163	0x3d59a60f	0.05313688
164	0x3d653745	0.055960912
165	0x3d260c15	0.040538866
166	0xbdee9528	-0.11649543
167	0xbd426e60	-0.047468543
168	0x3d5e5e2b	0.054289024
169	0xbd89148e	-0.066933736
170	0xbdfe8865	-0.12428359
171	0xbca046c5	-0.019564996
172	0xbdca752e	-0.098856315
173	0x3dcb0fb7	0.09915107
174	0x3dd221fc	0.10260388
175	0xbd35509f	-0.04426634
176	0x3dcca3ba	0.09992166
177	0xbbf48833	-0.0074625253
178	0x3cd2ae09	0.025717752
179	0xbda4a0d4	-0.08038488
180	0xbcd6504d	-0.026161337
181	0x3da9cd02	0.08291055
182	0x3dde0604	0.10840991
183	0x3d6a5197	0.057206716
184	0x3bd6d7ae	0.0065564727
185	0xbd4d6451	-0.050144497
186	0x3ca63f17	0.020293755
187	0x3d84b75c	0.064802855
188	0xbdd04d5d	-0.10171006
189	0x3cf00eaf	0.029303877
190	0x3dbdf9cd	0.09276161
191	0x3dd85669	0.105633564
192	0x3d117120	0.035508275
193	0xbb2ce730	-0.0026382916
194	0xbda7eede	-0.08199857
195	0xbdcbf2d7	-0.099584274
196	0x3d5c877d	0.05384015
197	0x3df75a98	0.12077826
198	0xbdfb1bdf	-0.12261175
199	0xbd96bfb6	-0.07360785
200	0xbcd0a756	-0.025470417
201	0xbd4a54e5	-0.049397368
202	0xbd8e9f5c	-0.06963989
203	0xbe0e0475	-0.13868888
204	0xbd66346d	-0.05620234
205	0xbd7b803a	-0.061401583
206	0x3b0227fd	0.001986026
207	0xbcfaf75e	-0.030635532
208	0x3de406cd	0.1113411
209	0x3de5b68f	0.11216461
210	0xbe0067a3	-0.12539534
211	0xbc890e2d	-0.016730392
212	0x3d756549	0.059911046
213	0x3d868203	0.065677665
214	0xbd51ad4e	-0.051190667
215	0x3d2ebd2b	0.042660873
216	0x3d9ba848	0.076004565
217	0xbd34ce08	-0.0441418
218	0xbd935e79	-0.071957536
219	0x3db3cf73	0.08779802
220	0x3ce137b2	0.027492378
221	0xbd7ae61c	-0.061254606
222	0xbcb68d2c	-0.022284113
223	0x3dcc2165	0.09967307
224	0xbbb090e2	-0.005388365
225	0xbe020c93	-0.12700109
226	0x3dcacf46	0.099028155
227	0xbde699f5	-0.11259834
228	0xbd8f8faa	-0.070098236
229	0xbda4cea9	-0.0804723
230	0xbdf3404c	-0.11877498
231	0xbdadaf73	-0.0848073
232	0x3dc65985	0.09685043
233	0xbd881c84	-0.06646064
234	0xbd5455f4	-0.051839784
235	0xbd88f4ff	-0.06687354
236	0xbd306491	-0.043064658
237	0xbddd7277	-0.10812848
238	0xbc739e55	-0.014869292
239	0x3b2ff7c8	0.002685057
240	0xbd831d26	-0.06402044
241	0x3dc90c94	0.09816852
242	0xbd8ee218	-0.06976718
243	0x3de47fd7	0.11157196
244	0xbd34e606	-0.04416468
245	0xbd0c4a68	-0.034250647
246	0x3e060cee	0.1309087
247	0xbde9c0f0	-0.11413753
248	0xbdc5daa4	-0.09660843
249	0x3e01f6f8	0.12691867
250	0x3d48dbfd	0.049037922
251	0xbb9959be	-0.0046798876
252	0xbdd7f1bf	-0.10544156
253	0xbe049235	-0.12946399
254	0xbd65a03f	-0.056061026
255	0x3dfac2fb	0.12244221

onnx::GRU_219 f4 [1, 192, 64]
0	0xbdc5606a	-0.0963753
1	0xbde28be7	-0.110618405
2	0xbd417fa8	-0.047240883
3	0xbdabb74d	-0.08384571
4	0xbd9b2f8a	-0.07577427
5	0xbc8e4135	-0.017365078
6	0x3df388c8	0.11891323
7	0x3d95bf7a	0.07311912
8	0x3dca764b	0.09885844
9	0x3d7d4905	0.061837215
10	0xbddde210	-0.108341336
11	0xbd221186	-0.039567493
12	0x3d707b70	0.05871147
13	0x3d4bc0b3	0.04974432
14	0xbddaea5e	-0.10689233
15	0xbca81b5c	-0.020520858
16	0x3d935eb3	0.07195797
17	0xbd1ae93f	-0.037820097
18	0x3e0b6262	0.13611749
19	0x3c56843e	0.013093052
20	0x3dcca046	0.09991507
21	0x3dc3cd6e	0.09560667
22	0x3e019a03	0.12656407
23	0xbd29c0a0	-0.041443467
24	0x3d32214f	0.043488797
25	0xbd55b956	-0.052178703
26	0x3e080a13	0.13285093
27	0x3df59c7d	0.119927384
28	0xbdd87341	-0.10568858
29	0x3ddacdd6	0.10683791
30	0x3ddbc652	0.10731186
31	0x3dcf67ed	0.10127244
32	0x3c4bc22e	0.012436433
33	0xbd9e01ec	-0.0771521
34	0xbe0c8b94	-0.1372512
35	0x3e0851cf	0.13312458
36	0x3da5e8d0	0.08101046
37	0x3d8e196a	0.06938441
38	0x3d426cb0	0.047466934
39	0xbd2914f9	-0.041279767
40	0xbd8760f5	-0.0661029
41	0x3ddf032d	0.108892776
42	0x3d440d3f	0.047864195
43	0x3da1dd29	0.07903511
44	0x3d770ba4	0.060313836
45	0x3d5821be	0.052766554
46	0x3db48716	0.08814828
47	0xbc7104ed	-0.014710647
48	0x3da72a8e	0.081624135
49	0xbcd98a35	-0.02655516
50	0xbdbd84e8	-0.092538655
51	0x3d2413ac	0.040057823
52	0xbbbad856	-0.005702059
53	0x3e011d72	0.12608889
54	0xbba934d8	-0.00516377
55	0x3dc5b8ed	0.096544124
56	0xbcb32c07	-0.02187158
57	0xbddd9bb3	-0.10820713
58	0x3d66f785	0.056388397
59	0x3d0f441c	0.034977064
60	0xbd84f7cb	-0.06492575
61	0x3df53bde	0.119743094
62	0xbdd0bea8	-0.10192615
63	0x3d2d4716	0.04230412
64	0xbdd65cc8	-0.10466915
65	0x3d813173	0.0630826
66	0xbde81a58	-0.1133315
67	0x3dad21a3	0.08453681
68	0xbdfe5f91	-0.124205716
69	0x3da89cb7	0.08233016
70	0xbe0fde87	-0.14049731
71	0xbdc990db	-0.09842082
72	0x3d891866	0.06694107
73	0xbdfea3e0	-0.124336004
74	0xbc3f09f0	-0.011660084
75	0xbc805199	-0.015663909
76	0xbd5d310e	-0.05400186
77	0xbd850512	-0.06495108
78	0xbdb027ad	-0.086013176
79	0x3c0351bb	0.0080150915
80	0xbc0812a0	-0.008305222
81	0xbc92eef1	-0.017936202
82	0xbdd9c35b	-0.10632964
83	0x3d07dbca	0.03316859
84	0x3dc01920	0.09379792
85	0x3b872d2f	0.0041252594
86	0xbd941a80	-0.07231617
87	0xbe07c1b0	-0.1325748
88	0x3db81450	0.08988249
89	0xbd6d531e	-0.057940595
90	0x3c9d4adf	0.01920074
91	0x3cb95728	0.022624567
92	0xbdcd7db5	-0.10033742
93	0x3e116873	0.142
94	0xbd5fe4ee	-0.054661684
95	0x3d89adc8	0.06722599
96	0x3dbb5d4e	0.09148656
97	0x3b30e283	0.002699048
98	0x3caa94a1	0.020822825
99	0x3dbe9f4f	0.093077295
100	0xbdef56f8	-0.1168651
101	0x3d82afa0	0.06381154
102	0xbd0b329e	-0.03398382
103	0xbd73fb61	-0.059565905
104	0xbd7eca2c	-0.062204525
105	0xbd1f1163	-0.03883494
106	0x3d65c23e	0.056093447
107	0xbc309f27	-0.010780132
108	0xbd4fd6ef	-0.050742086
109	0x3dd3ff05	0.103513755
110	0x3dc191e5	0.09451655
111	0xbddb0268	-0.10693818
112	0xbdaac494	-0.083382756
113	0xbcaaadea	-0.020834882
114	0x3dd65721	0.10465837
115	0xbdd376bb	-0.103253804
116	0xbd868991	-0.065692075
117	0xbce8132d	-0.028329456
118	0x3db675aa	0.089091614
119	0x3c3e681d	0.011621502
120	0x3da73888	0.08165079
121	0xbdca7617	-0.09885805
122	0xbde9759d	-0.11399386
123	0x3da80d3a	0.08205648
124	0xbe154099	-0.14575423
125	0xbc30572f	-0.010762974
126	0xbdf6e424	-0.12055233
127	0xbd331f35	-0.043730933
128	0x3d8a2e97	0.067471676
129	0xbc09aa54	-0.008402426
130	0x3d01e0dd	0.031708587
131	0xbcf34ae9	-0.029698806
132	0xbd204038	-0.039123744
133	0x3ddf00ee	0.10888849
134	0x3c4cb13e	0.01249343
135	0x3ddb108b	0.10696515
136	0xbd83cb21	-0.06435228
137	0xbde60e31	-0.112331755
138	0xbdec4296	-0.11536138
139	0x3df19ffe	0.11798094
140	0xbd588b58	-0.052867264
141	0x3d2e9f43	0.042632353
142	0xbc3e3a0f	-0.011610522
143	0x3de4c341	0.11170054
144	0xbda46178	-0.08026403
145	0x3d9070eb	0.070527874
146	0xbb6b68a5	-0.0035920527
147	0x3c2744bc	0.010209259
148	0xbd376e61	-0.044783
149	0xbd3a48fc	-0.04547976
150	0xbd25cfcb	-0.04048137
151	0xbe097a05	-0.13425453
152	0x3d33f08a	0.043930568
153	0x3d6ba093	0.057526182
154	0xbce49abf	-0.02790582
155	0xbc3c8f93	-0.01150884
156	0x3d533db1	0.051572505
157	0xbd0935e6	-0.033498667
158	0x3c85aa19	0.01631646
159	0x3cb33013	0.02187351
160	0xbda9f6b9	-0.08299012
161	0xbd7f90ac	-0.06239383
162	0x3e023ef2	0.12719324
163	0x3d3c9006	0.04603579
164	0xbdeb2a16	-0.11482637
165	0x3dcbc0fc	0.09948918
166	0xbe07a82b	-0.13247745
167	0x3b8bf76d	0.004271439
168	0xbd821cc8	-0.06353146
169	0x3cd187c1	0.025577428
170	0x3acb8222	0.0015526453
171	0xbc8d923c	-0.017281644
172	0xbde76aee	-0.11299692
173	0x3d11ecb8	0.035626143
174	0xbd07d890	-0.033165514
175	0xbdf7c515	-0.12098137
176	0x3d03e415	0.032199938
177	0x3da92806	0.08259587
178	0x3dc0f05d	0.09420846
179	0x3cabbe62	0.020964805
180	0x3d68cf09	0.05683807
181	0xbcf3b69d	-0.029750163
182	0xbda4d857	-0.08049076
183	0x3de2b678	0.110699594
184	0x3db78f0e	0.089628324
185	0x3dd3bfd3	0.10339322
186	0xbd896bde	-0.06710027
187	0xbd5ba6e8	-0.05362597
188	0xbca2fd59	-0.019896196
189	0xbceb97f6	-0.028758984
190	0xbc908203	-0.01764012
191	0x3dacea8d	0.084431745
192	0x3d534eeb	0.051588934
193	0x3bef3e24	0.007301109
194	0x3c5415ce	0.012944652
195	0xbcc13774	-0.023586012
196	0x3db6ae0a	0.08919914
197	0x3d312be2	0.04325474
198	0x3cff0408	0.031129852
199	0x3d5ef7ad	0.05443542
200	0xbdb05f74	-0.08611956
201	0x3c931aa8	0.017957047
202	0xbd63f051	-0.055649105
203	0x3d7dbd69	0.061948214
204	0xbd09ff51	-0.033690754
205	0xbd9f8bd5	-0.07790343
206	0x3da2dddb	0.07952472
207	0x3d18e8f8	0.03733155
208	0xbd62c401	-0.055362705
209	0xbd8d6d76	-0.06905644
210	0x3ccd5a59	0.025067495
211	0x3d6599ef	0.056055006
212	0x3dc7ca10	0.09755337
213	0xbc641dbf	-0.013923108
214	0xbde169c1	-0.11006499
215	0x3da604c4	0.08106378
216	0x3dc7f3dc	0.09763309
217	0xbd1c5cd4	-0.038174465
218	0x3d87845c	0.066170424
219	0xbc4b196f	-0.012396201
220	0xbbf180db	-0.007370097
221	0xbb95fbea	-0.0045771496
222	0x3ceaef40	0.028678536
223	0xbcd680d6	-0.02618448
224	0x3da5174b	0.080610834
225	0xbc11d228	-0.008900203
226	0x3dc9ca45	0.09853033
227	0xbde11c1d	-0.1099169
228	0x3c5658e8	0.01308272
229	0xbc1ae93b	-0.009455021
230	0x3cfabe22	0.03060824
231	0xbdadf371	-0.084936984
232	0x3d42be09	0.047544513
233	0x3df623d7	0.12018555
234	0xbdc9efcc	-0.09860191
235	0x3d298a1d	0.04139148
236	0x3dbdc0f2	0.09265317
237	0x3d156cd2	0.036480732
238	0x3dcc9b25	0.09990529
239	0x3db91b1e	0.09038375
240	0xbc234255	-0.009964545
241	0xbd8da352	-0.069159165
242	0x3db30806	0.08741765
243	0xbd76c3cb	-0.060245316
244	0xbc9932c7	-0.01870097
245	0xbd4d2ad4	-0.050089672
246	0x3e05b254	0.13056308
247	0x3d95ede9	0.073207684
248	0x3cc5ba40	0.024136662
249	0xbdb6d4db	-0.08927318
250	0x3ded0c0a	0.11574562
251	0xbd32e8fd	-0.043679226
252	0x3de02c67	0.10945969
253	0x3d8f905e	0.07009958
254	0xbd2eb0c5	-0.04264905
255	0xbde0876d	-0.109633304
