models/direction_model_lstm.pt (torch, 229801 bytes, 11 tensors)

lstm.weight_ih_l0 f4 [256, 15]
000000 03 7a 00 bd a7 00 8a ba 7a dc c5 bd d2 1e ab bc
       -0.03136636 -0.0010528759 -0.09661193 -0.02088872
000010 f4 3e 4d bc ba 02 94 3e b2 45 68 3e ac 9e 6a 3e
       -0.012527216 0.2890833 0.22682837 0.22912091
000020 0e b8 5b 3d f5 68 e6 3d 5f a3 8a 3d 05 de 4a 3e
       0.053642325 0.11250488 0.06769442 0.19811256
000030 02 06 2e 3c 25 fd 2d bd 04 ba 28 3e e5 a6 8d bd
       0.01062155 -0.042477746 0.1647721 -0.06916598
000040 f3 f6 49 bd c5 40 1d 3d 6d 72 9b be a3 a5 91 3e
       -0.049307775 0.038391847 -0.30360737 0.28446683
000050 11 57 f3 3c 90 35 97 3d 61 2c 2d 3d 59 21 a5 bc
       0.029704602 0.07383263 0.04227865 -0.020157503
000060 be 6e ac 3d 2e a2 f5 3b fa 65 af bd 0d 52 bf bd
       0.0841956 0.00749614 -0.08564372 -0.09341822
000070 4a 0f 2d 3e ea b9 f8 3d 56 b1 d8 3d 0f df ef 3d
       0.16900364 0.12144835 0.10580699 0.11712467
000080 77 cd 54 3e 9e 4f 2f bd 3f 6e a2 3d a3 3b a7 3d
       0.20781504 -0.04280054 0.07931184 0.08165672
000090 68 a4 36 3d 99 c0 8a 3d c3 76 5a 3d b7 f0 ab 3c
       0.044590384 0.06775016 0.053335916 0.020988805
0000a0 e9 25 d2 3c 7d be 91 3d f0 aa db bd b3 7f e9 3d
       0.025652843 0.07116411 -0.10725963 0.1140131
0000b0 0f 0d 91 3e c0 27 80 be 2a 3c 13 be 72 3f 84 3d
       0.28330275 -0.25030327 -0.1437842 0.06457414
0000c0 d2 12 39 3d e6 e6 a9 3b 49 87 9c 3d 26 cf 00 bd
       0.045183964 0.005184996 0.07642991 -0.031447552
0000d0 7d 17 be 3d 60 cf 9b 3c 3e 81 b1 bd 5a 7a 5e 3d
       0.09281824 0.019019783 -0.08667229 0.054315902
0000e0 27 64 04 3d f7 c0 41 be 4f 8e b7 bc 48 4a 2f 3e
       0.032322075 -0.18921266 -0.022406725 0.1711818
0000f0 63 82 b6 bd 51 ca 3e be 1e af c1 3d 5e 1b 7f be
       -0.08911588 -0.18631865 0.09457229 -0.24912784
000100 3b e9 f8 3d 7f d4 06 3e cb 5b dc 3d 3f 49 3f bd
       0.1215386 0.13166998 0.107596956 -0.046700712
000110 49 a9 29 be d8 7c c0 bc 7c 49 46 3e 7c cc 58 be
       -0.16568483 -0.02349703 0.1936397 -0.21171755
000120 f3 ef 3e bd 18 ea 92 bc ba 6a 8c bd 90 36 d2 bd
       -0.046615552 -0.01793389 -0.06856294 -0.10264313
000130 d8 ab ea 3c e4 b6 d2 3d 9e 29 1e bd 30 cb a2 3d
       0.028646395 0.1028879 -0.038613908 0.07948911
000140 1d 9d 55 3d c1 b2 34 3e 9b 89 26 bd 9b 42 fa bd
       0.052151788 0.17646314 -0.040658575 -0.12219735
000150 c5 19 22 be d2 73 e6 bc 86 0a 1a 3c 6e 83 96 bd
       -0.15830143 -0.0281314 0.009401923 -0.07349287
000160 90 3b 29 be 1e cc 2a 3e db da 97 3d ca 1a c1 3d
       -0.16526628 0.16679427 0.0741479 0.09428938
000170 0f fd 97 bd 38 f4 10 3e 3e d6 fe bd 66 e9 4c 3d
       -0.07421314 0.14155662 -0.12443207 0.050027274
000180 63 70 0a 3e 7a 31 dc 3b 38 e5 06 be fd cd c6 3d
       0.13519435 0.0067197653 -0.13173378 0.09707258
000190 09 4e 68 be 15 57 b1 bd 56 2f 31 3e 43 68 b2 bd
       -0.22686018 -0.08659188 0.17303213 -0.087112926
0001a0 c8 80 2e 3e 7d d6 1d be e6 34 09 be 5d ef 2c be
       0.17041314 -0.15413852 -0.13399085 -0.16888185
0001b0 a2 2c 21 be 61 65 eb bd 35 f1 f1 bd 96 e8 84 3d
       -0.15739682 -0.11493946 -0.11813585 0.06489675
0001c0 11 34 83 3d fe da 44 3d 76 73 50 3d 9e 37 2b 3c
       0.06406415 0.04806041 0.050891362 0.010450272
0001d0 21 09 0f be 72 6e 2e bd 12 e7 d6 bd 1a 29 21 3e
       -0.13968326 -0.042585798 -0.10493292 0.15738335
0001e0 43 c1 08 be 12 0a 07 be df a2 af bd 51 2f 4d 3e
       -0.13354973 -0.13187435 -0.08575987 0.20037581
0001f0 95 1d 9f bd d9 73 ec 3d 14 da 23 bd ea 1d 2a 3d
       -0.07769314 0.11545534 -0.040002897 0.041532435
000200 bd 04 07 ba 91 8a 81 be c4 2d 05 be 2a 29 01 bd
       -0.00051505474 -0.2530103 -0.1300574 -0.031533398
000210 79 6a dc 3d 0b a2 f7 bd 35 67 b4 bd b8 b8 b1 3d
       0.107624955 -0.12091454 -0.08808748 0.086778104
000220 10 06 99 bd 00 d8 b3 bd 05 95 44 bc 04 b2 8d 3d
       -0.074718595 -0.08781433 -0.01199842 0.069187194
000230 98 c5 4d bd f2 a6 01 be ef 9a d1 bd 3b d6 0b 3e
       -0.05023727 -0.12661341 -0.10234629 0.13655941
000240 3d ca ca bd cb 42 1c 3d 63 03 a2 3c c2 83 83 bc
       -0.09901855 0.038149636 0.019777006 -0.016054038
000250 8f 26 50 bb b8 cb 58 bc b9 06 6b bc e9 90 b3 3d
       -0.0031761264 -0.013232164 -0.0143448645 0.08767874
000260 e0 83 97 bd 8a cf 0e bd ec c6 d5 bd ca c4 fe 3d
       -0.073982 -0.034865893 -0.10438332 0.12439878
000270 2b 15 32 bd 88 76 8d 3d 5d fb 15 be 2f 9c 07 3e
       -0.04347722 0.06907374 -0.14646669 0.13243173
000280 64 5b db bd 7a d5 68 3e 28 ef 8e bc 65 9c 9e 3c
       -0.10710791 0.22737685 -0.017448023 0.019361684
000290 f4 87 cf bd 60 25 de bc c7 bd 86 3c 31 5a 8f bd
       -0.10133353 -0.027117431 0.016447915 -0.069996245
0002a0 12 fa 2f 3e 37 59 45 be 0b 1d 83 bd 3c 0f 14 bd
       0.17185238 -0.19272314 -0.06402024 -0.03614734
0002b0 51 16 85 bd 42 45 b4 3d d0 05 bd 3d 14 71 52 3a
       -0.06498397 0.088022724 0.09229624 0.0008027714
0002c0 ef 77 6e bd 3d 4a 02 3e d5 d8 b9 bd 77 f7 85 be
       -0.058219846 0.12723632 -0.090745606 -0.26165363
0002d0 73 17 61 3e 53 ce 3e 3d 6e 81 95 bd 33 1c ea bd
       0.21981601 0.046583485 -0.073000774 -0.1143116
0002e0 78 31 37 3e 6c f5 37 bd ff 80 83 3d 73 1f aa b9
       0.17889965 -0.044911787 0.064210884 -0.00032448358
0002f0 8b 07 70 bd b5 43 76 3d bb cd e5 3c db 70 6f 3d
       -0.058600944 0.060123164 0.028052201 0.058457237
000300 72 59 02 be 64 e5 29 be d6 86 c9 bd ec 6d 19 be
       -0.12729433 -0.16591412 -0.09840171 -0.14983338
000310 38 b5 04 be f9 fd 83 be 46 c0 16 be 29 71 8f 3d
       -0.12959754 -0.25779703 -0.14721784 0.070040055
000320 52 d4 93 bc 90 73 5a bd 2f bb 1e be 5c 7b 77 bd
       -0.018045578 -0.053332865 -0.15501092 -0.06042038
000330 f8 58 9c ba 37 58 9f 3b 30 24 97 bd d0 99 d9 3a
       -0.001192837 0.004862811 -0.07379949 0.0016601626
000340 03 93 8a bd c3 05 27 3d 6b 3c 37 3d 02 24 17 be
       -0.067663215 0.04077698 0.044735353 -0.1475983
000350 8e 3d 84 be 58 d9 1d 3d 89 fb 87 bc e2 99 73 3e
       -0.25828212 0.038537353 -0.016599433 0.2378917
000360 95 e9 30 3d 21 2e 8e 3d 9d 8f 80 3d 1c 9e 99 bd
       0.04319151 0.06942392 0.06277392 -0.0750086
000370 76 bb 25 3d 9b ea 19 be e2 0a 7e 3d 74 78 2b 3d
       0.04046198 -0.15030901 0.062022097 0.04186292
000380 54 b7 59 bc db 7d e8 3d c3 33 a5 3d bb e5 6e be
       -0.013288338 0.1135213 0.080665134 -0.23329823
000390 0a fc cc bd 0e 6b 2a 3d d9 46 98 bd fe a8 0c be
       -0.1000901 0.041606 -0.07435388 -0.1373634
0003a0 fe ab f8 bd a5 63 62 bc 92 6e 16 3c af 19 4a be
       -0.1214218 -0.013817702 0.009181635 -0.1973636
0003b0 f6 e1 08 3e 7d ca 9e 3b 10 44 33 3d cc ea 9e bd
       0.13367447 0.004845916 0.04376608 -0.07759628
0003c0 b7 e4 58 3e 54 4c 5b 3e 34 af 47 bd d8 7a 58 3e
       0.21180998 0.21415836 -0.04875107 0.21140611
0003d0 e5 46 5a 3d f3 7e 4e 3d 24 02 84 bd 46 52 73 bc
       0.053290267 0.050414037 -0.06445721 -0.0148511585
0003e0 e2 f9 e7 bc d0 d3 49 3d ad 4c fa 3d 79 1b c3 bd
       -0.028317396 0.049274266 0.12221656 -0.09526724
0003f0 bb fa 15 3e 2d e8 02 be 85 e7 dd 3d 6c 88 f0 bd
       0.14646427 -0.1278388 0.108351745 -0.117447704

lstm.weight_hh_l0 f4 [256, 64]
000000 6e 55 d8 3c a4 e4 a9 3c a0 9f 71 bd 6e 14 a9 3d
       0.026407924 0.020738907 -0.05899012 0.0825585
000010 a0 e7 99 3d c4 39 fe bd 81 c8 cb 3d 6c d5 c6 bb
       0.07514882 -0.12413362 0.099503525 -0.0060679223
000020 f0 c2 56 bc b9 c2 09 bd 3a 9c 8e 3a 66 e2 2b 3e
       -0.013108 -0.033632968 0.0010880299 0.16785583
000030 89 b8 1a bd 32 e5 5a 3d e8 a8 fb 3c 5f e4 38 bd
       -0.037773643 0.053441234 0.03072019 -0.045139667
000040 0b 50 99 bd 25 02 58 bd 40 a9 30 3e 92 16 48 3d
       -0.0748597 -0.05273642 0.17252064 0.04884965
000050 86 47 e5 3c 9d 07 c2 bd fb 03 b9 bd 81 3b 0f 3e
       0.027988207 -0.09474108 -0.09033962 0.13987543
000060 a7 bb 94 bd 7c 4c e4 3d 13 7d a7 3d e1 a0 fd 3c
       -0.07262354 0.11147401 0.08178153 0.030960502
000070 34 ee 56 bd af df 96 bc 88 b1 41 bd 24 5a e2 bc
       -0.052473262 -0.018417208 -0.047288448 -0.027630873
000080 f7 a9 86 bd a1 ce b3 bd d6 5f ef bd d9 4f 80 be
       -0.06575387 -0.08779646 -0.11688201 -0.2506092
000090 15 57 54 bb f1 95 3d 3d d6 c7 0b 3e 57 b8 9d 3c
       -0.0032400538 0.046285573 0.1365045 0.01925294
0000a0 2c d3 9d 3c 31 1b c5 bd c1 64 bb bd 3d 2f ab 3d
       0.019265734 -0.09624327 -0.09150077 0.08358619
0000b0 34 ec 32 bd fa 08 64 bd 4c e6 26 bd 4b 85 46 3d
       -0.043682292 -0.055672623 -0.040746972 0.04846696
0000c0 ce b5 cc 3d 92 95 51 bd 0d fd 8e 3d 97 4d 0d 3d
       0.09995614 -0.051168032 0.06981859 0.034497824
0000d0 c0 4a 83 bd 76 41 08 be 7a be f8 3a de ca 6e bc
       -0.06410742 -0.13306221 0.0018977665 -0.0145747345
0000e0 6f 4d 94 3d 2a d3 ab 3d 5f 00 73 3d d0 29 2a 3e
       0.07241332 0.08389886 0.059326526 0.16617513
0000f0 59 a6 02 3e 77 9d 95 3d 04 43 71 3b ee 09 ac bd
       0.12758769 0.07305425 0.0036813626 -0.084003314
000100 a8 ee e5 bd ac b5 be bd d8 fd ec 3b 02 e8 60 bd
       -0.11227161 -0.09311995 0.007232409 -0.05490876
000110 28 c5 82 3e f0 0d b8 bd 9e 1e 26 3e 77 08 e1 bd
       0.25541043 -0.08987033 0.16222617 -0.10987943
000120 10 50 3a bd a4 29 b4 bd 46 66 16 bd ba 8f 39 bd
       -0.04548651 -0.08797005 -0.03671863 -0.045303084
000130 55 a9 4f 3d 0d b0 3f 3c 29 7c 25 3e 23 1a 0c be
       0.050698597 0.011699689 0.16160645 -0.13681845
000140 58 a7 36 bd 7b e5 89 be f2 ef 3c 3e 1a 30 7f 3d
       -0.044593185 -0.26932892 0.18450907 0.062301733
000150 c8 27 cc bc 93 0d 95 3b 99 07 38 3d 92 08 cc bd
       -0.024921313 0.0045487373 0.04492912 -0.09962572
000160 3d e0 94 3d 84 fd af 3c a0 f8 48 3d af f9 89 3e
       0.072693326 0.02148319 0.049065232 0.26948306
000170 c6 db 16 3c 0d cf bd 3b 41 02 d4 bd 25 fc a6 be
       0.0092076715 0.0057925046 -0.103519924 -0.32614246
000180 5a bb df bc 2d b8 01 3d af 1f fd bd e1 32 d2 bc
       -0.027311016 0.031669784 -0.12359559 -0.025659027
000190 da 45 6a 3d cd 98 04 be fe 5b 0a be a1 71 16 3e
       0.057195522 -0.12948914 -0.13511655 0.14691783
0001a0 34 b0 05 3d 22 41 8e bd 90 97 d4 3d 96 39 6a 3e
       0.032638744 -0.06946017 0.10380471 0.2287353
0001b0 fa b4 82 3c f9 69 80 3d 5a 93 88 3d 50 77 a5 3d
       0.015955437 0.06270213 0.0666873 0.08079398
0001c0 5e bf f9 3c c3 64 5c be 1f 15 e7 3d 95 4a f7 bc
       0.030486759 -0.21522813 0.112833254 -0.03018693
0001d0 34 ac 16 3d 3d c6 2e bd 5c bd 82 3c 6a 11 cc 3d
       0.03678532 -0.042669524 0.015959434 0.09964259
0001e0 b3 5c bd 3d 45 9e bb bd bc 27 0b 3d 76 69 69 3d
       0.092461966 -0.09161047 0.03397344 0.05698534
0001f0 b5 0e b7 3d 16 65 13 be f3 74 16 bd 01 fe fc bc
       0.08938352 -0.1439403 -0.036732625 -0.030882837
000200 8f 08 a9 bb c5 4b b9 3b d4 8b c2 3c 09 94 e4 3d
       -0.005158491 0.0056547844 0.023748316 0.11161048
000210 79 e2 3b 3b 4b 2b a7 bd cc b3 04 3e 37 7d 2d be
       0.0028668924 -0.08162554 0.12959212 -0.16942297
000220 d5 b8 74 3e 3d 2d f2 3d 68 4d 40 3c 63 13 3b 3d
       0.23898633 0.11825035 0.011737205 0.045672785
000230 15 a1 80 3d 41 3b b7 bd 7c 15 65 3e cc f1 fe bc
       0.06280724 -0.08946849 0.22371477 -0.031121157
000240 27 0d 25 be ba 8b 81 be 9b 69 a4 3b 91 da e3 bd
       -0.16118298 -0.25301915 0.005017472 -0.111256726
000250 8f be 4b 3e 59 56 bf 3d 79 82 c4 bd 62 3e e3 bd
       0.19896911 0.093426414 -0.09595198 -0.11095883
000260 d7 e9 34 3e 37 ba 68 3e 76 17 6c bb 5e 00 e5 3d
       0.17667328 0.22727285 -0.0036024726 0.11181711
000270 4e b5 78 bd 59 a6 95 3d c3 96 91 3d 94 f3 65 be
       -0.06071978 0.07307119 0.07108834 -0.22456199
000280 68 3e af 3d c8 d1 1f 3d 5a c1 73 3d a9 6b ed bd
       0.08556825 0.039018422 0.059510566 -0.115928
000290 9d 0a 09 bd 94 31 b4 3c 13 31 ae bd b9 d8 3d 3c
       -0.033457387 0.021996297 -0.08505454 0.011587315
0002a0 7e 1f b9 3c 9a 0d 17 3d 9e 5a 35 be 03 d8 51 3e
       0.022598024 0.036878206 -0.17710349 0.20492558
0002b0 56 f2 09 3e a5 ab 4a bd 45 36 c4 3b 37 1b 84 3d
       0.1347135 -0.0494801 0.0059879147 0.06450503
0002c0 a7 c0 30 bc 21 76 24 be 0b dd 67 bd d6 cc eb bd
       -0.010788119 -0.16060688 -0.056607287 -0.11513679
0002d0 2b 38 cc 3d f4 d3 c1 3d 9d 5f 1f be 59 37 f7 3d
       0.09971651 0.09464255 -0.15563817 0.120711036
0002e0 0e 49 04 bc 1f b6 85 bd f6 3f 33 be f5 ec 46 3d
       -0.008074058 -0.065288775 -0.17504868 0.048565824
0002f0 d0 bf 25 3e 96 4f e1 bd cb 6c f3 bd 00 df 4e bb
       0.16186452 -0.11001508 -0.11885985 -0.0031566024
000300 42 a4 fb 3d 8d e7 29 be c9 8d 3e 3d 0a fe 24 3c
       0.12287189 -0.16592236 0.046521936 0.010070333
000310 60 25 b1 3d 2d 8a 87 3e 6b 73 56 bd 6f 1b 25 3d
       0.08649707 0.26472607 -0.052356165 0.040309366
000320 b9 2e 82 3d ec fa 73 3d 41 76 14 be 7f de 8b 3d
       0.06356568 0.05956547 -0.14498235 0.06829547
000330 07 36 b0 bb 55 c7 9b bd d1 21 32 3e 1f d1 24 be
       -0.0053775343 -0.07606379 0.17395712 -0.16095398
000340 6b e9 38 3d 24 fd 7a bd c6 4e cd 3c 59 45 66 3d
       0.04514448 -0.06127657 0.025061976 0.05621848
000350 ed 22 c9 bd 87 33 88 bd 9d 9b 4f be 63 b9 84 be
       -0.09821115 -0.06650453 -0.20274206 -0.2592269
000360 bb d4 0c 3b 6a 33 2a 3e a3 4d 06 bd 9e a1 2b bd
       0.0021489102 0.16621175 -0.032788884 -0.041902177
000370 38 50 00 be f4 38 1e bc a1 f0 4b 3e ca c6 97 be
       -0.12530601 -0.009657133 0.19916011 -0.29643852
000380 56 1d f5 bd 36 44 44 be 46 5e 34 3e 99 d8 1e 3d
       -0.11968486 -0.19166645 0.17614087 0.038780782
000390 95 7e 20 be b1 7f 58 bd 7c 03 39 3d e0 92 d3 3d
       -0.15673287 -0.05285615 0.04516934 0.103307486
0003a0 c3 62 ac bd 17 68 13 bd db 12 ce bd a8 b7 a3 bd
       -0.08417275 -0.03598794 -0.1006219 -0.07994014
0003b0 80 d8 5e bd cc 41 f7 3d be a0 a4 3c f0 58 b9 3b
       -0.05440569 0.12073097 0.02009618 0.005656354
0003c0 43 76 17 3d 11 db c7 bd 7a bb a8 3d 14 58 8b bd
       0.036978018 -0.097585805 0.08238883 -0.06803909
0003d0 ff b2 60 bd 84 28 09 3e 3f 75 e0 3c 32 17 b4 3c
       -0.054858204 0.13394362 0.027399657 0.021983717
0003e0 ee 72 21 3e 74 90 ea bd 64 59 6a be 93 3a 9d bd
       0.15766498 -0.114533335 -0.22885662 -0.07677188
0003f0 4d 2e 0b 3e 16 41 3a be 5a 1b 1c be 70 9d ed 3d
       0.13591881 -0.18188891 -0.15244809 0.116022944

lstm.bias_ih_l0 f4 [256]
000000 ae de 54 3d a9 a0 4f bd 49 7d d4 bd 61 8f 74 bc
       0.051970176 -0.050690327 -0.10375459 -0.014926762
000010 a3 63 12 3e 89 b5 bd bd a7 f2 d0 3d 6e 44 b9 3d
       0.14295821 -0.09263141 0.10202532 0.09046255
000020 3d 81 0f 3e b3 f4 8b bd c0 de d8 bd cf f1 c4 bd
       0.14014144 -0.06833782 -0.10589361 -0.09616434
000030 e5 63 71 3d 97 58 0c 3e c6 c4 3e 3e 0c f9 a6 bd
       0.058933157 0.1370567 0.1862975 -0.08152971
000040 3b ea be 3d 80 00 51 bb 20 0e 48 bb 8c 3d 6e 3d
       0.0932202 -0.0031891167 -0.0030525997 0.058164164
000050 ed 71 ea bc b3 1e 21 3e ae 08 41 3e ef 6a e2 bc
       -0.028618777 0.15734367 0.18850967 -0.02763888
000060 ce 2d 2b 3d ee 24 c1 3d 20 f4 fb 3d aa d3 5e bd
       0.04179173 0.09430872 0.123024225 -0.054401077
000070 00 01 5a bd b9 67 61 bb 25 06 80 bc 1e 31 4d 3d
       -0.05322361 -0.00343941 -0.01562793 0.05009567
000080 c5 c4 9d bc c0 a1 cf 3c be c5 82 bd 08 2f 12 bc
       -0.019258866 0.025345683 -0.063853726 -0.008922346
000090 75 2f 8f bd e2 8a fe bc d6 ab 13 be a3 37 f8 3d
       -0.069914736 -0.031072084 -0.14421019 0.12119987
0000a0 12 e2 c1 bd c2 65 bd 3d e0 43 95 bd 77 f7 7e bd
       -0.094669476 0.092479244 -0.07288337 -0.06224772
0000b0 1b f4 c5 3d e7 d6 2b 3d d0 fa 44 3d 0e b2 c8 bd
       0.096657 0.041952994 0.048090756 -0.09799586
0000c0 ed 37 ad ba 92 eb 13 3e c2 93 15 3e 89 40 ea bd
       -0.001321552 0.14445332 0.14607146 -0.1143809
0000d0 31 f3 b3 3b c4 a7 19 3c b0 7c 2a bd 2b 5f a6 3b
       0.005491637 0.009378377 -0.041622818 0.005077263
0000e0 81 6e 18 3d fb 20 df bc 27 8c 39 3c 3c 55 de ba
       0.03721476 -0.027237406 0.011324919 -0.0016962658
0000f0 04 76 41 bc 67 e2 09 3e a5 46 48 bc 0b ae 11 3e
       -0.011807922 0.13465272 -0.012223874 0.14226548
000100 c1 b9 46 3e 21 50 87 3d ab 99 bf bc 04 ec bb 3d
       0.19406797 0.0660708 -0.023388704 0.09175876
000110 ee 35 52 be d6 fb ba bc de e0 4c bd 91 fa 09 3e
       -0.20528385 -0.022825163 -0.050019138 0.1347449
000120 e3 a0 0c bd a1 bd 16 3e b5 64 19 bd 2b a6 13 3d
       -0.03433312 0.14720775 -0.037449557 0.036047142
000130 f1 71 1b 3e b3 2a f5 bb f0 f8 4d 3d 7e 32 94 bd
       0.15180184 -0.007481897 0.050286233 -0.07236193
000140 1a bb 3d 3e 85 39 83 bd d8 38 c9 bd 47 f0 b8 3c
       0.18528405 -0.06407455 -0.09825295 0.02257551
000150 05 eb b1 3d bd 94 9e 3d 20 90 5f 3c 6c bf cc 3d
       0.086874045 0.07743213 0.013645202 0.09997448
000160 3b c9 a6 3d 5b 1f 18 3e 0f 8e 03 3d d7 03 92 bd
       0.081438504 0.14855711 0.0321179 -0.07129639
000170 b9 35 f0 bd 19 4a 51 bd 30 52 26 3d c4 f9 39 bd
       -0.11728997 -0.051096056 0.040605724 -0.04540421
000180 dc af be 3d 87 f5 86 3c 94 04 0d 3e 26 af 63 bd
       0.09310886 0.016474498 0.13771278 -0.055586956
000190 04 58 b3 3d e8 14 c9 3b 8a 9a cd 3d 3a 2d 3e bd
       0.08757022 0.0061365254 0.100392416 -0.04642985
0001a0 92 2f 9f bb fd 0c 14 3d a5 15 c5 3d 3d 4e f5 3c
       -0.0048579657 0.0361452 0.09623269 0.029944533
0001b0 8b 6c 81 3d ce f8 4c 3d 8e 20 e2 3d b3 07 3c 3d
       0.06319531 0.050041966 0.110413656 0.04590578
0001c0 ec 4f dc 3c 40 44 1c 3e 40 25 92 bc b3 44 1d bd
       0.026893578 0.1526041 -0.017840028 -0.038395595
0001d0 5a 23 ad 3d c0 f1 f4 3d 69 a1 95 bc e8 33 ad 3d
       0.084540084 0.11960173 -0.018265443 0.08457166
0001e0 33 a6 07 be 00 57 96 bd 83 8c a1 3d 8c 52 8d 3d
       -0.13246994 -0.07340813 0.078881286 0.0690051
0001f0 2b 0b 6e bd 35 5b b3 3d f2 fb 01 be d8 8d 8a 3d
       -0.05811612 0.08757631 -0.12693766 0.06765336
000200 88 6b c4 bd 2a 39 38 bd ed c7 5b 3d 2f 05 e1 bc
       -0.095908225 -0.04497639 0.05365746 -0.027468292
000210 33 9f 79 3d f4 53 8f bd 29 6b 71 bc 54 c4 d9 3b
       0.06094284 -0.06998435 -0.014735022 0.0066457186
000220 65 78 07 3d 7f 23 7d 3d 25 bb ce 3c 1c 9a ec bd
       0.0330738 0.06180143 0.025235722 -0.115528315
000230 90 4d 8b 3d dc d1 dd 3d e4 64 c4 bc 1a a9 2e 3d
       0.06801903 0.10831043 -0.02397389 0.042641737
000240 c1 ab c5 bd 7d b2 b2 bc 4f 8c c5 3d 5c 9b fb bc
       -0.096519 -0.021813625 0.09645902 -0.03071373
000250 77 03 36 3d f4 66 b3 bd c1 3b f0 3d 3e 7c 95 bd
       0.044436898 -0.08759871 0.11730147 -0.07299088
000260 f0 9c cd ba cd 4f cc 3d 70 cd 1e 3d 7c 3a 6a bc
       -0.001568703 0.09976158 0.03877014 -0.01429617
000270 94 e4 a8 3b 22 d3 68 3c 54 3c 63 3d f3 db 67 bd
       0.0051542018 0.014210494 0.055477455 -0.056606244
000280 20 6c 40 3c 34 52 b1 bd f0 05 1c bc 08 06 fb bc
       0.011744529 -0.08658257 -0.0095229 -0.030642524
000290 92 01 a3 3c 3f cb b0 3d a5 0b 3f 3d ba 94 98 3c
       0.01989821 0.08632516 0.046641964 0.018625606
0002a0 b3 bb 9f 3d 0a d0 71 bd 42 74 c6 3d 96 5b 78 bd
       0.07799473 -0.059036292 0.09690143 -0.06063422
0002b0 63 3e 96 bd 19 5e ba bc ec 73 aa 3d 22 17 64 bd
       -0.07336118 -0.022749947 0.083228916 -0.055686124
0002c0 43 c1 23 bc 8b 18 c4 3c c7 2d a7 bd 38 64 b0 bc
       -0.009994808 0.023937484 -0.08163028 -0.021532163
0002d0 89 18 08 be 29 c9 b2 3d d4 a0 a8 3d 9e 09 fd bd
       -0.1329061 0.087297745 0.082338005 -0.1235535
0002e0 09 b8 88 3d cc 96 fc 3b 5a b0 a9 3d 1a 7d 6b bd
       0.06675727 0.007708406 0.082855895 -0.057492353
0002f0 12 1d ec bc 8a 8e c5 3d 0e e0 f2 bd f2 01 e2 bd
       -0.028822456 0.09646328 -0.11859141 -0.11035527
000300 c0 dc 9b bc 96 e6 17 3e 18 e3 6c bd 4f 29 d5 bc
       -0.01902616 0.14834055 -0.05783376 -0.026020674
000310 f6 82 14 3e 45 3f f7 3d 10 5b df bd aa 22 06 3e
       0.14503083 0.120726146 -0.10906041 0.13099161
000320 91 3b c1 3b 8c dc 0d 3e e8 0c d3 3d a4 a6 c0 bd
       0.0058969934 0.13853663 0.10305196 -0.09406784
000330 ea 47 b4 3d 49 ef 28 3e ee b9 a7 bc f0 8c 8a 3d
       0.08802779 0.1649753 -0.0204744 0.06765163
000340 53 a4 88 3d c5 f9 b8 bd 92 d9 a7 3d 43 3c d3 bc
       0.06671967 -0.09032015 0.08195795 -0.025785571
000350 31 a5 db bc 7a 60 21 3d 68 c3 c9 3d 8c e7 03 3e
       -0.026812168 0.039398648 0.09851724 0.12881297
000360 ba c1 32 3e 72 80 34 3d 59 04 3c bd 39 81 7f bd
       0.17456713 0.044067807 -0.045902584 -0.062379096
000370 25 a1 0e 3c 87 01 06 be 84 a4 dd 3c 0d 5f 5c 3e
       0.008705412 -0.1308652 0.027055986 0.21520634
000380 86 b2 89 bc 80 2d a3 bc 0e ef 45 bd 2a db 68 3d
       -0.01680876 -0.019919157 -0.048323683 0.056849636
000390 d4 63 9d 3d 55 54 99 3d ab c5 37 bd 5c 5c f5 3d
       0.07685056 0.07486788 -0.044866245 0.11980507
0003a0 7d f3 c5 3b 7f 12 85 bc de 1d cd 3c ea bb fb 3b
       0.006040989 -0.016244171 0.025038656 0.007682313
0003b0 7f 44 c3 3d af 12 61 bc 24 da e3 3d f0 ba bc 3d
       0.09534549 -0.013737365 0.111255914 0.09215343
0003c0 c0 42 fc bc d1 69 56 3e cd de 14 3e e6 91 cc 3c
       -0.030793548 0.20938803 0.14538117 0.024971914
0003d0 93 ee 0b bd dc a7 30 bd 40 20 a7 3a 00 a9 ab bd
       -0.03416307 -0.043128833 0.00127507 -0.083818436
0003e0 0b ac 6d 3d 1d d4 d7 bd 20 88 44 3c f0 84 b9 bd
       0.0580254 -0.10538504 0.011995345 -0.09058559
0003f0 75 9b c5 3d fa 2b f9 3d 96 3d 84 bd f9 c6 ff bc
       0.09648792 0.12166591 -0.06457059 -0.031222807

lstm.bias_hh_l0 f4 [256]
000000 3d ff 96 3d 85 78 8f 3d 8d 7c 90 bd bf ab 22 3c
       0.073729016 0.07005409 -0.07055006 0.009928643
000010 77 40 4f 3e 48 6e 8b bd ad d8 d0 bd 13 f9 49 3e
       0.20239435 -0.06808144 -0.101975776 0.1972392
000020 c9 44 da 3d 2b aa c7 3d d9 6e 87 3d 8a b7 02 be
       0.10657651 0.09749254 0.066129394 -0.12765327
000030 57 09 94 3c b6 13 24 3e 30 e3 43 3e e0 93 43 3a
       0.01807086 0.16023144 0.19129634 0.0007460695
000040 b3 43 ab 3d 65 81 c5 3d 94 06 9d 3c 78 7f 94 3c
       0.08362522 0.09643821 0.019168176 0.018127188
000050 61 b2 d1 3d 61 c4 8e 3d b7 92 2a bc 44 30 e3 3d
       0.10239101 0.0697105 -0.010410956 0.1109319
000060 58 16 9b 3d 61 88 03 bc 56 bd b6 3d 0e fe 47 3d
       0.07572621 -0.008028121 0.08922832 0.04882627
000070 ce a5 37 bd d8 9c 29 3d 03 2a a3 bc 1c e8 65 3d
       -0.044835858 0.041409343 -0.019917494 0.05612956
000080 0b c7 08 3c 5e 5c 85 b9 da c2 a5 3d a7 8c c5 3a
       0.008348237 -0.00025436556 0.080938056 0.0015071825
000090 b1 f6 cf 3d 93 02 0d 3e b8 84 4e 3d fb cc 6a 3d
       0.101544745 0.13770513 0.05041954 0.05732439
0000a0 ea 97 7d bd 51 c2 f4 3c 7f 59 62 3d 03 38 9c 3d
       -0.061912455 0.029877814 0.05526113 0.07627871
0000b0 79 dd 68 bd e6 2d 92 bd c7 d9 7c bd 3c bb b6 3d
       -0.056851838 -0.07137661 -0.061731126 0.08922431
0000c0 c6 14 90 3d ba 22 da 3d 69 4f d8 3d 64 3a 05 be
       0.07035212 0.10651155 0.10562021 -0.13010556
0000d0 df 78 3d bc 07 13 84 3d 0f bd ea bc 7b 9d 10 bd
       -0.011564462 0.06448942 -0.028654603 -0.035306435
0000e0 13 9b 28 bd e7 b5 e8 bd 36 f6 9c bc d0 d5 a7 3b
       -0.041163515 -0.1136282 -0.019160371 0.005121924
0000f0 e5 2e 0f 3e a5 43 c0 bd ca 36 88 3d 3c de fe 3d
       0.13982733 -0.09387902 0.06651075 0.124447316
000100 4d 06 6e 3e 25 4e 47 3e 16 41 4b bd fc 4f c1 3d
       0.23244591 0.19463404 -0.049622618 0.09439084
000110 11 d4 e5 bd 10 8b 20 bc 67 17 a7 3d 54 64 d3 3d
       -0.11222089 -0.00979878 0.081587605 0.103218704
000120 5d 65 b1 bd a2 7f 63 bd 13 aa e3 bd a1 85 52 3d
       -0.08661912 -0.055541642 -0.111164235 0.05139697
000130 af 9d 22 bd 4d 56 f4 3d df 4f 07 3e 99 9f c1 3b
       -0.03970116 0.11930523 0.13214062 0.005908918
000140 f9 8b 69 3d 8c f2 01 be 72 94 26 bc 9a e8 7f 3d
       0.057018254 -0.1269018 -0.010167228 0.062477686
000150 33 03 0f bd 49 77 60 3d d4 e0 47 3c fc 25 9c 3c
       -0.03491516 0.05480126 0.012199599 0.019061081
000160 8c 30 06 3d f4 f7 a6 3d dc b6 3d 3c 61 5c 22 bd
       0.03276114 0.08152762 0.011579242 -0.03963888
000170 e3 51 20 bc 08 01 3f bc e4 03 dd 3c db 78 78 bd
       -0.009785148 -0.011657961 0.026979394 -0.06066213
000180 b6 1e 75 bd fe 50 0a 3d c2 9d b4 bc 5c 95 19 bd
       -0.05984374 0.033768646 -0.022047881 -0.037495956
000190 3c cb d3 3d d7 96 6d bd 4c 13 0e be fc ec 94 3d
       0.10341498 -0.05800518 -0.13874549 0.07271764
0001a0 74 fc c2 bd 2a f0 99 3d fb 96 8b 3d cd 23 6c 3d
       -0.09520808 0.07516511 0.068159066 0.05765133
0001b0 de 73 fc bc 46 e7 7e 3d bc b2 d8 bd 48 d9 ca 3d
       -0.030816969 0.06223228 -0.10580966 0.09904724
0001c0 ef 8b 5d bd e4 5c 3a 3e bc 98 61 bc cb ec 97 bd
       -0.05408853 0.18199497 -0.013769325 -0.074182115
0001d0 04 1e a4 3d 13 39 ff 3c 25 cf 88 bd 12 40 d6 3d
       0.080135375 0.031155145 -0.06680135 0.10461439
0001e0 f6 9b e2 bc 04 ef f4 bc dc ad 24 3d 05 fb 02 be
       -0.027662259 -0.029899128 0.040204868 -0.12791069
0001f0 39 bc 84 3d 48 13 76 bc 20 5a eb bc 0f cf 57 3d
       0.06481213 -0.015019245 -0.028729498 0.0526877
000200 8a 8c 82 3d e9 f0 d8 bd 2d 53 6d bd 0e eb 30 bc
       0.06374462 -0.10592825 -0.05794065 -0.010798229
000210 3e c5 b1 bc 97 4a 1a 3e 40 4e b9 3d 8d 35 35 bd
       -0.021700498 0.15067516 0.09048128 -0.044240523
000220 12 b1 d5 bc 26 0f c8 bd 79 bd f1 3d 76 65 44 3d
       -0.02608541 -0.09768514 0.11803717 0.047948323
000230 38 de a4 bb 0b 44 7c bd e0 3a e2 3b 5a 65 5c bd
       -0.0050313734 -0.06158833 0.006903991 -0.053807594
000240 1c 73 8a 3d fd 0e e2 bc 3d 49 a4 3d e6 8c 61 bd
       0.067602366 -0.027595038 0.080217816 -0.05506601
000250 c8 1e e7 bc 25 1f 83 3c d6 05 80 3d 82 35 89 3d
       -0.02821292 0.016006062 0.06251113 0.06699659
000260 b2 b5 8c 3c 8d 2e bb 3d 63 70 82 bd 57 c6 a1 3d
       0.017176483 0.09139738 -0.06369092 0.078991584
000270 ee 6d 05 be aa 15 85 3b bb 04 bc 3b c4 9b ba bc
       -0.13030216 0.0040614204 0.0057378686 -0.022779353
000280 ca a1 a2 3d 96 1a c9 bd 29 83 c2 3d af fe 07 3e
       0.07941015 -0.09819524 0.09497673 0.13280748
000290 d0 28 46 ba 78 bc 1b be ef 01 75 3d 83 4a b5 3d
       -0.0007559182 -0.15208614 0.059816297 0.088521026
0002a0 5d 96 7b bd f2 8d ef bc e0 1a e9 ba a3 fe d4 3d
       -0.061422694 -0.02924249 -0.0017784499 0.104001306
0002b0 d4 58 64 3c dd e5 80 3d 0e 35 c6 3d c0 a0 73 bd
       0.013937194 0.06293843 0.09678088 -0.059479475
0002c0 f2 0c cf bd 24 41 a7 bd 21 6b d4 3d 8e eb 20 3c
       -0.10109891 -0.081667215 0.10371996 0.009821786
0002d0 77 82 20 bc 9b 46 7c 3c a1 2c 9a 3c 0e 01 0d bd
       -0.00979673 0.015397693 0.018820109 -0.034424834
0002e0 bd 96 61 3d 8d bb b9 bd 64 32 aa bc c6 e9 67 bd
       0.055075396 -0.090689756 -0.020775981 -0.056619428
0002f0 34 7b ae bc fa 36 43 bd 66 c4 e3 3d ae dc 37 bd
       -0.021298982 -0.04765985 0.111214444 -0.04488819
000300 a3 5e 92 3c c4 e3 57 3d cc 94 df 3d 45 2a 9d bd
       0.017867392 0.05270745 0.109170526 -0.07674078
000310 09 d5 2e 3e 61 35 68 bd 8a f8 b2 bd f6 d8 3a 3e
       0.17073454 -0.05669153 -0.08738811 0.18246827
000320 2e ff e3 3d 15 60 b0 bc 32 47 8f bd 19 8d 03 be
       0.11132656 -0.02153019 -0.06996001 -0.12846793
000330 8d 67 2a 3e 03 3a e5 3d 98 87 7d 39 d1 c6 a5 bd
       0.16641064 0.111927055 0.00024178473 -0.08094562
000340 d2 e8 4a bd dd 63 af 3d 4d f8 44 bd 9c 7e b7 3d
       -0.04953844 0.08563969 -0.04808836 0.08959696
000350 48 11 03 3e 39 15 90 3d 24 2b 24 bd d3 9c e4 3d
       0.12799561 0.07035298 -0.040080205 0.11162724
000360 36 2d 7f 3b fe 8f af 3b 0b d5 34 bd d4 b9 18 3d
       0.003893686 0.0053577414 -0.044148486 0.037286595
000370 f7 66 8d bc 5a 46 a8 3d b7 be 57 3d 07 b4 0b 3e
       -0.017261012 0.082165435 0.052672114 0.13642894
000380 de f1 06 3e 87 93 b5 bd 58 ac db bd 62 fb 68 3d
       0.13178203 -0.08866029 -0.10726231 0.056880362
000390 a6 87 0d be 1c c4 84 3c 73 30 cc bd 31 d5 d7 bc
       -0.13821277 0.016206793 -0.099701785 -0.026346775
0003a0 d4 7c 5e 3d 43 55 f9 bd db ac 97 3d f6 73 f2 bd
       0.054318264 -0.121744655 0.074060164 -0.11838524
0003b0 84 0f 0d 3c c6 74 dc 3d 6a 4f e0 3d 40 9e 07 be
       0.008609656 0.1076446 0.10952647 -0.13243961
0003c0 d9 83 81 bc 7c e2 c8 3d 41 a0 16 3c 03 33 be bd
       -0.01580994 0.098088235 0.009193481 -0.092870735
0003d0 d5 d7 d7 3c 74 a4 02 3e 7a 87 35 bc 68 ff 01 bd
       0.026348034 0.12758046 -0.011079663 -0.031737715
0003e0 4d 7f 05 bd f5 36 82 3d f7 86 22 3e dc d8 81 3d
       -0.032592107 0.063581385 0.15871798 0.06340191
0003f0 bd 86 15 3e 37 e1 05 bd 40 f0 8a bc 17 dc d4 3d
       0.1460218 -0.032685485 -0.016960263 0.10393541

lstm.weight_ih_l1 f4 [256, 64]
000000 9a 6e e3 3c dc 5f fc bd 81 15 49 3e 14 3c 98 bd
       0.0277627 -0.12322971 0.1963711 -0.07433334
000010 f7 37 e9 3c 83 c0 3e 3e 26 c9 71 bb e9 85 22 3e
       0.028469069 0.18628125 -0.0036893575 0.15871395
000020 75 32 d0 bd c1 f4 6d bd 91 b6 fa bd 5b c6 d8 bc
       -0.10165874 -0.058094744 -0.12241853 -0.02646177
000030 31 d1 93 bc 17 08 da 3d 56 f7 cc bd f7 60 1c 3d
       -0.018044086 0.10646074 -0.10008113 0.03817841
000040 58 9e fd bc 8f 6f a9 bc e5 1e ec 3d 25 84 ba bd
       -0.030959293 -0.020683078 0.1152933 -0.09107236
000050 34 2a 0b 3e 33 14 76 3d 44 ee cd 3c 77 49 3f bd
       0.13590318 0.060077857 0.025138028 -0.04670092
000060 04 ba 20 ba 5e ab f8 3d 1d 57 91 3d 40 60 0c 3c
       -0.0006131234 0.12142061 0.07096694 0.00856787
000070 8a 43 af bd 32 c9 44 bd 1a f1 b4 bc 37 9c 96 3d
       -0.08557804 -0.048043437 -0.022087622 0.07354014
000080 56 3b fc bd 7d c9 ef 3d d5 ee 4a 3e 4e 6b 35 3e
       -0.12316005 0.11708353 0.1981767 0.17716715
000090 20 01 bb bd c5 cf 1b 3b 0a 97 82 3d bb c7 72 bd
       -0.09131074 0.0023774963 0.06376465 -0.05927251
0000a0 a0 0c 89 3d 18 77 8a 3d 53 f9 bb bd e9 fe d0 3d
       0.06691861 0.067609966 -0.09178414 0.1020487
0000b0 17 3b b5 bd 35 48 03 3e f3 03 68 3c 79 59 a9 bd
       -0.08849161 0.12820514 0.014161098 -0.08269019
0000c0 1f bb 2b be c3 a2 44 be 82 93 a4 3d 57 d8 b4 bc
       -0.167706 -0.19202714 0.080359474 -0.022075815
0000d0 6a 31 3d bc 42 a0 eb 3d 9e 51 f9 3d 82 de e6 3d
       -0.011547426 0.11505176 0.1217377 0.11272909
0000e0 8f a4 2d 3d a6 bd 31 bd 0c 29 c8 3d 04 79 6f be
       0.042393263 -0.043393753 0.09773454 -0.23386008
0000f0 39 d4 3d 3c 58 7b 1a 3d cf 2a 48 be 83 e8 56 3c
       0.011586242 0.037715286 -0.1954758 0.013116959
000100 12 2d 92 bd e8 6e 24 be 59 2b 32 3e ff 8c e4 3d
       -0.07137503 -0.16057932 0.17399348 0.11159705
000110 72 a2 31 bd 1c 43 11 3d 9e b9 05 be ce 83 68 bd
       -0.04336781 0.03546439 -0.13059089 -0.056766324
000120 ed 76 55 bd 1c d2 d5 3d 53 33 5e 3d d7 98 6e 3d
       -0.05211537 0.10440466 0.054248165 0.05825123
000130 89 a5 e8 3b 1c a2 68 3c d8 09 36 bd 1a b2 a1 bd
       0.0070998115 0.014198806 -0.04444298 -0.07895298
000140 e0 de 6f bd 23 47 6d bd 49 60 c6 3d 31 fb 2b 3d
       -0.05856216 -0.05792917 0.09686334 0.0419876
000150 07 7e 44 3e 68 58 df 3d 11 ed 04 3e cf b6 af 3d
       0.191887 0.10905534 0.12981059 0.0857979
000160 08 7e f2 3d 4a ed 6d 3e 22 00 a7 bc e3 01 68 bd
       0.11840445 0.2323505 -0.020385806 -0.056642424
000170 03 92 28 be d9 28 99 bd 6d d7 84 bc 60 f5 78 3d
       -0.16461949 -0.07478494 -0.016216004 0.060780883
000180 30 ed e0 3d 69 e3 fc 3d 7d d0 0b bd 3f 62 ab 3d
       0.1098274 0.123480625 -0.034134377 0.08368348
000190 91 4c 92 3d bb 26 5e 3d 98 d2 66 3b 39 12 10 3e
       0.0714351 0.054236155 0.0035220739 0.14069451
0001a0 38 12 56 3d 87 b5 0c 3d 10 28 f2 3d bc 5b 25 3e
       0.05226347 0.034352805 0.118240476 0.16148275
0001b0 ac a4 96 bb 5b f7 24 3e 8c 34 c4 3c 1a d5 9d 3a
       -0.004597267 0.16109984 0.023950838 0.0012041659
0001c0 4d 00 cb 3c 4f 2e d1 bd b4 30 56 3d 46 64 94 3d
       0.024780417 -0.10213911 0.05229254 0.07245688
0001d0 a8 2c 00 be 46 7a f2 3d 3a a2 bb bd 94 f8 2b 3c
       -0.12517035 0.11839728 -0.09161802 0.010496277
0001e0 75 b3 95 bd 88 5f 95 3d 37 ae 75 3d b2 b9 c0 bd
       -0.07309619 0.07293612 0.059980597 -0.094104186
0001f0 e4 a4 93 bb 5d a3 0b be a8 de 38 be 3a 3f 36 3a
       -0.0045057405 -0.13636537 -0.18053687 0.00069521705
000200 0d b6 ce bd 6d c0 1e be 6c 9d a9 bd 47 1e c3 bc
       -0.10093317 -0.15503092 -0.08281979 -0.023818148
000210 19 a1 b4 3d 86 7c 02 3e 9c f7 5a 3c da eb 87 3c
       0.088197894 0.12742814 0.013364699 0.016591955
000220 91 1d d1 3c f9 2e f7 bd 59 2c 77 bd a4 c1 d7 3d
       0.025526794 -0.12069506 -0.060345028 0.10534981
000230 66 66 e2 bb c0 95 33 be 04 56 2f 3e ff 4e 64 bd
       -0.0069091795 -0.17537594 0.17122656 -0.0557394
000240 bf 57 f9 bc 90 19 47 be 28 fd 2d 3e 33 ab 2f 3d
       -0.030437348 -0.19443345 0.16991103 0.042887878
000250 42 e5 16 bd 3d 4d 20 3c a3 01 c6 3d 5d ed 8c bd
       -0.03683973 0.00978404 0.09668281 -0.06881211
000260 25 e5 2c 3e fb 50 e1 3c 55 9b c1 3c c5 75 d2 3d
       0.16884287 0.027504435 0.023633638 0.10276369
000270 cf f2 0a be 42 4e 03 be da 3d dc 3d 55 d3 dd bc
       -0.13569187 -0.12822822 0.10753985 -0.02707831
000280 05 3c a2 3d df dd 74 bd 9c 67 f9 3d f0 d0 f0 3d
       0.07921604 -0.059781905 0.12177965 0.11758602
000290 7d d7 8b bc b0 3b 53 3e ac 8e e1 3c 66 23 f2 3d
       -0.017070526 0.20628238 0.027533852 0.11823158
0002a0 40 b2 cf 3c 49 d3 eb bd 04 5d b1 3b 88 e8 18 3e
       0.02535355 -0.11514909 0.0054126997 0.14932454
0002b0 86 1e 4c 3d 52 a4 d5 3d c4 58 c5 3c b8 41 1b 3d
       0.049833797 0.10431732 0.024090178 0.03790447
0002c0 a9 d5 b7 bd 1c 4f a3 bc 7b e1 0c 3e 9b 01 08 be
       -0.08976299 -0.019935183 0.13757889 -0.13281862
0002d0 8b 57 19 3e 0b e4 ef bc 50 14 83 bc ca 5c c5 3d
       0.14974801 -0.029283544 -0.016000897 0.09636839
0002e0 41 9f a4 3d 8d f0 07 be 9b 1f b2 bc 5d 9c 9a bd
       0.08038188 -0.13275357 -0.021743586 -0.07549355
0002f0 b8 f0 26 bc 8c 53 a1 bd c0 54 e4 3d 8f e9 c9 3d
       -0.010189228 -0.078772634 0.11148977 0.09859001
000300 99 2f f7 bd 53 84 b0 3d e3 64 8a bd 23 38 ba bd
       -0.120696254 0.08618989 -0.06757524 -0.090927385
000310 13 0a 85 3d 4c ee 12 3e f4 12 a6 bd 28 2a cc bd
       0.06496062 0.14348716 -0.08109084 -0.09968978
000320 e6 ea d0 3d e5 2d 94 bd cc ca 0e 3c 66 92 ec 3c
       0.10201053 -0.07235316 0.008715343 0.028878402
000330 ab 4d e9 3d 77 f9 bf b9 41 24 01 3e 67 dc 11 bd
       0.11391767 -0.00036616225 0.12611486 -0.035610583
000340 a1 1b bf bb 6c bd 93 bd 5e 47 55 3d af cf 2c be
       -0.005832151 -0.07213864 0.052070014 -0.168761
000350 d1 61 c8 3d f3 70 0f bd 4f af 74 3e 0b 52 89 bd
       0.09784282 -0.035019826 0.23895 -0.067051016
000360 69 e9 94 3d 36 eb 37 3e 30 81 d1 3c e7 52 2a bd
       0.07271082 0.1796082 0.025574297 -0.041582968
000370 83 3c 1b 3d da a0 d0 3d 60 ef 02 3e 1f 77 d7 bb
       0.037899505 0.1018693 0.12786627 -0.0065754796
000380 c5 e6 bb bd 3f b6 8d 3d 49 ab 08 3e 95 1f 52 3c
       -0.09174875 0.06919526 0.1334659 0.012824913
000390 32 1e 90 3c 37 91 21 bd 61 49 fa 3c 38 b8 57 bd
       0.017592523 -0.03944513 0.030552568 -0.05266592
0003a0 d0 1e 8a 3c 17 85 1c 3d ff 5e dc bc af d9 14 3d
       0.016860396 0.038212862 -0.026900766 0.03634041
0003b0 c7 1a d0 3d 48 c1 f4 3d f9 f6 9b 3d 43 bd 25 be
       0.101613574 0.11950928 0.07615466 -0.16185479
0003c0 06 91 9d 3c f3 0b 96 bd 82 83 26 bc 99 ff ec bd
       0.019234192 -0.07326498 -0.01016319 -0.11572189
0003d0 3c 34 c6 3d 26 c5 c9 3d 46 f1 8e 3d 7a 6f 81 bd
       0.09677932 0.09852056 0.06979613 -0.063200906
0003e0 84 18 0f 3e 95 13 5a bc 34 7d 0d bd b4 16 1b be
       0.13974196 -0.013310333 -0.03454323 -0.1514538
0003f0 f1 88 90 3c b1 b0 fc ba 67 01 f7 bd f8 23 13 bd
       0.017643424 -0.0019278732 -0.12060814 -0.035922974

lstm.weight_hh_l1 f4 [256, 64]
000000 bb 3d c3 3d a7 31 ed 3c 5e 5c ac bd 1e e0 35 3d
       0.095332585 0.02895434 -0.08416055 0.044403188
000010 d3 36 b7 bd 3e ff 43 3d 62 75 0c bd 05 12 1a bd
       -0.08946004 0.04785084 -0.034291632 -0.03761484
000020 53 94 9f 3d 07 37 92 bd 01 8f 48 bd e5 5f 4b 3d
       0.077919625 -0.07139402 -0.048964504 0.049652
000030 75 45 86 bd ff 68 12 3e 0d d7 f6 3d d8 ff 7b bc
       -0.065562166 0.14297865 0.120527364 -0.015380822
000040 87 06 81 3a e5 a7 f6 3d db 0c fb 3b af 0d 8d bd
       0.0009843864 0.12043742 0.0076614446 -0.068873756
000050 16 db a4 3c 5a 61 9c bc 8d 38 ed bc 55 6c e2 3d
       0.020124 -0.01908939 -0.02895763 0.11055819
000060 dc d8 de 3d 0a 81 0f be 30 3f 0a be 5a 66 f9 bd
       0.108812064 -0.14014068 -0.13500667 -0.12177725
000070 23 fa a0 3d 1b 98 85 3b 34 80 af 3d 8e 4e 0f 3e
       0.0786021 0.0040769703 0.08569375 0.1399481
000080 4d b2 70 3d 14 a6 09 3e 80 15 20 3e 3e 3a 0c be
       0.05876379 0.1344226 0.15633202 -0.13694093
000090 25 dd 9e bd f1 5e aa 3d 35 39 0e 3e a2 fb d6 3d
       -0.07757024 0.0831889 0.1388901 0.10497214
0000a0 b8 ff 30 3e 88 92 fe 3c 48 65 ad 3d 4a 90 c0 3d
       0.17285049 0.03107573 0.084665835 0.09402521
0000b0 9b a4 32 bd f7 89 b6 bd 56 b7 e0 3c 07 2b b1 bd
       -0.04361401 -0.089130335 0.027431171 -0.08650785
0000c0 4b 5e dd bc 6a b0 c4 bc f4 bf 19 3e 76 91 e4 3c
       -0.027022501 -0.024009902 0.1501463 0.027901392
0000d0 7b 06 25 bb 55 a5 42 3c b3 fd 12 be ad 2b 04 3d
       -0.0025180865 0.011880239 -0.14354591 0.032268215
0000e0 6d 10 3e bd 56 94 17 3e ed e8 12 bc 91 87 a4 bd
       -0.046402384 0.1480268 -0.008966667 -0.0803367
0000f0 bd e1 12 be 8c de e4 bd af 1e 5b bd 38 c8 81 3d
       -0.14343925 -0.1117526 -0.05349606 0.06337017
000100 81 02 5d bd c3 5d 85 3c 8d d4 01 3e 68 d5 a3 3b
       -0.053957466 0.01628006 0.12678738 0.0049998052
000110 71 e6 c4 3d 00 51 c4 bd 14 88 b1 bd fd 86 c9 bd
       0.09614266 -0.09585762 -0.08668533 -0.098402
000120 6e ce 37 3d cc e1 51 bd de fd d3 bd 27 6a 72 bd
       0.0448746 -0.051240727 -0.10351156 -0.059183266
000130 87 da 16 3e 96 bd 57 3e 92 36 0a bd 3c 0b 12 bd
       0.14731799 0.21068415 -0.03374345 -0.035655245
000140 db 81 f3 bc e6 7f 94 bc 89 de a0 bc 9c a0 83 bd
       -0.029725006 -0.018127393 -0.019637363 -0.06427118
000150 8d 6b bc bd 20 35 8b 3c 61 d3 c1 bd f6 3b 36 3b
       -0.09200201 0.016993105 -0.094641455 0.0027806736
000160 8b 32 e1 3c 34 25 02 be db be f0 bc ef 31 4b bd
       0.027489921 -0.12709504 -0.029387882 -0.049608167
000170 bb d0 91 bb 36 ca 7a bd 96 2a 51 bd 6c d1 0e 3e
       -0.0044499314 -0.061228 -0.051066004 0.13947076
000180 30 d4 ce 3d 8c 27 e0 bc 9c 42 0b bd 84 21 14 3d
       0.10099065 -0.027362607 -0.03399907 0.036164775
000190 06 5b 8e 3d 20 4a 65 bd 71 d3 d0 3d 3d 5f 07 3e
       0.06950955 -0.055978894 0.10196579 0.13219924
0001a0 7e 71 32 3d 8a 90 06 3e f1 ee 02 3e f0 47 6c 3d
       0.043565266 0.13141075 0.12786461 0.057685792
0001b0 c6 a0 19 be 32 03 f6 bd 36 e2 74 bd a8 76 e0 bd
       -0.15002736 -0.12012328 -0.059786044 -0.10960132
0001c0 c8 2b 80 bd 56 f3 3a be aa b8 d5 bb 00 42 de 3d
       -0.062583506 -0.18256888 -0.006522258 0.10852432
0001d0 8c e5 7e bd 81 84 81 3d 5b 29 39 bc 4f 93 12 3e
       -0.06223063 0.06324101 -0.011301364 0.14314006
0001e0 c4 a4 8d bb ce de 89 3d b1 c6 a1 bc f5 dc 44 bc
       -0.00432262 0.0673195 -0.019748064 -0.012015571
0001f0 1f 38 d2 bd 93 56 7e bd 07 2e c5 bd 5f 55 56 3c
       -0.102646105 -0.062094282 -0.0962792 0.0130818775
000200 73 53 bf bc 1e e6 ff 3d 3c f5 86 3d 93 39 5a bc
       -0.023355221 0.12495063 0.065897435 -0.013319391
000210 c4 7a 35 3d 64 66 bd bd 70 c9 06 bc db fc 4c 3d
       0.04430653 -0.09248045 -0.008226737 0.05004583
000220 52 22 00 3d d1 4c 18 3c 81 0f da bd 78 8d 30 3c
       0.03128273 0.009295658 -0.106474884 0.010775916
000230 f0 d5 8f bc 4a 67 e9 bc 44 28 12 bc 77 31 9d 3c
       -0.017558068 -0.028491635 -0.008920733 0.019188626
000240 a9 32 1a 3b 3d c6 ba bd 68 cb 2a 3d f5 a9 20 bd
       0.002352873 -0.09119842 0.04169789 -0.039224584
000250 7b 50 33 3d fe 74 d1 bc ab a8 12 3d c7 25 86 bc
       0.043777924 -0.025568482 0.035805386 -0.016375436
000260 58 8a 89 bd 09 c3 9d 3d 13 c2 01 be 86 7d cf bd
       -0.0671584 0.07703216 -0.1267169 -0.101313636
000270 b5 38 3b 3d ef 12 34 bb 17 4f 5d 3d 15 f5 0b bd
       0.045708377 -0.0027477106 0.054030504 -0.034169275
000280 e4 fd 88 3a e1 0d bb 3d c4 ac c8 bc 79 a2 dd 3d
       0.0010451642 0.091335066 -0.024496444 0.10822005
000290 6b 75 4e 3d 87 42 13 bc 4b db a9 3c 56 5e 24 3e
       0.050404947 -0.008988029 0.02073445 0.16051611
0002a0 2e de 41 bc 1b cd d7 bd 49 69 1e 3d 65 26 19 3e
       -0.011832757 -0.10537168 0.038674626 0.14956053
0002b0 73 bd 84 bc 29 8b b2 3d c3 81 94 bd 55 03 d5 bd
       -0.016203618 0.08717949 -0.072513126 -0.10401026
0002c0 0b c0 e7 3d b2 8e 3b 3d 82 0e 9d 3d 3a 96 a7 bc
       0.11315926 0.04579038 0.07668783 -0.020457376
0002d0 90 07 b2 3d c5 2f c6 3b 72 40 ff 3d 29 4f 09 3c
       0.08692849 0.006048175 0.12463464 0.00838069
0002e0 5c c5 81 3d ac 1d cf bd 81 26 0f bd b1 6b 96 bd
       0.063364714 -0.10113081 -0.03494883 -0.07344759
0002f0 df 79 48 3d b8 c6 1a bc 75 b7 95 3c 6a a1 a3 bd
       0.04894435 -0.009446792 0.018275956 -0.07989772
000300 34 2f 0d be d5 2b 46 3d 95 72 12 bd c3 f3 ee bb
       -0.13787538 0.048381645 -0.035753805 -0.0072922423
000310 9a 63 50 bd d7 69 33 3c 1f 19 3e 3d f9 38 b3 3d
       -0.050876237 0.010950527 0.046410676 0.08751101
000320 78 0c 48 3d 53 a9 31 bd 67 09 0a bd d6 76 1f bd
       0.048840016 -0.04337437 -0.033700373 -0.03893169
000330 ab 45 e3 3d c0 31 0e 3e 8d 1f a5 bd 4c a4 de bd
       0.110972725 0.13886166 -0.080626585 -0.10871181
000340 c0 dc e3 3d 72 6c 96 3c 6a 17 8d 3d 1a 9e 35 bd
       0.11126089 0.018362258 0.068892315 -0.04434023
000350 50 d4 09 be f4 56 c5 3d 4f 1c 51 bd 99 40 54 bc
       -0.13459897 0.096357256 -0.051052388 -0.012954854
000360 97 f4 4f 3d 47 5e 17 be 20 23 11 be 0e 77 87 bb
       0.05077037 -0.14782058 -0.14173555 -0.0041340655
000370 43 3b 9d 3d 46 69 61 3d 07 2f 7d bd 37 18 38 3d
       0.07677319 0.055032037 -0.061812427 0.044944968
000380 fb 2b 81 3d b7 97 d1 3c 98 b1 91 3d e6 b0 8e 3b
       0.06307217 0.025585039 0.071139514 0.004354584
000390 f6 f2 be bc 68 74 48 3d 83 bb 1c 3e 08 e5 f0 3c
       -0.023309212 0.04893914 0.15305905 0.029406086
0003a0 9f ae 41 3d f6 87 da 3d 9e 6c bf bc 0d 37 ed 3d
       0.047285672 0.10670464 -0.023367222 0.11582766
0003b0 a6 8e 98 3d 65 de ce bd 56 af 1d be e5 63 8c bd
       0.07449083 -0.10101012 -0.15398917 -0.06854991
0003c0 0c 92 ab 3c 7f fe 1a be ed 33 4e 3d 9d 21 08 bd
       0.020943664 -0.15136145 0.05034249 -0.03323518
0003d0 3a de c1 bd 73 19 59 3d 47 35 e4 bd 85 0d 31 3d
       -0.094662145 0.053002786 -0.11142974 0.043225784
0003e0 67 5d 1b be 51 a5 50 3d 27 29 c3 bd 98 a8 db bd
       -0.15172349 0.050938908 -0.095293336 -0.10725516
0003f0 03 86 23 be c9 a7 6d 3d 0f 7f a4 3c c1 94 09 3d
       -0.1596909 0.05802134 0.020080118 0.03358913

lstm.bias_ih_l1 f4 [256]
000000 3d 83 5e 3c 95 6e a7 bc 64 52 9b bd 8c 34 c3 bd
       0.013581094 -0.020438472 -0.07584074 -0.09531507
000010 3f b2 ff 3d 47 78 09 3d 81 2e 6d 3c af a8 fa 3d
       0.124851696 0.03356197 0.014476419 0.12239205
000020 df 7a 0c 3e 8c 99 8a 3d 07 32 ce bb 30 26 e8 3d
       0.13718747 0.06767568 -0.006292585 0.11335409
000030 23 54 88 bd e8 ae c5 3d 22 ac 2b 3c 71 1c 8c bd
       -0.06656673 0.09652501 0.010478051 -0.06841362
000040 b8 96 0a 3e 6a 50 c0 3d 6a c5 f8 3c 84 4c 9f bc
       0.13534057 0.09390338 0.030367572 -0.019445665
000050 0b b3 98 bc d0 aa 95 bd 83 9a cb 3c 89 43 a1 3b
       -0.018640062 -0.073079705 0.02485395 0.004921381
000060 50 d1 d9 bd a7 03 1d 3e 85 23 df 3d 50 3b 92 bc
       -0.10635626 0.15333425 0.10895447 -0.017850548
000070 f1 41 88 bd c5 f3 0e 3e 51 a6 40 3d fc 57 bd 3c
       -0.06653202 0.13960178 0.04703361 0.023113243
000080 dd 43 b0 3d ac e4 e6 bc 06 86 62 bd 65 4f 6d 3c
       0.08606694 -0.028185211 -0.055303596 0.014484261
000090 2a 61 54 3e 94 7a 10 3d 7c 57 3b 3d 70 2b 31 bd
       0.2074019 0.03527315 0.04573773 -0.043254316
0000a0 04 2b 56 bd cb 4e f0 3d 2f 73 b2 bd 93 7b ce 3d
       -0.052287117 0.117337786 -0.08713376 0.10082164
0000b0 1a f0 1e 3d 0e 2b c9 3d 46 da d8 3d 44 a9 75 3d
       0.038803197 0.09822665 0.10588507 0.059975877
0000c0 9b 40 6d 3c 5e 6f 94 3d e9 4a 33 3d 2a 98 c3 3d
       0.014480735 0.07247804 0.04377261 0.09550507
0000d0 ba a3 07 3e ac d5 11 3e 48 e0 a0 bc b6 bc ba 3d
       0.1324605 0.14241666 -0.019638196 0.09118025
0000e0 74 d8 dd 3d e0 a9 c9 3d f9 85 34 3d 9a 38 54 3d
       0.10832301 0.09846854 0.04407308 0.051811792
0000f0 5a 44 19 3d 46 d5 a9 bd 95 48 0c bc 86 bb a4 3d
       0.0374187 -0.08292632 -0.008562227 0.0804358
000100 92 88 c2 bd 13 69 1e 3d 70 41 de bd 68 9d cc bd
       -0.09498705 0.038674425 -0.10852325 -0.0999096
000110 8e 3e 33 3d a6 49 95 3d 44 e7 aa 3d 31 13 d2 3d
       0.04376083 0.07289438 0.08344892 0.10257567
000120 64 e5 81 bd 1f 6e 07 3d 4d 6e 05 3e e1 9a 98 bd
       -0.06342581 0.033064004 0.13030358 -0.07451416
000130 d6 c3 2e be c7 80 80 bd e8 cc 56 3d 5c 59 0c bd
       -0.17066893 -0.06274562 0.052441508 -0.034264907
000140 34 15 4b 3d a3 a5 0b be 9b 34 94 3d 49 3c 56 bd
       0.049580768 -0.13637404 0.07236596 -0.052303586
000150 5b c3 1f bd 70 78 22 bd 08 5c 3f bd 3b fc cd bd
       -0.039004665 -0.03966564 -0.046718627 -0.10057875
000160 56 ed b1 bd fb 5a 13 bc 20 14 fa bc ab 25 f5 bc
       -0.08687846 -0.008993859 -0.030527174 -0.029925188
000170 e3 4e a5 bb a3 dc fe 3d cd 72 72 3c 7e b1 29 be
       -0.0050448044 0.12444427 0.014797878 -0.16571614
000180 47 55 8c bd e2 3f 04 3e d6 2c 19 bd ff f4 85 3d
       -0.06852203 0.12914994 -0.037396275 0.0654087
000190 9a 68 8c 3d 34 c9 07 3e 15 63 0b be ef b0 9f 3d
       0.06855889 0.13260347 -0.13612016 0.07797419
0001a0 41 f7 9e 3d 58 29 e1 bb 45 da 74 3d dc da 46 bd
       0.07762004 -0.0068713836 0.05977847 -0.048548564
0001b0 b9 fc 9a bd 61 1d 77 bd 7f 0a d9 bd 57 35 83 bd
       -0.07567734 -0.060330752 -0.10597705 -0.06406658
0001c0 c3 b8 aa 3d ab 6f f5 bd 54 e1 98 3d 50 a4 22 bd
       0.08336022 -0.119841896 0.07464853 -0.03970748
0001d0 72 b4 af 3d 65 b6 6b 3d ff a1 1e 3d 47 f7 fb bd
       0.08579339 0.05754699 0.03872871 -0.12303024
0001e0 4b bd fc bb 6c be b3 3d 5d cc fa bd 62 3f 3b 3d
       -0.007712995 0.087765545 -0.122460105 0.045714743
0001f0 8d c5 5b bd df e7 41 3d fc 62 47 3c 1b 58 3f bd
       -0.053655196 0.04734027 0.012169596 -0.046714883
000200 67 b9 6f 3d d0 a4 7d bd 61 5b e3 bc 39 18 92 3d
       0.058526423 -0.061924756 -0.027753534 0.07133526
000210 02 39 06 3d ae db dc bd 8d 11 01 bd 1d aa f6 bd
       0.03276921 -0.10784088 -0.03151088 -0.12044165
000220 9a 10 41 3d 5d 69 bd 3d 8f c6 c3 3d 25 29 fa bd
       0.047134973 0.09248612 0.095593564 -0.12214879
000230 8b 2e 8b bb 22 41 45 bc b3 e9 e4 3c 6b 9c b5 3d
       -0.0042474917 -0.012039455 0.027943468 0.08867725
000240 7f aa 1e 3c 35 64 bf 3d 58 49 2c 3d 2a bc eb bd
       0.009684204 0.09345285 0.042062134 -0.11510499
000250 05 d4 c8 3d 7c 61 11 be ac 8c a8 bd d0 9b 5c 3d
       0.098060645 -0.14197344 -0.08229956 0.053859532
000260 c2 06 e0 3d 69 13 62 bd 80 0f 83 3d ef 93 c3 bd
       0.10938789 -0.055194292 0.06399441 -0.095497005
000270 89 ce 19 3d 46 3e 64 3b ee 8c 64 3c e3 5c 91 3c
       0.037550483 0.0034827157 0.013949616 0.017744487
000280 d7 03 cc bc 50 89 e0 3d 8d de d2 bc 6a 48 3e 3d
       -0.024904175 0.1096369 -0.025740886 0.04645578
000290 97 f0 ad 3d f7 67 b2 3c 86 ed ad 3d 21 0d d0 bc
       0.084931545 0.02177809 0.084925696 -0.025396885
0002a0 52 ac e6 bd 12 78 36 3d 83 d9 d0 3d 63 7e 49 3d
       -0.11263336 0.0445481 0.10197737 0.049192797
0002b0 7e c3 85 3d d3 d2 20 3b 32 c7 28 3d b7 60 ed bd
       0.06531428 0.0024539724 0.041205592 -0.115907125
0002c0 8a e2 e2 3d e8 2b 94 bd 74 ab e2 bc 27 d1 9e bd
       0.11078365 -0.07234937 -0.027669646 -0.077547364
0002d0 c2 80 27 3d 0d fc 05 3e d6 b3 7a bc 8f 29 74 3d
       0.040894277 0.13084431 -0.015301665 0.059609946
0002e0 5e c2 ca bd ef c0 39 bd e3 d6 20 3c c8 2e df 3d
       -0.09900354 -0.04535001 0.009816858 0.10897595
0002f0 ef 47 18 bd cb 71 c9 3c ce c1 9d 3c 72 04 82 3d
       -0.037177976 0.024590394 0.019257452 0.06348504
000300 46 0e 8e 3d c3 bd 05 3e 0e ae 52 3d 5b 3f ce 3d
       0.06936316 0.1306067 0.051435523 0.10070678
000310 6c 65 c7 bc ad 0e 02 3d 68 0d 2b 3e 49 9f 86 3c
       -0.024340354 0.031752277 0.16704333 0.016433375
000320 1b 63 58 3c 2d 21 9c 3d a2 3c f8 3d 99 f2 e1 3d
       0.013207222 0.07623515 0.1212094 0.110326
000330 2c fb 1d bd 3b 09 18 3e d9 7a 43 bb 9d b2 15 bd
       -0.038569614 0.14847271 -0.0029827862 -0.036547292
000340 82 3f bb 3d 08 80 26 3d 36 e8 e2 3d 2a 25 de bd
       0.091429725 0.040649444 0.11079447 -0.10846932
000350 e7 c9 f9 bc 6f f3 58 3d 32 e9 03 3e 81 e0 f7 3c
       -0.030491782 0.05296653 0.12881926 0.030258419
000360 95 09 fa bd 87 65 87 bd 0a 70 d9 3d 16 3f c9 bd
       -0.12208859 -0.06611162 0.10617073 -0.09826486
000370 f2 4c 8a 3c c9 b1 51 bd c5 d7 ca 3d 5e 4d a7 3c
       0.016882394 -0.05119494 0.09904436 0.020422634
000380 ef be bb 3c c3 7c ca bd 7e c7 e8 3d bf bb 93 bd
       0.022918193 -0.09887078 0.11366175 -0.07213544
000390 af 99 c5 3d a1 9e 75 bc 1d d8 15 be ba a3 29 bd
       0.096484534 -0.014991433 -0.14633222 -0.041415907
0003a0 6b ce ac 3d 67 a6 8c 3c 84 1a b0 3d a6 85 53 3d
       0.084378086 0.01716919 0.085988075 0.05164113
0003b0 4d 01 d1 bd be d2 07 be f1 0e cd bd d1 9e 0d 3e
       -0.10205326 -0.13263986 -0.100126155 0.13830115
0003c0 d2 32 e0 bd 99 59 d0 3b b4 74 e3 bc 2e a2 1a 3e
       -0.10947193 0.006358337 -0.02776561 0.15100929
0003d0 a9 5d c9 bb d6 d1 1e 3e b0 a5 ee 3d 23 bf 0b 3d
       -0.0061451984 0.15509734 0.11652696 0.03411783
0003e0 f8 5b 1a bb 4d 91 03 3d 9b 90 66 bd 86 15 2c bd
       -0.0023553353 0.03212099 -0.05629025 -0.042012714
0003f0 65 c8 e7 bc d8 2a 35 bd 95 b9 95 3c 69 20 d0 bd
       -0.028293798 -0.044230312 0.018276969 -0.10162432
